projects/p3_collab-compet/actor_1.pth (torch_old, 52206 bytes, 18 tensors)

fc1.weight f4 [128, 24]
000000 d0 ad ad bd cb e8 e8 3c d6 42 48 3d 3a 4c aa 3d
       -0.08480418 0.028431317 0.048891865 0.0831532
000010 0d c6 5e bd b6 53 91 bd fe 30 5c 3d ff 88 90 3c
       -0.054388095 -0.07096045 0.05375766 0.01764345
000020 1c 76 d6 bd 8c 13 00 bd 09 d7 36 3d 54 67 45 3b
       -0.10471746 -0.03126864 0.044638667 0.0030121403
000030 91 c6 e3 bc b7 67 94 bd 8f d0 7b bd f2 8a 80 3d
       -0.027804645 -0.072463445 -0.061478194 0.06276502
000040 c3 20 70 bd ae 55 9e 3c ae 81 3e 3d 2e c8 cf bd
       -0.058624994 0.019327965 0.04651039 -0.10145603
000050 be 22 ae bd aa dc ae 3d 12 c7 38 bd 64 b2 fa bd
       -0.0850272 0.08538182 -0.045111723 -0.122410566
000060 4f c3 d1 3c 46 e4 e4 bd 40 4e 67 bd a9 f1 7c bd
       0.025605826 -0.11176352 -0.05647111 -0.061753903
000070 6a 03 99 3d 1b 6e 23 3d 89 02 c2 3d ff 43 23 bd
       0.07471354 0.039899927 0.0947314 -0.039859768
000080 73 46 32 3d 20 89 49 bd 59 62 e9 3c e2 b3 18 3c
       0.043524217 -0.04920304 0.028489279 0.009320231
000090 f2 13 22 3d 60 02 67 bd 8f 61 f8 3c 7a a5 34 bd
       0.039569803 -0.05639875 0.030319957 -0.044103123
0000a0 ce ea 9c 3b ec bc 10 bd 90 43 38 3d 84 6d 93 3c
       0.004788733 -0.03533642 0.044986308 0.017996557
0000b0 09 24 d9 3c 55 8f 6f 3d 0c 94 26 3c 73 e5 7d bc
       0.02650644 0.0584863 0.010167133 -0.0154965995
0000c0 08 7d 1a bc 8b a5 24 3b 3c 9f 80 bb 0c 76 6c 3d
       -0.009429224 0.0025123085 -0.003925232 0.057729766
0000d0 37 3a 52 3d ab 55 4a bd ec c0 89 3d 72 86 a4 3c
       0.05132505 -0.049398106 0.0672625 0.02008364
0000e0 ab a6 e0 bc 5b 6d 35 3d b3 ea 63 3d 41 28 fc 3c
       -0.027423223 0.044293743 0.05564375 0.030780913
0000f0 bc fd 08 bd 07 3b 82 3d 02 aa 88 3d 6c b6 a9 3d
       -0.033445105 0.06358915 0.066730514 0.08286747
000100 0c fe 36 bd 38 dd 83 3c 63 a1 40 bd fb 54 da 3d
       -0.04467587 0.016096696 -0.04702891 0.1066074
000110 a4 71 7f bd 3a 0a a1 bd 13 b6 55 3d 35 be d3 bc
       -0.062364236 -0.07863279 0.052175593 -0.025847534
000120 e9 83 21 bd d4 ea a1 bd ef df bf bd 26 76 80 bc
       -0.03943244 -0.07906118 -0.09368884 -0.015681338
000130 15 fe 3b 3d bc 27 c4 bd db 60 1a bc 71 92 63 3d
       0.04589661 -0.09577891 -0.009422506 0.05555958
000140 e6 4a 87 3d 34 57 01 3d e7 cc d8 3c 55 03 ed 3c
       0.066060826 0.031577304 0.026464893 0.028932253
000150 2b 4e 42 bc af 88 46 3d b4 04 25 bd f6 33 da bd
       -0.011859457 0.048470195 -0.04028769 -0.10654442
000160 7c 41 a1 bd ca a3 19 3d 90 a9 2e 3d 71 8c d7 3c
       -0.07873818 0.037509717 0.042642176 0.026312085
000170 11 a4 40 3c 36 c7 83 3b f2 db c8 bd ce d3 d5 bd
       0.0117578665 0.0040215505 -0.09807576 -0.10440789
000180 38 d0 b3 3d 18 e7 cf 3b 2d 5b 5b 3d 84 70 23 bd
       0.08779949 0.006344687 0.05355375 -0.039902225
000190 76 ca 3e bd 79 b8 78 3c 1f 4a 47 3d eb 52 8d bc
       -0.0465798 0.0151807 0.04865467 -0.017251452
0001a0 e4 72 4c bd 78 64 83 bd fc 81 8b 3d 58 bc bc bd
       -0.049914256 -0.06415647 0.06811902 -0.09215611
0001b0 82 08 a6 3d 45 49 b1 3d d2 82 2e 3c ce 81 0f 3c
       0.081070915 0.08656553 0.010651307 0.008758975
0001c0 b3 77 5b 3d ec a4 14 be 2d 38 02 3d e6 0c a8 bd
       0.05358095 -0.14516038 0.031791855 -0.08205585
0001d0 78 f0 46 ba 09 0f 96 3d b4 2e ea bb 8f 46 19 be
       -0.0007588933 0.073270865 -0.0071466807 -0.14968322
0001e0 90 c7 15 3d c1 45 ad bc 38 c9 3d 3d ec 82 24 3d
       0.03656727 -0.021151425 0.046334475 0.04016392
0001f0 9f 11 57 3d d4 95 74 3c f8 45 a3 3d 3c 30 96 bb
       0.05250704 0.0149283 0.0797233 -0.0045833867
000200 c7 4f b5 bb 39 f7 58 bd bc ed 0b bd 98 95 ab bc
       -0.005533192 -0.052970145 -0.034162268 -0.020945355
000210 1c 97 96 3d 9c 64 aa 3d 91 35 bc 3d 86 bb 84 bc
       0.073530406 0.08319971 0.091899045 -0.0162027
000220 87 45 73 3d 38 36 55 3d 89 c3 7a bd 50 5e fd 3c
       0.05939248 0.05205366 -0.061221633 0.03092876
000230 6b 7d 0f 3d 69 11 7b 3d 1d 5b 02 3d 88 0a ff 3d
       0.035031717 0.0612959 0.031825174 0.124531806
000240 7d e7 02 bd ca de 00 3e 5f da b9 3b 41 27 9f 3d
       -0.031959046 0.12584987 0.005671784 0.07771159
000250 da ee be 3c 9d bc 21 3d ec b2 58 bd 1b 2d c1 3d
       0.023307253 0.039486516 -0.05290501 0.09432431
000260 eb 06 48 bc d3 c4 58 3c 05 19 ad bd aa 3d 1e 3d
       -0.012208681 0.01323052 -0.08452038 0.038633026
000270 8f a9 5e bc f7 a5 a8 bd 59 d4 6f bd e8 e7 65 3d
       -0.013590231 -0.0823478 -0.05855212 0.056129366
000280 26 ed 15 3d 82 4c ff 3c e5 42 0c 3d e9 72 70 bc
       0.036603115 0.031164411 0.034243483 -0.014675834
000290 4d 55 2e 3d 96 dc d9 bd 68 c4 b7 bd 24 ff 24 3d
       0.042561818 -0.106377766 -0.089730084 0.040282384
0002a0 a7 42 42 bd ca be 28 bd 7a f5 c4 bd 33 95 db bd
       -0.047426846 -0.041197576 -0.096171334 -0.10721817
0002b0 f2 30 18 3d 6f ac 19 3a fc 2f a4 bd 8f 1d 16 bd
       0.037156053 0.00058621814 -0.08016965 -0.036649283
0002c0 8b ec 40 bd ac 2a 08 be b0 54 48 3d 04 00 a8 bd
       -0.047100585 -0.13297528 0.04890889 -0.08203128
0002d0 02 e4 05 bd 29 ea 83 3d 6c 9e 4f 3d dd 8f 5a 3d
       -0.03268815 0.06441147 0.050688192 0.053359855
0002e0 9b ce 19 3d e9 ed 20 bd 73 0e de 3c 13 2e 8e bd
       0.03755055 -0.03928939 0.0271065 -0.06942382
0002f0 81 79 67 3c f1 6d 6a bd 03 09 3e 3d e4 d3 b7 bc
       0.01412809 -0.057233755 0.046395313 -0.022439905
000300 fb 82 29 3c ed a2 01 3e ac 60 08 bd b5 af ba 3d
       0.01034617 0.12659808 -0.03329532 0.09115545
000310 11 f6 2b bd 1c dd d4 3d 7d 60 15 3c fa ba 23 bd
       -0.041982714 0.10393736 0.009117243 -0.039973237
000320 4f 5c a4 3d 62 4e 83 bc ff f5 ae 3d 0f dc a6 bd
       0.08025419 -0.016028587 0.08543014 -0.081474416
000330 0c 91 a9 bc 4c ec bd 3d b2 d5 2d bd 7b 71 af bd
       -0.020699047 0.09273586 -0.042440124 -0.085665666
000340 ff 26 70 bd 41 34 a5 3d 95 c8 3a bd 70 49 dc bc
       -0.05863094 0.08066607 -0.045601446 -0.026890486
000350 1b 42 78 bd 67 8b 8e 3d e6 9d 57 bc 80 71 d8 bd
       -0.060609918 0.06960183 -0.0131602045 -0.105685234
000360 38 8e 4a 3d 46 99 32 3c d5 11 c1 bb 0a 5d 1f 3b
       0.049452037 0.010900801 -0.0058920183 0.002431693
000370 42 34 89 bd 34 90 73 bc f4 0e fc bc bd 1d 5b 3d
       -0.066994205 -0.014865924 -0.030768849 0.053495158
000380 e9 0a 6c 3d 27 45 1c bd a9 16 d5 bd e8 25 a2 3d
       0.057627592 -0.038151886 -0.10404713 0.07917386
000390 5f 85 67 3d 7d 5e 87 3d c8 7d f6 3b 83 50 83 3d
       0.056523677 0.06609819 0.0075223185 0.06411841
0003a0 a1 0b 9c bd 2b c4 fc bb 65 4e 42 3d c9 e2 15 3d
       -0.076194055 -0.0077138147 0.047438044 0.036593232
0003b0 30 d1 4e 3d e3 17 74 3c d8 72 87 bd d9 44 91 3d
       0.050492465 0.014898273 -0.066137016 0.0709321
0003c0 01 60 c6 bc c8 f8 9c 3d c3 35 a5 bc 23 18 29 bc
       -0.0242157 0.07664639 -0.020167237 -0.010320696
0003d0 2d 88 ac 3c b4 15 e3 bd 31 45 d0 3c d1 82 1d 3d
       0.021061027 -0.11088124 0.025423618 0.038454834
0003e0 03 66 92 bd 80 83 a3 bd 89 69 26 bd 84 e7 04 3d
       -0.071483634 -0.07984066 -0.04062799 0.032447353
0003f0 a4 88 56 bd 5b da a1 3d 95 4f e2 bc f8 1a a0 3d
       -0.052376404 0.07902976 -0.027625838 0.07817644

fc1.bias f4 [128]
000000 b4 74 b0 bd 34 bc f7 3d d2 23 5a be 63 9b c2 bd
       -0.08616009 0.12096444 -0.21302727 -0.09502294
000010 ee b5 48 bd 7f 21 fb 3d f6 a3 21 3d 21 9e 26 be
       -0.049001627 0.12262248 0.039463006 -0.16271259
000020 6b 02 18 3c 72 03 86 bd a8 1f ef bd b1 69 94 39
       0.00927792 -0.06543626 -0.1167596 0.00028307506
000030 4f bd 01 3e 32 16 5d 3e 29 7a 3e 3e 60 98 09 3e
       0.12669872 0.21590498 0.18601288 0.13437033
000040 63 a7 2f 3e 98 89 7d 3d 48 a0 ce 3c 67 d3 80 bd
       0.17153697 0.061898798 0.025222912 -0.06290322
000050 9b 5a 9d bd 68 62 4f be c7 8d 03 3b 2a a0 06 3e
       -0.07683297 -0.20252383 0.002007352 0.13147035
000060 f8 1e 1f be 57 38 10 be a1 08 40 3e 40 14 1f 3e
       -0.15539157 -0.14083992 0.18753292 0.15535069
000070 bc 49 2b be b6 0f 3e be bf f0 7b bd 3a 67 1a be
       -0.16727346 -0.18560681 -0.06150889 -0.1507844
000080 8a 3c 0d 3d f6 c0 93 bd 00 c7 38 3d 67 77 a9 3c
       0.034481563 -0.07214539 0.045111656 0.020686818
000090 c4 64 35 3e 44 fe 66 bd 71 df 45 3d 4b ad b1 bc
       0.1771422 -0.05639483 0.048308793 -0.021689078
0000a0 78 bb 63 3d c2 a8 5e 3c 6d 26 d2 3d 5b 23 63 bd
       0.055598706 0.01359004 0.102612354 -0.05545364
0000b0 e6 23 ce 3d 8d f4 48 bd 05 a6 09 3e 85 1b 17 be
       0.10065441 -0.049061347 0.13442238 -0.14756592
0000c0 e3 41 1e be d4 04 5c bd 33 70 27 bd 36 6a 95 3d
       -0.15454821 -0.053715542 -0.040878486 0.07295649
0000d0 09 fd 6d 3d 1b e3 78 bd 73 fd 3a 3d cf 49 09 be
       0.05810264 -0.06076346 0.045651864 -0.13407062
0000e0 70 98 a0 3c 47 ed c5 3d 4d 98 5a 3e 5f da 7b 3d
       0.019603938 0.09664398 0.2134716 0.06148755
0000f0 91 e7 08 be a5 30 cc 3d 1c 30 33 3e 69 89 2a be
       -0.13369586 0.09970216 0.17498821 -0.1665398
000100 fe aa 2e be c5 80 21 bd 50 4d b8 bd d5 d6 ff bd
       -0.17057416 -0.039429445 -0.08999121 -0.12492148
000110 e6 13 41 be ff 44 7e 3d ba 61 92 bd 9c 04 a7 3d
       -0.18855247 0.06207752 -0.07147546 0.08155176
000120 d4 b0 2e 3e 5d 1e 0b be 86 7d 58 bd da 11 2f 3e
       0.17059642 -0.13585801 -0.052854083 0.17096654
000130 a1 c8 37 3e 44 6e 61 bd 77 5b ec 3d c3 5a cb 3d
       0.17947628 -0.055036798 0.11540883 0.09929421
000140 cb 6a 17 3e 5b b3 57 bd ec c8 a5 bd 54 92 bf bd
       0.14786832 -0.05266128 -0.080949634 -0.09354082
000150 3e e8 34 3c 4a 4d 82 3d f2 51 cf bd bd ad 61 be
       0.011041699 0.06362398 -0.10123052 -0.22038932
000160 7b 70 13 3e 77 86 f4 bd 2f 8d 77 bd 02 77 98 bd
       0.14398377 -0.1193971 -0.060437378 -0.07444574
000170 f8 4f 69 bd 60 ae 5b be b5 48 6e bd 25 46 a0 3d
       -0.05696103 -0.21453238 -0.058174808 0.07825879
000180 d8 d4 cd 3d 31 75 1b 3e 6a c3 b3 bd 7a 6c b4 bd
       0.10050362 0.15181424 -0.08777507 -0.08809753
000190 04 0b 15 be b3 ca 95 bd a6 d0 31 be 5f fd bb bd
       -0.14554983 -0.073140524 -0.1736475 -0.09179186
0001a0 bc 51 97 bd a1 05 4c 3e 37 42 c8 bd 09 16 01 be
       -0.073886365 0.19924022 -0.097782545 -0.12606062
0001b0 90 77 be bd dd e0 8b 3d 82 42 24 bd 5a 21 68 3d
       -0.093001485 0.06829999 -0.04010249 0.05667243
0001c0 01 c5 1f 3e 8c a4 23 3e 2b d2 39 3e ad d5 f7 bd
       0.15602495 0.15980738 0.18146579 -0.12101302
0001d0 e5 6a 31 3e 30 b2 8c be 3c 32 d5 bd d6 e2 cc bc
       0.17325933 -0.27479696 -0.10409972 -0.025010508
0001e0 5d ab bd 3c c2 0a 99 bc 9b 91 5a 3e a4 6d 64 bd
       0.023153001 -0.018681888 0.21344607 -0.055768624
0001f0 02 00 ec bd e6 ba d0 bc 17 2b 32 bc 37 ef aa 3d
       -0.11523439 -0.025479745 -0.010874531 0.08346408

bn1.weight f4 [128]
000000 bf ce 41 3f b7 32 b9 3d bc 40 0e 3f 5a fa 5c 3f
       0.75706095 0.09042876 0.55567527 0.86319506
000010 6e 15 d5 3e 57 7d 35 3f 4c 5d dc 3e 5f aa 74 3f
       0.41617912 0.7089438 0.4303993 0.95572466
000020 19 3a f6 3e 25 f2 4d 3f 56 45 b2 3e 0d 8f 47 3d
       0.480912 0.8044761 0.34818524 0.04872041
000030 6e 8e 9c 3e b6 b9 4f 3f c6 9b fd 3e 66 ca e7 3e
       0.30577415 0.8114275 0.49532908 0.45271605
000040 8a e3 68 3f f5 08 7b 3e 4a ee 27 3e ba fa 2d 3f
       0.909722 0.24515136 0.16399494 0.67960703
000050 63 5c 78 3f 1d 1f 28 3f 58 3b ad 3e c7 08 2d 3f
       0.9701597 0.65672475 0.33834338 0.6759152
000060 58 fe 3b 3f 23 50 4a 3e 61 9d 60 3f 04 54 19 3f
       0.7343497 0.19757132 0.8774014 0.5989382
000070 1a b0 8b 3e 44 a4 7f 3d 6b 1c 2c 3f 2c 3a c9 3e
       0.27282792 0.062412515 0.6723086 0.39302194
000080 5c 61 1d 3f b1 cc 10 3e 02 b3 36 3f bc c2 3a 3e
       0.61476684 0.14140584 0.71366894 0.18238348
000090 13 a6 5b 3f 98 45 05 3f 46 f1 2b 3f 30 51 4a 3f
       0.85800284 0.52059317 0.6716503 0.7903013
0000a0 2a fc 6b 3f 68 fc 1d 3f 35 97 65 3f 29 7c d4 3d
       0.92181647 0.61713266 0.8968385 0.10375244
0000b0 3c cf 4e 3f c6 92 58 3f 2f 64 8c 3e 12 90 8a 3e
       0.80784965 0.8459896 0.27420184 0.27063042
0000c0 73 5c 64 3f a0 68 67 3f 33 4d 11 3e e0 6b 03 3f
       0.89203566 0.9039402 0.14189605 0.5133648
0000d0 76 4b 23 3e e4 5e 46 3f e9 6a f9 3d ae 51 b0 3e
       0.15946755 0.7748854 0.121785946 0.34437317
0000e0 dd 11 60 3f df 06 65 3f da cd 6d 3f 98 f5 0d 3f
       0.8752726 0.8946361 0.9289223 0.5545287
0000f0 36 9a a5 3d 00 fb 52 3f f6 96 63 3f f5 5d 5c 3f
       0.08086054 0.82414246 0.88902223 0.8608087
000100 70 9f 44 3f ca c7 ee 3e b8 b4 43 3f a0 f1 1e 3f
       0.7680578 0.46636802 0.7644763 0.6208744
000110 e6 48 8a 3e ab bd 4c 3f 58 56 af 3e 89 dc 55 3f
       0.27008742 0.7997691 0.34245563 0.83539635
000120 d4 92 f3 3e 88 fd da 3e 77 de 2f 3f 82 8f d8 3e
       0.47572958 0.42771554 0.6869883 0.42296988
000130 b6 90 30 3f a1 a6 c3 3d ae ee 6c 3d 66 bd 13 3f
       0.6897081 0.09553266 0.05784481 0.57710874
000140 11 27 bf 3e 66 a1 a6 3e 32 bd da 3d f1 f7 0e 3f
       0.37334493 0.32545012 0.106806174 0.5584708
000150 ce 04 9e 3e 1a f5 68 3f a6 8c ed 3d f7 47 c1 3e
       0.3086304 0.90998995 0.11599092 0.37750217
000160 68 a1 c5 3e 2d d3 15 3f 9b 0a 21 3e d3 59 48 3f
       0.38599706 0.58525354 0.15726702 0.7826206
000170 25 8a ac 3d 47 6b a2 3e 14 f5 16 3f 20 33 d8 3e
       0.084247865 0.3172247 0.5896771 0.42226505
000180 0a f1 17 3f c1 d9 ce bd 89 90 35 3e c0 19 58 3f
       0.5935217 -0.10100127 0.17730917 0.8441429
000190 b7 54 32 3f 7a 52 39 3f 31 78 42 3f 1c 6b 58 3f
       0.69660515 0.72391474 0.7596465 0.84538436
0001a0 35 27 37 3f 60 9c b6 3e 69 04 8d 3e d9 87 3c 3e
       0.715442 0.3566618 0.27542427 0.18411197
0001b0 2c 12 23 3f 16 b3 01 3f 2e 0e 95 3e ad b7 3f 3f
       0.63699603 0.5066389 0.2911238 0.7488964
0001c0 aa 11 f5 3e 68 3c e4 3e 54 97 db 3e 2a c3 11 3e
       0.4786504 0.44577336 0.42888892 0.14234605
0001d0 a4 f5 66 3f ff 75 d9 3d 1e 99 a8 3d a9 c0 1e 3f
       0.9021857 0.10618209 0.0823233 0.62012726
0001e0 10 5b 9d 3e ea 7b 55 3f 7f 4c f8 3e da f8 9d 3e
       0.30733538 0.833922 0.48495862 0.3085392
0001f0 87 a7 ef 3e c4 c6 db 3e 61 4f da 3e 47 47 e0 3e
       0.468075 0.42925084 0.42638686 0.4380438

bn1.bias f4 [128]
000000 23 e6 33 bd b9 f0 c9 bd c5 ed 4b bb f9 e1 04 3a
       -0.043920647 -0.09860367 -0.0031117063 0.0005069073
000010 44 69 b1 bd cf 79 83 3d ed 50 34 ba 4c d0 39 bd
       -0.08662656 0.064197175 -0.0006878514 -0.045364663
000020 8c 03 35 3d bc e8 cf 3d 72 df d2 3c d2 ea b2 bd
       0.044192836 0.101518124 0.025741313 -0.08736195
000030 35 1b 34 bd 4c 51 95 bd 9a 07 45 bc 74 52 6d 3d
       -0.04397126 -0.07290897 -0.012025738 0.05793996
000040 92 64 96 bd 19 16 a1 3d a4 fd 1a bc 2d 80 7f 3d
       -0.07343401 0.07865543 -0.009459887 0.062378097
000050 a2 a3 cd bc f6 57 e6 3b 2e 1e 9f 3d 77 3b 29 bd
       -0.02510244 0.0070295287 0.07769428 -0.041316476
000060 84 9b a8 3d 55 3c 90 3d 71 31 44 bd 67 f8 16 3c
       0.08232787 0.070427574 -0.047898713 0.009214497
000070 f4 18 3d bc 0b d1 ce bb 21 50 00 3e 86 fe 1b 3d
       -0.011541594 -0.006311541 0.12530567 0.03808453
000080 c5 04 ad 3d 4c 8c 47 3c 8e 41 97 3b ab b5 d8 bc
       0.08448175 0.0121794455 0.004615969 -0.026453814
000090 3d 94 88 3d f1 03 b3 3c bb b6 4b 3c bb 56 c2 bb
       0.06668899 0.021852465 0.012433703 -0.0059307492
0000a0 35 33 14 bd 01 0a 7a 3d 11 ec a0 bd 62 b8 51 bd
       -0.036181647 0.061044697 -0.07857526 -0.05120123
0000b0 6c b8 40 3d 46 90 64 3c 69 7b 6c 3d dd 88 2e bc
       0.04705088 0.013950413 0.05773488 -0.010652748
0000c0 d2 15 bd 3c 24 4a 93 3d 62 bd e8 3c 5d 20 34 bb
       0.023081694 0.071918756 0.028410617 -0.002748511
0000d0 24 70 7d 3d 99 8e cd 3d ea fd 3e 3d 61 26 33 3c
       0.061874524 0.10036964 0.04662887 0.010934443
0000e0 68 1c 60 3d 58 92 83 bd ac 8d f6 bc 47 a5 89 3d
       0.05471459 -0.06424397 -0.030096851 0.06720977
0000f0 61 e8 b5 bd 28 87 95 3d d0 ea 3b bd 68 aa b0 bd
       -0.088822134 0.0730117 -0.04587823 -0.086262524
000100 d6 08 ec 3a 58 97 29 3d f5 43 85 3d c0 b1 03 bd
       0.0018008004 0.0414041 0.065071024 -0.032151937
000110 37 77 69 3d ee 80 97 3b 14 94 e1 3d 71 d0 e9 3d
       0.056998458 0.004623524 0.11014572 0.1141671
000120 57 0e 7c 3d cc 9e 92 bd 43 55 94 bd a6 28 17 bd
       0.061537113 -0.07159194 -0.07242825 -0.036904
000130 2e 46 cb bd 65 a6 8a bd 6b d2 d3 bd e1 89 e0 3d
       -0.09925495 -0.067700185 -0.103428684 0.10963798
000140 65 d8 2f bd 6a 93 57 3c 92 a9 f7 bc e8 06 68 bd
       -0.04293098 0.013157705 -0.030232225 -0.05664721
000150 7b 91 88 bc a2 a4 d8 3d f1 18 a2 bd ab 6d 49 3c
       -0.016670933 0.10578276 -0.079149134 0.012294213
000160 23 f0 38 bd 07 40 59 3d a9 31 bc bb 95 90 8b 3d
       -0.045150887 0.053039577 -0.0057432246 0.06814686
000170 9b ae 96 bd 78 ff 97 3d 1e 41 37 bd b5 b6 0e bd
       -0.07357522 0.07421774 -0.044739835 -0.03484221
000180 74 86 37 bd ad 61 76 bd 31 04 e8 3d 7c 87 a4 bb
       -0.04480596 -0.060151745 0.113289244 -0.005021034
000190 ee e4 c0 3d ec f6 66 bd d6 25 1c bd 86 0c 98 3d
       0.09418665 -0.056387827 -0.03812202 0.07424264
0001a0 4b b0 74 bc fe fb fa bb 76 41 7d bd 48 cc 19 3d
       -0.01493461 -0.0076594343 -0.061830007 0.037548333
0001b0 f2 0d 77 3d fb 03 dd 3b 00 67 ff 3c 74 50 a1 3d
       0.060316034 0.0067448593 0.031177044 0.07876673
0001c0 24 c7 5b bc 6c a3 61 bd 1f 94 a3 3c de 3f 36 bc
       -0.013414178 -0.055087492 0.01996809 -0.011123626
0001d0 84 db e9 3c 4d 43 02 bd f2 8d 8b 3d ac 53 89 3b
       0.028547056 -0.031802464 0.06814183 0.0041908827
0001e0 19 a7 a2 3d 92 db ad 3c 15 0b af bb 8f 59 e9 bb
       0.079420276 0.021222863 -0.0053418973 -0.007121272
0001f0 d9 c1 35 3d 1f 3b 3b 3d 20 64 5f bd 4c 03 c7 3c
       0.04437432 0.04571068 -0.054538846 0.024293564

bn1.running_mean f4 [128]
000000 00 ad df 3f fb 9d 26 3f f7 7d 66 3f 6b 7b 69 3f
       1.747467 0.6508481 0.9003596 0.91203946
000010 ec aa 4e 3f f9 e9 4b 3f 44 4a ad 3e a3 44 ce 3f
       0.80729556 0.7965389 0.33845723 1.6114696
000020 02 b3 7b 3f d9 52 f1 3e 96 42 a0 3f 08 e1 0c 40
       0.9832002 0.4713352 1.252032 2.2012348
000030 74 7f e0 3e 17 7a 4c 3f 1e 9d ab 3f 40 5c e7 3d
       0.4384724 0.79873794 1.3407323 0.11296892
000040 b6 7a 3a 3f c5 d2 13 3f f2 72 90 3f 47 70 93 3e
       0.7284349 0.57743484 1.1285079 0.28796598
000050 c9 b3 86 3f 43 6a d6 3f 98 73 85 3f 51 dd 77 3f
       1.0523616 1.6751179 1.0425901 0.9682208
000060 15 45 4e 3f cb 43 8a 3d c4 03 11 3f d9 e9 34 3e
       0.8057416 0.06751212 0.5664637 0.17667331
000070 04 67 72 3f eb b2 aa 3f d2 1b 7e 3e 94 73 c4 3e
       0.9468844 1.3335851 0.248153 0.3836943
000080 1c 09 8e 3f 8e 2e 37 3f 61 01 5f 3f 43 86 fb 3d
       1.109653 0.7155541 0.8711148 0.12281468
000090 8a 76 4b 3f 48 e9 99 3f 72 c0 d5 3d 07 93 6c 3e
       0.7947775 1.2024317 0.10437097 0.23102961
0000a0 e8 36 0d 3f b0 39 8b 3f 74 17 b6 3f 13 09 48 3f
       0.55161905 1.087698 1.4225907 0.78138846
0000b0 e9 37 26 3f d1 9b d0 3e d3 5f 11 3f 21 26 b3 3e
       0.6492906 0.40743878 0.5678684 0.34990028
0000c0 10 d7 ae 3f cd 46 84 3e 49 90 bb 3e 19 fd 15 3f
       1.3659382 0.25835267 0.36633518 0.5858932
0000d0 05 92 30 3f fb 8f c6 3f a1 df 55 3d ee 13 30 3e
       0.6897281 1.5512689 0.052215222 0.17195103
0000e0 f6 c8 99 3e 04 5e 51 3f 42 dd c2 3f 6e e9 6d 3f
       0.30036134 0.8178408 1.5223773 0.9293431
0000f0 99 a8 95 3f 4f 64 16 3f 3c 3a b8 3f 83 59 2b 3f
       1.1692077 0.5874681 1.4392772 0.6693346
000100 ad 9f a3 3f c5 09 a1 3f f9 a7 57 3f 34 c3 ca 3e
       1.2783104 1.2581106 0.8424068 0.39602053
000110 fc c8 d3 3f 96 5b 86 3e 00 35 35 3f b6 95 09 3e
       1.654571 0.2624175 0.70783997 0.13436016
000120 5e c3 9e 3e dd 67 c3 3f 07 b1 44 3f 0b 98 3f 3f
       0.31008428 1.5266072 0.7683262 0.74841374
000130 bf f4 d5 3f 04 e5 e5 3f 91 68 74 3f f2 bd 45 3f
       1.6715316 1.7960515 0.95472056 0.7724296
000140 44 83 17 3f 00 63 9e 3f 03 d1 47 3f 8d 31 a3 3f
       0.5918467 1.2373962 0.780533 1.2749497
000150 6b bf 00 3f 07 fe 1f 3f 8b 87 9f 3f 0b 38 1c 3f
       0.5029208 0.6249699 1.246324 0.61023015
000160 0e 88 32 3f 0f 2e 94 3f f8 8d cc 3d cc aa d2 3f
       0.6973885 1.1576556 0.09988016 1.6458373
000170 ff f9 a1 3e 13 b9 cf 3e 0a c9 84 3f e4 18 bc 3f
       0.31636044 0.40570888 1.0373852 1.4695096
000180 9b ba c3 3f 56 44 05 3d 02 ef 4c 3f e1 1d 91 3f
       1.5291322 0.032535873 0.80052197 1.1337243
000190 09 e3 54 3d 3d 34 19 3f 5c dd 51 3f f8 2e 86 3f
       0.05197433 0.59845334 0.8197839 1.0483084
0001a0 fb 77 98 3f 81 db d3 3e 40 4b a8 3d b8 75 92 3e
       1.1911615 0.41378406 0.08217478 0.28605437
0001b0 5c 6b 77 3f 71 86 60 3f a0 e8 1e 3f 61 2e cf 3e
       0.9664819 0.8770514 0.6207371 0.40465072
0001c0 0c 60 64 3e 1a 48 ae 3f 64 76 91 3e 01 76 8e 3f
       0.22302264 1.3615754 0.28410637 1.1129762
0001d0 b7 63 b1 3f 93 4c 8e 38 61 df 70 3f 89 1e 9d 3f
       1.3858556 6.785351e-05 0.9409085 1.2274944
0001e0 f0 37 90 3c 22 3d 43 3f 91 2f b0 3f e9 1b 30 3e
       0.017604798 0.76265156 1.3764516 0.17198147
0001f0 4b 5d 60 3e 80 d2 4d 3f b3 d0 c8 3e ea ef a6 3f
       0.21910588 0.8039932 0.39221725 1.3041966

bn1.running_var f4 [128]
000000 0b e2 52 40 88 21 49 3f 42 01 b8 3f be 8d d1 3f
       3.2950466 0.7856679 1.4375384 1.6371381
000010 ce 74 9e 3f 9f 79 af 3f 19 67 0a 3f a9 b5 96 40
       1.2379396 1.3708991 0.54063565 4.7096753
000020 70 b2 e2 3f 90 a3 09 3f f8 33 94 3f 33 18 0d 40
       1.7710705 0.537652 1.157836 2.204602
000030 d3 c0 4b 3f e8 7f f6 3f ec fe c9 3f 7d bb 6d 3d
       0.795911 1.9257784 1.5780921 0.05804013
000040 1d 95 07 3f 5e e7 bf 3e 31 08 0b 40 d6 46 a0 3e
       0.52961904 0.37481207 2.172375 0.31304044
000050 eb a9 31 40 6c 65 d6 3f 15 88 33 40 61 fb 6e 3f
       2.775996 1.6749701 2.8051808 0.93352324
000060 df 5e 0d 40 7d cd 34 3d 3b 69 81 3f a6 ca 8c 3d
       2.2089155 0.04414128 1.0110239 0.068745896
000070 97 b2 cd 3f 77 db 2f 40 0c fe 5f 3e 69 2d 34 3f
       1.6070126 2.74777 0.21874255 0.7038179
000080 f9 51 9e 3f 60 72 7e 3f 2a 43 09 40 ca 0b d9 3d
       1.2368766 0.9939327 2.1447244 0.10597952
000090 f2 bd ad 3f 59 b1 9b 3f 81 f6 d4 3d 63 f9 54 3e
       1.3573592 1.2163497 0.103985794 0.20798258
0000a0 17 86 d7 3e 95 36 3d 3f 42 71 c2 3f 08 02 56 3f
       0.4209449 0.7391141 1.5190814 0.8359685
0000b0 a5 36 06 3f 8e 06 d5 3e 36 c9 6a 3f 0e 9d 9e 3e
       0.5242713 0.41606563 0.91713274 0.30979198
0000c0 97 8c 50 40 81 75 e1 3d 5b b0 84 3e 60 22 3b 3f
       3.258581 0.1100874 0.259158 0.7309933
0000d0 b5 22 88 3f 5a ea a6 40 93 00 36 3d 12 c0 18 3e
       1.0635592 5.2161074 0.04443414 0.14917019
0000e0 54 3f ce 3e a9 73 a0 3f fa 46 12 40 29 f8 d2 3f
       0.4028269 1.2535297 2.285582 1.6481982
0000f0 3b 20 47 40 9a 18 20 3f 3d db 91 40 fc 93 3a 3f
       3.1113422 0.6253754 4.5580125 0.72882056
000100 c7 a0 13 40 6b 1d f6 3f 48 57 92 3f db 8a 0a 3f
       2.306688 1.9227728 1.1432886 0.54118127
000110 ac c4 f0 40 53 f2 b2 3e 25 9a 47 3f fc a4 9c 3d
       7.524008 0.34950504 0.7796958 0.07648656
000120 b9 2c 5d 3e 92 98 6e 40 eb 61 bc 3f 42 75 7a 3f
       0.21599092 3.7280622 1.4717382 0.9783517
000130 da 36 9f 3f ff 05 7b 40 16 8a 04 3f 52 a6 45 3f
       1.2438614 3.922241 0.517732 0.7720691
000140 c9 5f 45 3f 93 8d 89 3f 5b 2a 56 3f de 1c a7 40
       0.7709928 1.074633 0.8365838 5.222274
000150 82 ca 34 3f ad e8 8b 3f 82 11 7e 40 12 73 88 3e
       0.706215 1.0930382 3.9698186 0.26650292
000160 a8 4f a1 3e ee 1d 5c 40 55 4a 6c 3d 94 1d 9a 40
       0.31506085 3.4393268 0.057688076 4.8161106
000170 0d 04 f6 3e 7b a2 c2 3e 1f a9 22 40 5a 28 71 40
       0.48049966 0.38014588 2.5415723 3.7680879
000180 de 12 4f 3f 46 50 a6 3c 81 7a 9c 3f 16 09 0c 40
       0.80888164 0.02030195 1.2224885 2.1880546
000190 32 9f 3b 3d e0 ec 98 3f 83 53 bc 3f 85 fe c6 3f
       0.045806117 1.1947289 1.4712986 1.5546423
0001a0 e8 fc 24 40 b4 91 90 3e 1e 9c 93 3d 83 85 72 3e
       2.5779362 0.28236163 0.07207511 0.23683743
0001b0 64 b0 38 40 18 e3 9e 3f be 78 75 3f af 41 19 3f
       2.885766 1.2413054 0.9588736 0.5986585
0001c0 45 03 9e 3e 88 95 bc 3f 32 93 c1 3e 91 a8 24 40
       0.3086187 1.4733133 0.37807614 2.5727885
0001d0 d7 87 ac 3f ef e4 57 37 64 1e 2f 40 63 ff 53 40
       1.3478955 1.2868301e-05 2.73623 3.3124626
0001e0 2c f9 e7 3b 6e 44 d7 3f 48 ee b2 3f 23 6d 2e 3e
       0.007079264 1.6817758 1.3978968 0.1703382
0001f0 5f bf b3 3e 0b 02 8f 3f c5 ab b7 3e b9 a7 ae 3f
       0.35106942 1.1172498 0.35873237 1.3644935

fc2.weight f4 [64, 128]
000000 e0 b9 90 3c 38 d6 b0 3d 8a 69 d4 3d 2c c6 bc 3d
       0.017666757 0.08634609 0.103716925 0.09217486
000010 bb ef 5b 3c 98 fb 10 bd 1b 41 6e 3d 1d 9a 87 3d
       0.013423855 -0.03539619 0.05816756 0.06621192
000020 c0 ea f2 3d 5a a5 95 bc 67 78 a5 bd 1f a1 f0 3c
       0.11861181 -0.018267322 -0.080796055 0.029373704
000030 6a 62 4d 3d 77 8b f8 bb c9 2d e6 bd 2e 5d 1c 3d
       0.050142683 -0.007584985 -0.112392016 0.0381748
000040 68 12 50 bb b3 a1 83 3d c3 49 5c 3d 68 13 82 3d
       -0.0031749252 0.06427326 0.053781282 0.06351358
000050 ba 6d ed bd ad 80 85 3d 19 64 a8 3d 00 3f 5c 3d
       -0.11593194 0.065186836 0.08222217 0.05377102
000060 61 b3 63 bd b9 9d 1e be fc c2 14 bd 55 5e 59 bc
       -0.05559099 -0.15489854 -0.036318764 -0.013267119
000070 20 22 33 bd 9f 1f f9 3d 8c 98 2d bc 71 90 60 bd
       -0.043733716 0.12164234 -0.010595452 -0.05482525
000080 39 48 b9 3d 05 ec 0d 3e b3 a9 92 bd aa fd 38 3e
       0.090469785 0.13859566 -0.07161274 0.18065515
000090 55 e5 8d bd df 3b 77 bb a9 f9 96 3d 28 02 c6 38
       -0.06928507 -0.0037724895 0.07371838 9.4417774e-05
0000a0 c6 82 b4 3d 65 36 a0 3d 0e 0f 1a 3d 8f 98 94 bd
       0.088140056 0.07822875 0.037612014 -0.07255661
0000b0 b5 cf e1 bd ce a4 83 3c 5f 74 f9 bc 67 83 51 3d
       -0.11025945 0.016069796 -0.030450998 0.051150706
0000c0 8e c3 28 3c 1a 22 ee bd 8b 6e d7 3d 2a e9 ff bb
       0.01030053 -0.11627598 0.10519131 -0.0078097777
0000d0 f4 af 7a 3c 7d 8b 93 3d b1 92 ab bd f1 48 05 be
       0.01530074 0.0720434 -0.083775885 -0.13016106
0000e0 be 85 92 bc 71 d5 bb 3d 91 50 d2 bd 65 0e a2 bc
       -0.017886039 0.0917157 -0.10269273 -0.019782254
0000f0 65 53 a8 3d e2 eb ac bd 30 13 3e 3d a2 57 c0 3d
       0.08219031 -0.084434286 0.046405017 0.09391715
000100 75 89 63 bd fb 35 80 3d ee 0b b4 bc fb de c6 3d
       -0.05555101 0.06260296 -0.021978345 0.09710499
000110 65 fc cd bc 19 24 16 bd 84 73 08 bd eb dc c4 bd
       -0.025144765 -0.03665552 -0.03331329 -0.09612449
000120 1b 42 21 be 29 ff 8d bd e6 b3 12 3d 55 15 bc 3d
       -0.15747873 -0.069334336 0.035816096 0.09183756
000130 57 19 76 3d d1 a0 28 3d fa c2 18 3d f0 79 bd bc
       0.06008276 0.04116899 0.03729532 -0.023129433
000140 b5 d5 b2 3d 88 02 e8 bc a8 37 41 3d 5a c2 56 3d
       0.08732168 -0.02832152 0.04717222 0.05243144
000150 e3 da 30 be 7e 33 86 3b 73 13 92 3d c8 90 1d bd
       -0.17270999 0.004095494 0.07132616 -0.038468152
000160 ef 98 cb 3d e0 d5 71 bc 06 f7 af 3d cb 99 ce bc
       0.09941279 -0.014760464 0.08592038 -0.025219819
000170 f9 3a 97 3d 4d f9 8a 3d 59 45 59 3d be a6 99 bd
       0.07384295 0.067858316 0.05304465 -0.07502507
000180 bd 6d 8d 3d c7 c3 e6 b9 d4 73 74 bd 1f f7 d0 3d
       0.069056965 -0.00044014884 -0.059680775 0.102033846
000190 ac 6b 12 3c c7 5c 0f bd 77 44 08 3e d6 59 22 bc
       0.008936804 -0.03500059 0.13307367 -0.009909114
0001a0 56 00 8e bd b1 af 9e bc ec c4 bc 3d 2c b7 82 3d
       -0.06933658 -0.019370886 0.09217247 0.063825935
0001b0 57 ca 8d 3d b9 55 f1 bd d7 60 be bb 17 18 a8 bd
       0.06923359 -0.117839284 -0.005809884 -0.0820772
0001c0 a7 7c 80 bd 5a 24 b6 3d 6c 01 b5 bd d4 c1 32 bd
       -0.062737755 0.08893652 -0.08838162 -0.04364188
0001d0 73 fa c7 bd c0 2e 7b 3b 09 46 e4 3d 9b c8 5a 3d
       -0.09764566 0.0038327426 0.11146171 0.05341397
0001e0 17 c9 f6 bc ed b7 9d bd 78 b9 40 3d 89 82 ae bd
       -0.030125184 -0.07701097 0.047051877 -0.08520991
0001f0 1d f0 aa bd b0 5e d0 bd 32 5c b6 3c 2d 98 af bd
       -0.08346579 -0.1017431 0.022260759 -0.08573947
000200 e7 fd 91 3d 2d 2e 81 3d ff 6c bc bc d0 79 82 3d
       0.07128506 0.063076355 -0.023001192 0.0637089
000210 bb 5c f2 3d 57 eb 1d be a6 1c 00 3d a2 0d 2e 3d
       0.11834093 -0.15421806 0.03127732 0.04249347
000220 28 c8 b8 bd c6 50 1f bd 2d 1f a7 3d 44 ee 97 3c
       -0.09022552 -0.03889539 0.08160243 0.018546231
000230 dc 85 26 ba 90 24 b9 3d 70 4e 13 3d 41 81 9d 3c
       -0.0006352344 0.09040177 0.035963476 0.019226672
000240 7d f3 ce 3d 7e 43 c2 bd 1a 22 a6 bd 4e f4 d9 3d
       0.101050355 -0.09485529 -0.08111973 0.106423005
000250 fa bf 94 bd ca d4 3f bc d3 a0 87 bc 0c 47 7a ba
       -0.07263179 -0.011708448 -0.01655618 -0.000954733
000260 36 c6 e6 3c 07 0e 85 3d 66 13 89 3d 03 85 66 be
       0.028170686 0.06496816 0.06693153 -0.22511677
000270 fa 7b 1a bc 74 d5 92 bc cd bc 5a 3d c6 41 01 3d
       -0.009428972 -0.017924048 0.05340271 0.031556867
000280 57 af a2 bd aa 7a 8b 3d 35 9b 9a 3c ae e1 06 3e
       -0.079436 0.06810506 0.018872837 0.13172027
000290 d0 9b eb bd cd 6c 9c 3c 99 45 37 bd ea 0b 17 3d
       -0.11504328 0.019094849 -0.044744108 0.036876597
0002a0 c8 61 7b 3d 69 f4 75 3d 9e be fa 3d d3 e2 60 bd
       0.06137255 0.06004754 0.122433886 -0.054903816
0002b0 b0 5f a5 3c a7 af 1e 3c 74 bb 66 bd 40 11 84 bd
       0.020187229 0.0096854335 -0.056331113 -0.06448603
0002c0 1f 3f bd 3c 58 21 c7 bd 8b 0a 29 bb 31 c5 8f 3d
       0.023101388 -0.09723157 -0.0025793638 0.07020033
0002d0 53 f6 5b bd e3 60 4f bd ed 55 d5 bd 05 0f f3 bc
       -0.05370171 -0.050629508 -0.1041678 -0.029670248
0002e0 4b 35 30 bd c1 51 a7 bd 72 5b ff bc 89 25 a9 bd
       -0.043019574 -0.0816989 -0.031171534 -0.082591124
0002f0 28 95 5d bd 71 e3 0a bd d4 1b ce 3c 9e 6a 93 3d
       -0.054097325 -0.03390831 0.025159754 0.0719807
000300 cd dc 46 bd b9 91 64 bd c1 b3 4f 3d 41 90 12 bd
       -0.048550416 -0.055803034 0.050708536 -0.035782102
000310 a5 49 b2 3d b5 74 02 3d 88 33 a8 bd b6 cd 14 be
       0.08705453 0.03184958 -0.08212954 -0.14531597
000320 a4 3e 24 3d f5 3a c1 3d 7e f6 2d 3d ac 54 25 bd
       0.0400988 0.09435073 0.0424714 -0.040363953
000330 57 03 a7 bd 16 6b b1 3d f8 96 28 3e bd 64 14 be
       -0.08154934 0.08663003 0.1646384 -0.14491554
000340 ec bd 1b 3d 61 0e 14 3d 51 2e de 3d 57 6f 39 bd
       0.03802292 0.036146525 0.10848678 -0.045272198
000350 ed 56 05 3e 92 11 c0 bd e0 09 b4 bd c3 fd a3 3c
       0.13021441 -0.09378351 -0.08790946 0.020018464
000360 cd 02 94 3d fd 88 1d 3c af 53 8d bd b7 f8 28 bd
       0.07227097 0.00961518 -0.06900727 -0.041252818
000370 39 9d f1 3d f9 67 a8 bd e4 76 97 bc 31 10 f4 bd
       0.11797566 -0.08222956 -0.018489309 -0.11917151
000380 d1 83 16 3e 2f ab 70 bb 9d d3 aa bd 73 6e 8c 3d
       0.14698721 -0.0036723127 -0.08341143 0.06857004
000390 6c 5d 5b bd e2 b1 a3 3d 78 4b 71 3d 3c ce 16 bd
       -0.05355589 0.07992913 0.058909863 -0.036817774
0003a0 49 fc e5 ba e1 32 99 bc 6e 5e 78 3d 72 74 4d 3d
       -0.00175465 -0.018701019 0.06063693 0.05015988
0003b0 51 6c 8f bd 72 6e 57 bd 1c 76 19 bc 94 01 90 3d
       -0.070030816 -0.052595563 -0.009366538 0.07031551
0003c0 ad f9 a4 3d df 5c f4 3d 24 e5 7a 3c 8e 72 5f bd
       0.080554344 0.11931776 0.01531342 -0.054552607
0003d0 46 58 22 bd b0 cf a4 3d bc b6 d3 bd 4a ea f1 bd
       -0.039634965 0.08047426 -0.10337588 -0.11812265
0003e0 75 70 3e bc f8 c5 c2 bd 1e 8e 87 bd ed 19 4d bd
       -0.0116234915 -0.09510416 -0.066189036 -0.050073553
0003f0 da 51 d0 3c 74 dd fe 3d 8a c5 af bd bd 82 84 bd
       0.025429655 0.124445826 -0.085825995 -0.06470249

fc2.bias f4 [64]
000000 10 ae 81 bd 15 b2 ea bc 50 65 0b bb 1e 9b 33 bd
       -0.06332028 -0.02864937 -0.0021270104 -0.043849103
000010 49 dc 82 3d cf 90 22 3d 63 2b e0 3c 06 e1 1f 3d
       0.06389672 0.03968888 0.027364438 0.03903296
000020 1f 3c d3 bd 57 af 05 3d af b4 23 bd 96 1f ad 3d
       -0.103142016 0.03263792 -0.039967235 0.0845329
000030 97 73 3b 3d 9a 8e 26 3c e4 82 1b 3c 9b 83 8a bd
       0.045764532 0.010165835 0.009491656 -0.06763383
000040 85 00 77 3d 8b f5 fb bd 3e f4 48 bd d0 22 c4 bc
       0.06030323 -0.12302693 -0.049061053 -0.023942381
000050 f1 9c 09 be 56 49 57 bd 73 a0 65 bd cc a5 2e bd
       -0.13438775 -0.052560173 -0.05606122 -0.042638585
000060 f2 e0 83 3c f3 77 40 bc 79 24 73 3d 76 47 a6 bc
       0.016098473 -0.011747348 0.059360955 -0.020297747
000070 37 5b 4a bd c1 19 e8 3c 36 69 0f be ce 89 e3 bd
       -0.049403396 0.028332593 -0.14004979 -0.111102685
000080 ba fd f6 bd 5a 26 3b bd 9f 52 15 3d 04 34 b5 3b
       -0.12060113 -0.04569087 0.036455747 0.0055298824
000090 e5 af c2 bd 64 e4 b7 bd 50 bf 46 be 2b 04 86 bd
       -0.095062055 -0.08979109 -0.19408917 -0.06543764
0000a0 68 51 cd bc 2e a5 78 3d 44 b3 84 bd 03 80 92 bd
       -0.025063232 0.060704403 -0.06479505 -0.071533225
0000b0 88 c1 0a 3d ce f5 4b 3d a0 6b c1 3d 62 b3 41 bd
       0.033875972 0.049794964 0.09444356 -0.047290213
0000c0 ef 50 a4 3c 22 f7 0c be 62 ae bd bd 8d 6e 77 bd
       0.020058123 -0.13766149 -0.092617765 -0.060408164
0000d0 cb 4b fa bd 8e 6a b0 bd c9 83 9f bd cd 52 74 3b
       -0.122214876 -0.08614074 -0.07788808 0.0037280798
0000e0 b0 9f b6 bd b6 f6 d0 bd 1a 2c a1 3d 9a 7a 30 bd
       -0.08917177 -0.102033064 0.0786974 -0.043085672
0000f0 a4 0f 21 bd e5 a3 68 3c 49 8a b4 bd fc bf 90 bd
       -0.039321557 0.014199232 -0.08815438 -0.07067868

bn2.weight f4 [64]
000000 68 55 81 3f 63 0f 2c 3f 64 64 19 3f e3 f2 3a 3f
       1.0104189 0.6721098 0.5991881 0.73026866
000010 ee 46 44 3f 44 6d 1a 3f cd 13 21 3f 92 2a 4d 3f
       0.7667073 0.60322976 0.6292084 0.8014308
000020 17 be 1a 3e 69 36 8d 3e 9f 37 f4 3e b6 fb 58 3f
       0.15111576 0.27580574 0.47698686 0.8475908
000030 ae 05 58 3f 0c ee a5 3e ac 6b 18 3e 05 6c 6c 3f
       0.84383667 0.32408178 0.14884824 0.92352325
000040 4f a4 4f 3e 34 2e e7 3e 4a 23 bd 3e 85 17 63 3f
       0.20277523 0.45152438 0.36940986 0.8870776
000050 51 8d 85 3e 17 b8 a1 3d 66 99 43 3e 54 92 ce 3e
       0.26084378 0.078964405 0.19101486 0.40346014
000060 5c 4a 7a 3e 7c 24 68 3f 4b de 16 3f d8 f8 4a 3f
       0.24442428 0.9068067 0.5893294 0.79285955
000070 fc 48 fa 3d a5 aa 9e 3e f9 34 26 3f 3c f8 9e 3e
       0.12220952 0.30989566 0.6492458 0.31048763
000080 b1 4c d1 3d c6 7b 33 3f 9f 78 09 3e e9 08 29 3f
       0.10219706 0.7011074 0.1342492 0.6602922
000090 b6 6b 4b 3f a1 6d bd 3e e3 ea cf 3d 30 fa 2c 3e
       0.7946123 0.36997703 0.10152223 0.16892314
0000a0 c5 27 94 3e a7 8f 23 3f 19 4b 60 3f 0b f3 70 3f
       0.28936592 0.6389107 0.8761459 0.94120854
0000b0 30 d5 89 3d 13 5f 5a 3f f7 09 2d 3f db 33 c6 3e
       0.067301154 0.8530132 0.6759333 0.38711438
0000c0 90 6c 0b 3f b4 55 78 3f 53 d1 3e 3f de 62 0c 3f
       0.5446253 0.9700577 0.74538153 0.5483836
0000d0 48 f5 7c 3e 97 f4 7a 3d ff 15 b0 3e b3 1d 80 3e
       0.24702942 0.061268415 0.34391782 0.2502266
0000e0 02 80 52 3f da c1 f8 3e 44 7d 21 3f 9f bf 0d 3e
       0.82226574 0.48585397 0.63081765 0.13842629
0000f0 a2 15 11 3f 40 cd 63 3f 6c 91 9c 3e 48 3c 18 3f
       0.56673634 0.8898506 0.30579698 0.5946698

bn2.bias f4 [64]
000000 8a cf 97 b6 27 f3 29 37 cd bc 5b 36 73 6f 02 36
       -4.5243114e-06 1.0129798e-05 3.274344e-06 1.9436382e-06
000010 a2 13 1b 36 fd 43 e3 36 98 21 10 36 5a 0a ae b6
       2.3108228e-06 6.773042e-06 2.1477226e-06 -5.186809e-06
000020 45 d5 9c 37 27 b9 00 b7 3c 0e 95 36 56 94 6c 36
       1.869596e-05 -7.672504e-06 4.442203e-06 3.5253083e-06
000030 3b 19 81 b6 fd ad 99 b7 5c 57 29 b7 2f 9c db b6
       -3.847437e-06 -1.832004e-05 -1.0093525e-05 -6.5448908e-06
000040 f2 37 1a 37 ef 09 1d 35 dc b6 dd 36 af 9f c2 b6
       9.192141e-06 5.8501513e-07 6.607601e-06 -5.80024e-06
000050 a4 3d 6d 37 f2 d3 65 b7 b4 04 08 b7 bb 9a 10 37
       1.4140653e-05 -1.3698811e-05 -8.107327e-06 8.619095e-06
000060 ea 9a 41 36 90 a9 69 36 61 94 c7 35 0e 94 8d b6
       2.8849413e-06 3.4818404e-06 1.4869839e-06 -4.2193633e-06
000070 d5 87 81 38 c1 ff e7 b4 b1 10 1a 37 2d 2b 90 b7
       6.1765e-05 -4.3213188e-07 9.183002e-06 -1.7186243e-05
000080 41 d4 d8 b7 0e 02 0e b7 be 67 29 35 c1 69 58 36
       -2.5848045e-05 -8.464338e-06 6.310837e-07 3.2248065e-06
000090 45 d6 5a b6 10 1a c6 34 88 5c 14 38 0b 96 84 b6
       -3.2609253e-06 3.6899337e-07 3.5372126e-05 -3.951374e-06
0000a0 3b 42 a6 37 3b a7 ee 35 1b d2 21 37 2c 37 d9 35
       1.9819583e-05 1.7781052e-06 9.645267e-06 1.6183817e-06
0000b0 e1 55 5a 37 9d 1d 49 b5 4e 67 63 b7 a3 d7 e5 37
       1.3013808e-05 -7.492143e-07 -1.3554307e-05 2.7399341e-05
0000c0 63 c3 82 36 b7 89 c6 36 6b aa 9d b6 a8 f8 40 36
       3.897048e-06 5.916892e-06 -4.698804e-06 2.8754966e-06
0000d0 e7 84 d3 b7 5a ed c1 b5 82 67 4b b7 f4 65 99 b5
       -2.5215048e-05 -1.4448699e-06 -1.2123843e-05 -1.1429061e-06
0000e0 e4 69 00 b7 8b 52 4d b7 9e 71 db b5 ac d9 aa b6
       -7.654049e-06 -1.2238171e-05 -1.6349838e-06 -5.091735e-06
0000f0 1d 01 af b6 ab e6 ee 36 09 34 c3 b6 38 2b 4f b6
       -5.215536e-06 7.119806e-06 -5.8175106e-06 -3.087056e-06

bn2.running_mean f4 [64]
000000 a2 6f d5 3d 49 ad 85 3d ea 70 48 3e b3 60 1f 3e
       0.10421683 0.06527192 0.19574323 0.15564232
000010 fc c6 38 3e 18 63 6c 3e e8 2a 31 3e 64 f4 e7 3d
       0.18044657 0.23084676 0.17301524 0.11325911
000020 5a ef 41 3d 75 5a da 3d 91 4c 9b 3d ec 1a aa 3e
       0.047347404 0.106617846 0.07582963 0.33223665
000030 e6 4e 74 3e 6a 4c 1f 3e 5c 02 4d 3e b8 08 f2 3d
       0.23858222 0.15556493 0.20020431 0.11818069
000040 fa 83 0c 3e 94 41 35 3c 5f 1e 34 3e 45 18 22 3e
       0.1372222 0.011062998 0.1758971 0.1582957
000050 82 4e ad 3b a1 be 2b 3e a8 21 1d 3e ab 0d 04 3e
       0.0052889 0.16771938 0.1534487 0.12895839
000060 a0 56 3a 3e 9d 5b 38 3e 2b 02 8d 3e 9e e1 a1 3d
       0.18197107 0.18003698 0.27540717 0.07904361
000070 a2 fd 06 3e 74 fc ca 3d 47 90 84 3d 1b 61 a3 3b
       0.1318269 0.09911433 0.06472831 0.004985941
000080 b2 fd 91 3c 9c 33 f8 3d a6 8a ef 3d 00 70 18 3e
       0.017821167 0.12119219 0.11696367 0.14886475
000090 0d 44 85 3d 7b 85 15 3e 17 a7 8f 3b da ba 30 3c
       0.0650712 0.146017 0.0043839323 0.010786736
0000a0 7b 85 6e 3d 88 7a 86 3e b2 3e 51 3e ca df dd 3d
       0.058232766 0.2626536 0.20434073 0.108337
0000b0 17 81 82 3e dc 87 51 3e 6f c4 4a 3e b5 18 40 3c
       0.25489113 0.20461982 0.19801496 0.011724641
0000c0 20 8c 32 3e 06 42 84 3c ca 90 05 3e dd c9 02 3e
       0.17436266 0.016144764 0.13043514 0.12772317
0000d0 72 6c af 3c 48 4c 13 3e d0 dd 20 3e be ae 0a 3e
       0.021414015 0.14384568 0.15709615 0.13543221
0000e0 ae 7d 35 3d 94 b4 7b 3d 64 24 05 3e 76 b1 f8 3d
       0.04430931 0.06145151 0.13002163 0.12143223
0000f0 65 d8 3c 3e 4f 17 60 3e f8 4a d3 3d 06 49 dd 39
       0.18441923 0.21883892 0.103170335 0.00042206811

bn2.running_var f4 [64]
000000 66 4e 33 3d ec 93 60 3c 44 d9 c9 3d 2b cb de 3d
       0.04377594 0.013707142 0.09855893 0.10878595
000010 9a cd 69 3d 82 31 9d 3d 89 de 80 3d e9 39 06 3d
       0.057080843 0.076754585 0.06292445 0.03277007
000020 99 01 41 3c 55 5f 9e 3c 8f a4 be 3c 03 1a 13 3e
       0.011780166 0.019332567 0.023271827 0.14365391
000030 57 40 d4 3d 64 87 3c 3d 44 dd c2 3d 02 25 dc 3c
       0.10363834 0.046027556 0.09514859 0.026873115
000040 08 9f a8 3c 6f 4f a7 3a 61 3d 88 3d 0d 12 1e 3d
       0.020583645 0.0012764762 0.06652332 0.038591433
000050 b2 01 5e 3a 75 17 9d 3d 6c b2 84 3d b5 54 7a 3d
       0.00084688806 0.0767049 0.06479344 0.06111594
000060 3c 24 76 3d ad bd a6 3d 8b e6 24 3e 17 2e b5 3c
       0.06009315 0.081416465 0.1610357 0.022116704
000070 16 3a 0b 3d 04 18 bf 3c a9 0d ab 3c 41 5c 45 3a
       0.033990942 0.023326881 0.020880537 0.00075287005
000080 2c 52 89 3b 83 e6 0e 3d 56 86 ab 3c d1 64 2d 3d
       0.004190704 0.0348878 0.02093808 0.042332474
000090 f2 a3 cb 3c 6f 92 6a 3d 9f 6c 17 3a fa 35 d5 3a
       0.024858449 0.057268556 0.00057763787 0.0016266697
0000a0 d1 d3 50 3c 80 0d 31 3d 73 c2 9c 3d 74 07 fd 3c
       0.0127458135 0.043225765 0.07654276 0.030887343
0000b0 39 ce d6 3d c2 1f 8b 3d 87 70 7c 3d a6 a8 b6 3a
       0.104885526 0.06793167 0.061630752 0.0013935759
0000c0 89 54 6c 3d 31 7d 08 3b 60 03 28 3d 57 89 17 3d
       0.057697807 0.0020826573 0.041018844 0.03699621
0000d0 b7 15 7e 3b 6d 76 3a 3d f5 84 42 3d 56 6f 0d 3d
       0.0038770267 0.045523096 0.04749008 0.034530006
0000e0 3e 06 44 3c a3 d1 2d 3c c7 ca fb 3c e3 6c 24 3d
       0.011964379 0.010609063 0.03073634 0.040142905
0000f0 76 14 aa 3d eb b0 b0 3d 93 9f ef 3c db ff c0 37
       0.08304684 0.086274944 0.029250896 2.3007326e-05

fc3.weight f4 [2, 64]
000000 72 fa 28 bc 4e 1e 84 3c 3a 61 dd 3b 76 d7 91 3b
       -0.010313617 0.016127732 0.006755975 0.004450734
000010 2e 8d 51 3c 0f 3a 86 3c 4e fc 04 bc bc 93 fd bb
       0.0127900075 0.016385106 -0.008116795 -0.0077385586
000020 34 f5 27 3d 4e e7 cd bc a3 3f 5f 3b fe 12 47 3b
       0.04100533 -0.025134709 0.003406503 0.003037631
000030 d3 60 14 bc 3d a6 88 bc 55 b5 e3 bc dc 0a f8 bb
       -0.009056288 -0.016680831 -0.027796427 -0.007569654
000040 1a 42 b6 3c 90 8a 1c 3c d4 4e bd 3c ad 31 22 bc
       0.022248317 0.00955452 0.023108877 -0.009899539
000050 31 86 c0 3c fc 26 0f bd b0 0a 03 bd 89 66 7b 3c
       0.023501487 -0.034949288 -0.031992614 0.0153442705
000060 7c a4 b3 3b 0a d3 0d 3c 64 bf d1 3b e8 17 4c bb
       0.0054822545 0.008656273 0.0064009894 -0.003114218
000070 fa 25 b5 3d 22 91 a8 3b a0 44 9c 3c 9f c9 f9 bc
       0.08845134 0.0051442543 0.019075692 -0.030491648
000080 fe 6f 35 bd b3 c6 59 bc 64 a1 0e bb 93 bd bb 3b
       -0.044296257 -0.0132920025 -0.0021763677 0.005729386
000090 82 52 02 bc f0 b8 2e bc 1a 6f cb 3c 40 a7 35 bd
       -0.007954242 -0.01066421 0.02483325 -0.044348955
0000a0 47 a3 2e 3d 58 cd f5 3b db 6e 4d 3c 90 de 02 3c
       0.042636182 0.0075012855 0.012538637 0.007987633
0000b0 4f 3d c3 3c 2e 9d d5 bb b3 1e 61 bc 2c bb d0 3c
       0.023832945 -0.0065189814 -0.013740229 0.025479876
0000c0 49 47 34 3c 06 26 24 3c 4a 82 f9 bb 91 23 ce 3b
       0.011003324 0.010018831 -0.0076144086 0.006290861
0000d0 4e ff 0f bd cd b5 1b ba 5b 65 b7 bc 6e ab 68 bc
       -0.035155587 -0.0005939871 -0.022387197 -0.014201028
0000e0 4f 2b 6a bb f0 c5 93 bc 4f fc b1 bb 20 02 06 bd
       -0.003573138 -0.01803872 -0.005431689 -0.03271687
0000f0 64 92 d9 bb 3d 39 45 3c 3a b6 fc bc f8 0f 6c 3b
       -0.0066397656 0.012037572 -0.030848611 0.003602026
000100 30 70 df 3b 17 f9 30 bb 34 bb f2 b9 69 64 26 3b
       0.0068187937 -0.0027003938 -0.00046297314 0.002538944
000110 58 12 17 3c 79 f8 06 3c f4 57 47 3c 75 5f 9e bb
       0.009220682 0.008237951 0.012166966 -0.0048331567
000120 16 03 a1 bb 95 f4 2a bc cd 34 3b bc 2d 67 4b 3c
       -0.004913698 -0.010434289 -0.011426163 0.012414736
000130 eb 5b 01 3c 47 ad 75 3b 9b 5a ec 3b bb bc 2f 3c
       0.00789545 0.0037487315 0.0072129495 0.010726149
000140 f3 93 d2 bc 63 5d db 3b 4b f1 aa bb 14 a7 f7 bb
       -0.025705313 0.006694482 -0.0052167526 -0.007557759
000150 dd b3 e6 bc 23 ba 7c bd 0e bb a9 bc 6c 49 64 bb
       -0.028161937 -0.06170095 -0.020719077 -0.0034833802
000160 e0 52 1f 3c c6 d3 37 bb 98 4f 68 bc e3 d5 b0 bc
       0.009724349 -0.002804981 -0.014179133 -0.021586364
000170 82 36 21 3d b3 86 19 3d a2 19 29 ba 13 99 91 3a
       0.039358623 0.037481975 -0.0006450658 0.0011108242
000180 6f 80 2b 3d ba a3 46 bc 2f d9 e1 3c 3c 05 2c bc
       0.04187053 -0.012123996 0.027569382 -0.010499295
000190 f7 c0 0b bc de a1 8d 3c 23 ef 54 3d 42 79 0e bd
       -0.008529893 0.017289098 0.05198587 -0.03478361
0001a0 3f b6 47 bc 53 14 b6 3b b3 1e 2e 3c ca b7 59 3b
       -0.012189447 0.005556622 0.010627436 0.003322112
0001b0 ca a2 98 bc c2 6a 0f bc 6e d3 2f bc 1d 5c f4 3a
       -0.018632311 -0.00875348 -0.010731561 0.0018643175
0001c0 3c 91 08 3a 98 be b7 bb 42 44 7f 3c 0d 44 87 3c
       0.000520963 -0.0056074373 0.015580239 0.016511941
0001d0 df 12 ae 3b 60 a1 cb 3b 6a 7e 7d bc a3 c1 e3 3c
       0.005312308 0.0062143058 -0.015472034 0.027802294
0001e0 17 ec 78 bc 97 96 29 3c d1 5f a6 3c 30 48 01 3d
       -0.015193007 0.010350845 0.02030936 0.031562984
0001f0 13 86 24 bc 94 57 a8 bc 7e f2 a6 3c 24 b7 23 3c
       -0.010041731 -0.020549573 0.020379301 0.009992395

fc3.bias f4 [2]
000000 f6 3e 8a bd 5f 45 89 3a
       -0.0675029 0.0010472945

bn3.weight f4 [2]
000000 2d 19 a5 3f 01 c1 8e 3f
       1.2898308 1.115265

bn3.bias f4 [2]
000000 6b 3a 95 be 15 c0 8b be
       -0.29146132 -0.27294984

bn3.running_mean f4 [2]
000000 56 39 8a bd 97 cf 89 3a
       -0.06749217 0.0010514137

bn3.running_var f4 [2]
000000 a7 78 fb 3a f9 93 e0 3a
       0.0019185737 0.0017133943
