projects/p3_collab-compet/actor_0.pth (torch_old, 52206 bytes, 18 tensors)

fc1.weight f4 [128, 24]
00000000: 8801 6ebd e77b 943d 2328 843d 9fce ad3d
00000010: d41c 58bd fb61 39bd 3b1f 8e3d c092 9e3c
00000020: c8d9 b1bd 4874 0b3c e0b7 923c e810 0dbc
00000030: d022 d1bc 7dd3 a7bd c6a5 b4bd fe7a 513d
00000040: 8298 23bd fba2 803d 6e02 7e3d d4b5 3dbd
00000050: 0814 9dbd 265f 7b3d a28c f2bc 1fc5 89bd
00000060: 9431 9a3c 0d3c 69bd 3c49 9ebd 1050 60bc
00000070: 5e49 3a3d 420a 1a3d 5f60 973d b866 063c
00000080: d43d b83c 008e 18ba 3e98 573d 622d 4c3d
00000090: 2029 153b de03 7cbd ea17 5f3d c050 6abb
000000a0: 987e 463c da55 1a3d 0784 9b3d 8af1 313d
000000b0: 30f7 04bc d2b5 0a3d 9e69 283d a805 233c
000000c0: b08e 24bc f88f 56bc a040 673b 6a2c 253d
000000d0: d2fe 103d 42d8 77bd c904 993d e098 2f3b
000000e0: ac91 c3bc 8efa 063d 4e6b 023d 328a 093d
000000f0: 6d25 4dbd da21 6c3d 92d4 2f3d 5971 af3d
00000100: 4147 30bd 8088 0f3b 7d39 32bd c38c 933d
00000110: 7d68 a8bd 8266 9dbd fa1d 643d 966f 77bd
00000120: 42de e2bc 76e0 55bd 3605 8ebd 00fd 1f3b
00000130: 3eea 633d 2e09 b3bd a074 743c ade6 963d
00000140: c3ef a53d 0deb 823d ac55 a33c 05cb 963d
00000150: 70e1 fd3b eef6 303d 37c0 3fbd 4e53 7dbd
00000160: 7f03 87bd 7fdc 9b3d aef5 5b3d f67e 623d
00000170: 9cc9 c33c c09e 29bb d135 b2bd 7b77 9abd
00000180: 8fdf ac3d 3a1e 3f3d a16c a03d e21f 25bd
00000190: c9ae 29bd 80fb 3bba 2d64 963d 98b1 90bc
000001a0: d13f 4abd c802 2dbc 7b03 b43d bc9f a5bd
000001b0: 6968 9c3d 749c c03c a447 f93c 5433 a43c
000001c0: 82bd 573d f6bd adbd 2bcc 843d 0029 64bb
000001d0: 909f dbbb 40c3 03bc b834 d43c c8a1 91bd
000001e0: 1efd 503d 0324 06bd 32db 2b3d 0c05 bc3c
000001f0: 76ba 463d 9901 4fbd 0d4f 9a3d dc8c b2bc
00000200: d0b8 8f3c a412 7ebd 14d4 37bd 8017 62ba
00000210: ff26 9d3d 7aa0 573d 4f42 a63d 404a 7e3b
00000220: 1deb aa3d da03 233d 5140 65bd f0f9 53bc
00000230: 3a8e 2c3d aebb 7e3d 5ade 173d c133 a53d
00000240: 7ec6 3abd bff9 8a3d 58f8 34bc 9e6a 233d
00000250: e88d 153d e6a7 2f3d 3c96 8ebd 9276 673d
00000260: 1c3b dbbc 5773 30bd c49a b1bd e05d dd3c
00000270: 00ea e739 8eeb 89bd e4d7 78bd 2259 363d
00000280: 5c16 b93c 40c4 cdbc 6233 373d 18e2 12bd
00000290: de41 743d f312 94bd 364c a2bd a873 9c3c
000002a0: b074 75bc 4219 1b3d e6a1 abbd f144 a3bd
000002b0: ee61 093d e818 373c 68dc 8abd 40f4 15bc
000002c0: f49a f3bc 10c0 87bd 6209 3a3d f380 a8bd
000002d0: 932b 6cbd bf7a aa3d 1e53 413d de8d 593d
000002e0: d773 813d b0e6 083d 6d5e 803d 2c03 cfbc
000002f0: f0f8 91bc 600f e8bc 5fdf a73d 20e1 b13c
00000300: 80f6 17bb 8b8d 973d 50a5 1f3c 4eea 4d3d
00000310: 853d 67bd 81b0 933d 0ea2 553d 3398 a5bd
00000320: a5b8 8d3d e636 8bbd 2b9f 9c3d 0132 96bd
00000330: c692 e7bc 4ee9 783d 7283 52bd 6dc7 9ebd
00000340: b097 a4bd 0cfc fa3c 295f a4bd 0440 c23c
00000350: e830 86bd 763b 1f3d 35dd 43bd 489e 61bd
00000360: 82d5 683d c06e 543c 301b f03b 100d cfbc
00000370: 5f88 5fbd 8e32 64bd acc3 8fbc 1443 d33c
00000380: 939d 923d ef3c 0bbd 3828 7ebd c6ef 563d
00000390: 1149 923d ae5c 273d ead4 4a3d 0e45 193d
000003a0: e6ee 87bd 0045 01bc c0a4 ee3c a05e ca3c
000003b0: ef4b 8c3d 2006 8d3c d1f0 acbd 0ad6 713d
000003c0: d746 7bbd 4f01 813d 5297 dfbc 7c01 afbc
000003d0: 30ac d83c 8aa8 6dbd ace3 953c 7c90 e03c
000003e0: 3468 a4bd 5e33 9bbd 97e9 39bd 7034 78bc
000003f0: dddf 42bd 8349 a73d bea7 04bd 5882 fa3c
-0.05810693 0.07250195 0.06452968 0.084866755 -0.052761868 -0.045259457 0.069395505 0.019357085
-0.086841166 0.00851161 0.017909944 -0.008609988 -0.025529295 -0.08194635 -0.08820681 0.051142685
-0.039940365 0.06281086 0.062014036 -0.046315983 -0.07669836 0.061370037 -0.029608075 -0.06727051
0.018822469 -0.056942035 -0.07728812 -0.013690963 0.045480125 0.03760744 0.07391428 0.008203201
0.02249042 -0.00058194995 0.052635424 0.049847968 0.0022760108 -0.061527126 0.054466166 -0.0035753697
0.012115143 0.03767953 0.075935416 0.04344324 -0.008115575 0.033864804 0.04111635 0.009950079
-0.010043785 -0.013095848 0.0035286322 0.04032556 0.035399266 -0.060508974 0.07471616 0.0026794001
-0.023873173 0.03295379 0.031840615 0.03357906 -0.05008452 0.05764947 0.042927332 0.08566541
-0.043036703 0.0021901429 -0.043511856 0.072045825 -0.082230546 -0.076855674 0.05569265 -0.06040915
-0.027693871 -0.052216016 -0.06934588 0.0024412274 0.055643313 -0.08741985 0.014920384 0.07368217
0.081023715 0.06392489 0.019938312 0.07362942 0.0077478215 0.04320424 -0.04681417 -0.061847024
-0.06592464 0.07610416 0.053701095 0.05529686 0.023899846 -0.0025881976 -0.08701671 -0.0754232
0.08441078 0.046659686 0.07833219 -0.04031361 -0.041426454 -0.00071709603 0.07343326 -0.017662808
-0.049377266 -0.010559745 0.08789726 -0.080871075 0.07637102 0.023512103 0.030429669 0.020044006
0.052670963 -0.08483498 0.064842544 -0.0034814477 -0.006702371 -0.008042157 0.025904045 -0.071109354
0.05102264 -0.032749187 0.041957088 0.022951625 0.048517667 -0.050538633 0.07534609 -0.021795683
0.01754418 -0.062029496 -0.044879988 -0.00086247176 0.076734535 0.052643277 0.08118116 0.003880158
0.083456255 0.039798595 -0.05596954 -0.012938008 0.042127825 0.062190704 0.037077285 0.08066512
-0.045599453 0.067859165 -0.011045538 0.0398966 0.036512285 0.04288473 -0.06962249 0.05650956
-0.026761584 -0.043078747 -0.08672097 0.027022302 0.00044234097 -0.067343816 -0.060752764 0.044518597
0.02259367 -0.025117993 0.044726737 -0.03586015 0.05963313 -0.07230177 -0.07924692 0.019098118
-0.014981434 0.037865885 -0.08380489 -0.07972134 0.03354066 0.011175372 -0.067803204 -0.009152472
-0.029736973 -0.0662843 0.045419104 -0.0822772 -0.057658743 0.08324193 0.047198407 0.05311381
0.06320923 0.033423126 0.0626801 -0.025270067 -0.017818898 -0.028327644 0.081969015 0.021713793
-0.0023187697 0.07400044 0.009744003 0.05027228 -0.056455154 0.072114 0.0521565 -0.0808567
0.06919984 -0.067975804 0.076475464 -0.07333756 -0.02826823 0.06076937 -0.051394887 -0.07752881
-0.080367446 0.030637763 -0.08025963 0.023712166 -0.06552297 0.038875066 -0.04781838 -0.05508259
0.056844242 0.012965858 0.0073274598 -0.025274783 -0.054573413 -0.055712275 -0.017549358 0.025788821
0.07158961 -0.033993658 -0.062050074 0.05247476 0.071428426 0.04085987 0.049519457 0.03741937
-0.06637363 -0.007889986 0.029131293 0.024703324 0.06850421 0.017214835 -0.084443696 0.059042014
-0.061346855 0.06299078 -0.027293835 -0.021363012 0.026449293 -0.05802206 0.018297039 0.027412646
-0.08027688 -0.07578157 -0.045388784 -0.015149221 -0.047576774 0.08168318 -0.032386534 0.03057973

fc1.bias f4 [128]
00000000: 1653 01be e073 ad3d 896a 46be d043 ebbd
00000010: d8b7 2abd 4844 b33d 38e3 b33d c68e 1abe
00000020: 4cea 0d3d 7e87 88bd e74e c6bd c067 27bc
00000030: 7445 ea3d d467 2a3e ecd4 453e 467f 073e
00000040: b0f2 123e 0c81 8a3d 482e 963d bbbc a7bd
00000050: a6c6 c1bd 0c21 05be 20af c3bb 901d d43d
00000060: 4e58 1cbe 956f 11be bc46 293e f83d 0d3e
00000070: 00a0 25be 6393 1fbe 601b 94bd 7ca6 15be
00000080: 7023 f33c 0498 78bd d055 643d c004 1c3c
00000090: 74b3 d33d 3817 51bd 2cd5 0a3d a495 0bbd
000000a0: a8ed 433d 006e 25bb de50 093e f45b d3bd
000000b0: b4ef 9a3d b8bc 2bbd 441c e03d d241 1dbe
000000c0: b03d 15be 4c22 37bd f04d c63d 2826 ac3d
000000d0: 58cb 513d 3c4d b7bd 2079 0f3e 6fbc ffbd
000000e0: 0838 453d c016 e73d 74d3 453e f843 923c
000000f0: b516 aabd a083 b03d e07a 393e 3a4e 31be
00000100: 09b7 4dbe d82e c8bc 291c d1bd e5d0 c0bd
00000110: 278c 0fbe 48d7 173d 8086 c2bd a8fa e23d
00000120: 0844 3d3e aadb 38be a058 583c 128f 413e
00000130: be6e 4d3e ece8 4abd 2ca2 fa3d 909a cb3d
00000140: 2ec8 0f3e 7885 95bc 0ce7 2bbd a36d bcbd
00000150: 8875 f33c f83a 5a3d 289b a0bd 6726 1fbe
00000160: 0a92 443e 04db fabd 0880 8dbc 61fe bfbd
00000170: 0058 37bd 713b 4ebe e07f bebd 6ca6 863d
00000180: 8ecd 0f3e 7e83 463e ba52 98bd b6a2 fcbd
00000190: fe84 37be de1f 8fbd 8469 31be 33ae f9bd
000001a0: 340a 8abd e042 4f3e 78b4 08be cec1 18be
000001b0: 5471 33bd 88ef f73d b0a5 f2bc 8051 03bb
000001c0: 9ecd 133e 587a f03d 1874 293e 9b5b f5bd
000001d0: 647e 203e 5aee 47be c42b 07be 009d eebb
000001e0: b85c 903d 0017 9dbc e071 443e 08fc a1bc
000001f0: 69a9 b7bd 7027 0ebd 206b ddbc e08a cd3c
-0.12629351 0.08469367 -0.19376577 -0.114875436 -0.041679233 0.08753258 0.08783573 -0.15093526
0.03464727 -0.06666468 -0.09683018 -0.010217607 0.114390284 0.1664117 0.19319504 0.13232145
0.1435039 0.06762895 0.07333046 -0.08190294 -0.09461717 -0.13000888 -0.0059718043 0.10357201
-0.1526806 -0.14202721 0.1653089 0.1379317 -0.16174316 -0.15583567 -0.07231784 -0.1461429
0.029679984 -0.06069185 0.0557459 0.009522617 0.10336962 -0.051047534 0.033894703 -0.034078255
0.04783407 -0.0025242567 0.13409755 -0.10320273 0.07565251 -0.041928023 0.10942891 -0.1535714
-0.14574313 -0.044710442 0.09682834 0.08405715 0.051219314 -0.08950278 0.1401105 -0.12487113
0.04814914 0.11283636 0.19318944 0.017854676 -0.08305112 0.086188555 0.1811328 -0.17314997
-0.20089354 -0.0244364 -0.10210449 -0.094148435 -0.14018308 0.037070543 -0.0949831 0.11082965
0.18482983 -0.18052545 0.013204724 0.18902233 0.20061776 -0.049538538 0.12237963 0.0994159
0.14041206 -0.01825212 -0.04196839 -0.09200599 0.02971913 0.053278893 -0.07842094 -0.15541993
0.19196334 -0.12248805 -0.017272964 -0.09374691 -0.044761658 -0.20139863 -0.09301734 0.06574711
0.14043257 0.19386098 -0.07437654 -0.12335722 -0.17921826 -0.069885 -0.17325407 -0.12191429
-0.06740227 0.20240355 -0.13350093 -0.1491768 -0.04380925 0.12106234 -0.029620022 -0.0020037591
0.14433905 0.11742085 0.16548193 -0.11980363 0.15673214 -0.19524518 -0.13200289 -0.0072818995
0.07048935 -0.019176006 0.19184065 -0.019773498 -0.08967859 -0.03470558 -0.02702862 0.025090635

bn1.weight f4 [128]
00000000: fe95 433f 40d3 993d 8c53 103f 9978 6b3f
00000010: caa3 d13e 11c0 3c3f 54f1 da3e f8b6 7e3f
00000020: e293 fa3e 50a6 523f de1a ae3e e0ae 293d
00000030: 12e8 953e 2ce1 583f 0e4f 013f 144d d73e
00000040: 3cd9 663f 6009 353e b8fe 1e3e ee48 2f3f
00000050: 7a96 7d3f 24ae 273f 5055 a93e de90 353f
00000060: ac7b 3c3f 6812 a03d 2035 703f 2683 0a3f
00000070: bcf7 953e 005d 403c c649 1e3f 60e9 bd3e
00000080: 58ea 1a3f e8d3 dd3d 4ba6 313f 70cd f13d
00000090: cb88 653f daea 073f 955c 3e3f 03ff 4b3f
000000a0: 586d 733f 0fb1 133f 49c7 663f e8cc ac3d
000000b0: 9ae8 5b3f 97e5 5d3f 9c62 783e b894 763e
000000c0: b89d 693f aedd 663f 48b6 ab3d 5c5f 013f
000000d0: 10e1 fd3d e511 453f e84a a53d 9c8b 833e
000000e0: b444 613f fbf2 6b3f 596c 713f 6a38 0d3f
000000f0: 800c 6c3d f688 503f d9cd 693f 15a3 623f
00000100: 9d7e 503f c895 eb3e 184c 403f 1a04 1c3f
00000110: 4a9b 873e 812b 533f 404a a13e 27e9 4a3f
00000120: 20ab e83e c802 e93e 4c4b 363f 606b de3e
00000130: 35df 343f a071 873d c02d 7d3c a106 113f
00000140: 0257 c93e e0eb 903e f0d8 543d 0364 0c3f
00000150: 54d3 823e 8dba 733f 709d ea3d e225 a53e
00000160: 9a21 cf3e 9021 173f d0d0 273d 4339 463f
00000170: 1094 013d 5821 6f3e fe6c 193f e246 da3e
00000180: bc9b 0f3f 00e9 5d3b 54d3 173e 8561 553f
00000190: 56d3 313f 44cd 373f ade0 473f 7982 593f
000001a0: b20a 3f3f d85f b13e 04a3 803e f4ff 223e
000001b0: 5dd9 253f 9ee5 f83e b001 853e e11e 4e3f
000001c0: 7b38 053f 02a5 e43e bc29 be3e 7448 0c3e
000001d0: e2b4 693f 4049 5b3c a0e7 2d3d ada0 193f
000001e0: 82cd 8c3e c50b 5f3f ae27 f73e 46a2 873e
000001f0: eb14 003f c0ba d73e cc8f d73e 62a6 e33e
0.76400745 0.07510996 0.5637748 0.9198089 0.40945274 0.7373057 0.42762244 0.9949794
0.4894095 0.8228502 0.34004873 0.04142654 0.29278618 0.84718585 0.5051125 0.42050993
0.90175223 0.17679358 0.15526855 0.68470657 0.99057734 0.6550009 0.330729 0.70924175
0.7362621 0.07816011 0.9383106 0.54106367 0.2929057 0.011740923 0.6183132 0.37092113
0.6051383 0.108314335 0.6939437 0.11806762 0.89661855 0.5309273 0.7436002 0.7968599
0.9508872 0.57692045 0.90147835 0.0843752 0.85901797 0.8667845 0.24256366 0.24080169
0.91256285 0.90182006 0.08384377 0.5053613 0.12396443 0.7698043 0.08070928 0.2569245
0.8799546 0.92167634 0.9430595 0.55164206 0.05762911 0.81458986 0.91329724 0.88530093
0.81443197 0.46012712 0.7511611 0.6094376 0.26485664 0.82488257 0.3150196 0.7926201
0.45443058 0.45509934 0.71208644 0.43441296 0.70653087 0.06613469 0.015452802 0.5665074
0.39324194 0.28304958 0.0519647 0.54840106 0.25551856 0.9520653 0.1145581 0.32255465
0.40455323 0.5903559 0.040970623 0.77431124 0.031635344 0.23352563 0.59931934 0.42632204
0.56097007 0.0033860803 0.14826709 0.8335193 0.694631 0.71797585 0.78077203 0.8496471
0.74625695 0.34643435 0.2512437 0.15917951 0.64784795 0.48612684 0.2597785 0.8051587
0.5203931 0.4465714 0.37141216 0.13699514 0.9129163 0.013384163 0.042457223 0.60010797
0.2750054 0.87127334 0.4827246 0.26490992 0.5003192 0.42134666 0.42101896 0.44462878

bn1.bias f4 [128]
00000000: 0000 0000 0000 0000 0000 0000 0000 0000
00000010: 0000 0000 0000 0000 0000 0000 0000 0000
00000020: 0000 0000 0000 0000 0000 0000 0000 0000
00000030: 0000 0000 0000 0000 0000 0000 0000 0000
00000040: 0000 0000 0000 0000 0000 0000 0000 0000
00000050: 0000 0000 0000 0000 0000 0000 0000 0000
00000060: 0000 0000 0000 0000 0000 0000 0000 0000
00000070: 0000 0000 0000 0000 0000 0000 0000 0000
00000080: 0000 0000 0000 0000 0000 0000 0000 0000
00000090: 0000 0000 0000 0000 0000 0000 0000 0000
000000a0: 0000 0000 0000 0000 0000 0000 0000 0000
000000b0: 0000 0000 0000 0000 0000 0000 0000 0000
000000c0: 0000 0000 0000 0000 0000 0000 0000 0000
000000d0: 0000 0000 0000 0000 0000 0000 0000 0000
000000e0: 0000 0000 0000 0000 0000 0000 0000 0000
000000f0: 0000 0000 0000 0000 0000 0000 0000 0000
00000100: 0000 0000 0000 0000 0000 0000 0000 0000
00000110: 0000 0000 0000 0000 0000 0000 0000 0000
00000120: 0000 0000 0000 0000 0000 0000 0000 0000
00000130: 0000 0000 0000 0000 0000 0000 0000 0000
00000140: 0000 0000 0000 0000 0000 0000 0000 0000
00000150: 0000 0000 0000 0000 0000 0000 0000 0000
00000160: 0000 0000 0000 0000 0000 0000 0000 0000
00000170: 0000 0000 0000 0000 0000 0000 0000 0000
00000180: 0000 0000 0000 0000 0000 0000 0000 0000
00000190: 0000 0000 0000 0000 0000 0000 0000 0000
000001a0: 0000 0000 0000 0000 0000 0000 0000 0000
000001b0: 0000 0000 0000 0000 0000 0000 0000 0000
000001c0: 0000 0000 0000 0000 0000 0000 0000 0000
000001d0: 0000 0000 0000 0000 0000 0000 0000 0000
000001e0: 0000 0000 0000 0000 0000 0000 0000 0000
000001f0: 0000 0000 0000 0000 0000 0000 0000 0000
0.0 0.0 0.0 0.0 0.0 0.0 0.0 0.0
0.0 0.0 0.0 0.0 0.0 0.0 0.0 0.0
0.0 0.0 0.0 0.0 0.0 0.0 0.0 0.0
0.0 0.0 0.0 0.0 0.0 0.0 0.0 0.0
0.0 0.0 0.0 0.0 0.0 0.0 0.0 0.0
0.0 0.0 0.0 0.0 0.0 0.0 0.0 0.0
0.0 0.0 0.0 0.0 0.0 0.0 0.0 0.0
0.0 0.0 0.0 0.0 0.0 0.0 0.0 0.0
0.0 0.0 0.0 0.0 0.0 0.0 0.0 0.0
0.0 0.0 0.0 0.0 0.0 0.0 0.0 0.0
0.0 0.0 0.0 0.0 0.0 0.0 0.0 0.0
0.0 0.0 0.0 0.0 0.0 0.0 0.0 0.0
0.0 0.0 0.0 0.0 0.0 0.0 0.0 0.0
0.0 0.0 0.0 0.0 0.0 0.0 0.0 0.0
0.0 0.0 0.0 0.0 0.0 0.0 0.0 0.0
0.0 0.0 0.0 0.0 0.0 0.0 0.0 0.0

bn1.running_mean f4 [128]
00000000: 0000 0000 0000 0000 0000 0000 0000 0000
00000010: 0000 0000 0000 0000 0000 0000 0000 0000
00000020: 0000 0000 0000 0000 0000 0000 0000 0000
00000030: 0000 0000 0000 0000 0000 0000 0000 0000
00000040: 0000 0000 0000 0000 0000 0000 0000 0000
00000050: 0000 0000 0000 0000 0000 0000 0000 0000
00000060: 0000 0000 0000 0000 0000 0000 0000 0000
00000070: 0000 0000 0000 0000 0000 0000 0000 0000
00000080: 0000 0000 0000 0000 0000 0000 0000 0000
00000090: 0000 0000 0000 0000 0000 0000 0000 0000
000000a0: 0000 0000 0000 0000 0000 0000 0000 0000
000000b0: 0000 0000 0000 0000 0000 0000 0000 0000
000000c0: 0000 0000 0000 0000 0000 0000 0000 0000
000000d0: 0000 0000 0000 0000 0000 0000 0000 0000
000000e0: 0000 0000 0000 0000 0000 0000 0000 0000
000000f0: 0000 0000 0000 0000 0000 0000 0000 0000
00000100: 0000 0000 0000 0000 0000 0000 0000 0000
00000110: 0000 0000 0000 0000 0000 0000 0000 0000
00000120: 0000 0000 0000 0000 0000 0000 0000 0000
00000130: 0000 0000 0000 0000 0000 0000 0000 0000
00000140: 0000 0000 0000 0000 0000 0000 0000 0000
00000150: 0000 0000 0000 0000 0000 0000 0000 0000
00000160: 0000 0000 0000 0000 0000 0000 0000 0000
00000170: 0000 0000 0000 0000 0000 0000 0000 0000
00000180: 0000 0000 0000 0000 0000 0000 0000 0000
00000190: 0000 0000 0000 0000 0000 0000 0000 0000
000001a0: 0000 0000 0000 0000 0000 0000 0000 0000
000001b0: 0000 0000 0000 0000 0000 0000 0000 0000
000001c0: 0000 0000 0000 0000 0000 0000 0000 0000
000001d0: 0000 0000 0000 0000 0000 0000 0000 0000
000001e0: 0000 0000 0000 0000 0000 0000 0000 0000
000001f0: 0000 0000 0000 0000 0000 0000 0000 0000
0.0 0.0 0.0 0.0 0.0 0.0 0.0 0.0
0.0 0.0 0.0 0.0 0.0 0.0 0.0 0.0
0.0 0.0 0.0 0.0 0.0 0.0 0.0 0.0
0.0 0.0 0.0 0.0 0.0 0.0 0.0 0.0
0.0 0.0 0.0 0.0 0.0 0.0 0.0 0.0
0.0 0.0 0.0 0.0 0.0 0.0 0.0 0.0
0.0 0.0 0.0 0.0 0.0 0.0 0.0 0.0
0.0 0.0 0.0 0.0 0.0 0.0 0.0 0.0
0.0 0.0 0.0 0.0 0.0 0.0 0.0 0.0
0.0 0.0 0.0 0.0 0.0 0.0 0.0 0.0
0.0 0.0 0.0 0.0 0.0 0.0 0.0 0.0
0.0 0.0 0.0 0.0 0.0 0.0 0.0 0.0
0.0 0.0 0.0 0.0 0.0 0.0 0.0 0.0
0.0 0.0 0.0 0.0 0.0 0.0 0.0 0.0
0.0 0.0 0.0 0.0 0.0 0.0 0.0 0.0
0.0 0.0 0.0 0.0 0.0 0.0 0.0 0.0

bn1.running_var f4 [128]
00000000: 0000 803f 0000 803f 0000 803f 0000 803f
00000010: 0000 803f 0000 803f 0000 803f 0000 803f
00000020: 0000 803f 0000 803f 0000 803f 0000 803f
00000030: 0000 803f 0000 803f 0000 803f 0000 803f
00000040: 0000 803f 0000 803f 0000 803f 0000 803f
00000050: 0000 803f 0000 803f 0000 803f 0000 803f
00000060: 0000 803f 0000 803f 0000 803f 0000 803f
00000070: 0000 803f 0000 803f 0000 803f 0000 803f
00000080: 0000 803f 0000 803f 0000 803f 0000 803f
00000090: 0000 803f 0000 803f 0000 803f 0000 803f
000000a0: 0000 803f 0000 803f 0000 803f 0000 803f
000000b0: 0000 803f 0000 803f 0000 803f 0000 803f
000000c0: 0000 803f 0000 803f 0000 803f 0000 803f
000000d0: 0000 803f 0000 803f 0000 803f 0000 803f
000000e0: 0000 803f 0000 803f 0000 803f 0000 803f
000000f0: 0000 803f 0000 803f 0000 803f 0000 803f
00000100: 0000 803f 0000 803f 0000 803f 0000 803f
00000110: 0000 803f 0000 803f 0000 803f 0000 803f
00000120: 0000 803f 0000 803f 0000 803f 0000 803f
00000130: 0000 803f 0000 803f 0000 803f 0000 803f
00000140: 0000 803f 0000 803f 0000 803f 0000 803f
00000150: 0000 803f 0000 803f 0000 803f 0000 803f
00000160: 0000 803f 0000 803f 0000 803f 0000 803f
00000170: 0000 803f 0000 803f 0000 803f 0000 803f
00000180: 0000 803f 0000 803f 0000 803f 0000 803f
00000190: 0000 803f 0000 803f 0000 803f 0000 803f
000001a0: 0000 803f 0000 803f 0000 803f 0000 803f
000001b0: 0000 803f 0000 803f 0000 803f 0000 803f
000001c0: 0000 803f 0000 803f 0000 803f 0000 803f
000001d0: 0000 803f 0000 803f 0000 803f 0000 803f
000001e0: 0000 803f 0000 803f 0000 803f 0000 803f
000001f0: 0000 803f 0000 803f 0000 803f 0000 803f
1.0 1.0 1.0 1.0 1.0 1.0 1.0 1.0
1.0 1.0 1.0 1.0 1.0 1.0 1.0 1.0
1.0 1.0 1.0 1.0 1.0 1.0 1.0 1.0
1.0 1.0 1.0 1.0 1.0 1.0 1.0 1.0
1.0 1.0 1.0 1.0 1.0 1.0 1.0 1.0
1.0 1.0 1.0 1.0 1.0 1.0 1.0 1.0
1.0 1.0 1.0 1.0 1.0 1.0 1.0 1.0
1.0 1.0 1.0 1.0 1.0 1.0 1.0 1.0
1.0 1.0 1.0 1.0 1.0 1.0 1.0 1.0
1.0 1.0 1.0 1.0 1.0 1.0 1.0 1.0
1.0 1.0 1.0 1.0 1.0 1.0 1.0 1.0
1.0 1.0 1.0 1.0 1.0 1.0 1.0 1.0
1.0 1.0 1.0 1.0 1.0 1.0 1.0 1.0
1.0 1.0 1.0 1.0 1.0 1.0 1.0 1.0
1.0 1.0 1.0 1.0 1.0 1.0 1.0 1.0
1.0 1.0 1.0 1.0 1.0 1.0 1.0 1.0

fc2.weight f4 [64, 128]
00000000: 0056 1e3c f27e ab3d ea41 d53d 6262 c63d
00000010: e014 c5bb a492 4cbd b08b 2b3c 6044 763d
00000020: 50b7 f63d a01c 97bc 9072 e1bd a0e2 7a3c
00000030: 9042 e73c d075 21bc 062d ecbd 6829 7c3d
00000040: 40c0 1c3c c029 4a3c 90bd 223d 6855 3f3d
00000050: 9ec1 f2bd 4c7c 213d 10a2 b83d 80a3 053d
00000060: 9c27 c7bd 8e9e f1bd 1090 0bbd d075 9cbd
00000070: 3cad 66bd 145f e23d 6c5d 54bd f845 4dbd
00000080: 16bf b43d 987a bb3d 382d 8cbd 3000 eb3d
00000090: 408e d0bd 0071 903a 0677 e93d 40c8 6d3b
000000a0: 0097 d43d a292 953d d08f fe3c 088b d4bd
000000b0: e851 d7bd 48bb a23c 7627 bcbd 80f6 55bb
000000c0: 408b 6e3c 7e36 eabd f25b bc3d 5831 f2bc
000000d0: cc61 163d c623 923d b631 dcbd 3495 bdbd
000000e0: 3460 153d 703b 703d 3437 d8bd e00e 8cbc
000000f0: d8e0 893d bcab 21bd 4c8b 193d ec61 d33d
00000100: 66e3 81bd 7c69 693d 005f ecbb 08ea ca3d
00000110: 9032 e5bc f08b 8dbd 548f 82bd a0e6 c0bd
00000120: 263d dbbd 94c0 b8bd d8fd d93c 5ce2 bd3d
00000130: 909b 4a3d 6882 cb3c 0082 b43b c05f 13bb
00000140: bc87 c53d b44a 64bd 189b 393d 1298 813d
00000150: c033 fdbd 689d e4bc 208b 833d b8e9 1ebd
00000160: 9c7a d13d 7c1b 073d e061 663d a877 64bd
00000170: 8a4c a73d 04dc 7d3d b47d 2c3d ea3e a4bd
00000180: 1852 683d 60b8 f8bb f4bd 37bd 5c82 b33d
00000190: c095 893b b04c 7cbc 3697 be3d 00a7 0dbb
000001a0: 0c55 9ebd 18a9 99bc 460b ff3d f2bb c63d
000001b0: 3c15 703d d8e1 e6bd 98c7 82bc da8f cebd
000001c0: 04ea 7fbd d8cd bb3d 3a11 a7bd d8ac acbd
000001d0: b2c8 e5bd 1023 683c 7ee7 dc3d b084 4c3d
000001e0: 8803 d5bc 9659 bbbd 8cb1 4a3d 262e f3bd
000001f0: 80d5 a4bd ca09 e0bd 4003 423c 12c1 b5bd
00000200: 286d 713d 80cd a7ba 08dd dabc ee69 ac3d
00000210: 02ee ab3d 48bc fabd 9089 8a3d c055 343c
00000220: 50dd acbd f0b7 17bc 9623 8b3d 3cab 76bd
00000230: d035 e13c 00ac f43d e05b 7b3d 1070 55bc
00000240: 906c 923d 3828 95bd e6d7 adbd 2cab 873d
00000250: ec8b 97bd a8a6 a7bc c003 27bb 60b6 89bb
00000260: 3002 573d 56c0 b03d a88a be3d a2eb c5bd
00000270: 703d 7a3c 909c c0bc 26ec c43d 72f5 873d
00000280: 04da abbd 5628 c43d 7081 2cbc 08bc b73d
00000290: 5ceb f5bd 786e 653d 34fd 61bd 08df 86bc
000002a0: 1842 c13c 7840 4a3d eacf fa3d 78ea 3abd
000002b0: dcc5 0f3d d8fc 8e3d 684c 94bc 2431 50bd
000002c0: b0e3 023d c807 3fbd c08e 873c 128d 9b3d
000002d0: 5cda 1abd 88ec 58bd b265 9abd 7820 b13c
000002e0: b89b 80bc a062 fdbd 6859 06bd 3435 9ebd
000002f0: 420b dabd 68df 67bd 0094 e23b 740a 543d
00000300: 987e 4bbd 88d1 8abc acb6 633d 906c 48bc
00000310: f6e5 a83d 48fc c33d b851 dbbc 0a2d f5bd
00000320: 26fc ba3d 60eb 7e3d 1c30 2d3d f2a0 81bd
00000330: b448 debd b0a9 5d3d b09f de3d 32a2 e7bd
00000340: 845e 913d 28b0 353d d6eb c93d 1061 4abd
00000350: 326e cd3d 4e21 b7bd ba73 e5bd 30bc 733d
00000360: 4a64 aa3d c0b4 79bb 4e97 803d 40a5 c13b
00000370: a891 973d 90af 93bd 000c 73bb b49f f8bd
00000380: 10ff ec3d 54ce 36bd d8fd d9bc 6a7f 9a3d
00000390: 1657 d3bd 2cf0 893d f8f1 9a3d 68de 42bd
000003a0: b0bb 46bc 003b 353a 7891 fa3c 4056 e43d
000003b0: 4895 1bbd ac93 59bd 60c1 563c 2e7e f53d
000003c0: 6eca 8a3d 3c3d fb3d e8d9 e63c 7830 66bd
000003d0: c04f 0cbd d0fe 4ebc beae 91bd a0f5 c1bd
000003e0: 50d1 56bc 982c f5bd 1c0b 6cbd c072 a5bc
000003f0: ba71 893d 1283 f93d b2c5 a6bd 847c a7bd
0.009664059 0.08373822 0.10412963 0.09686734 -0.0060144514 -0.049944535 0.010470316 0.0601238
0.12046683 -0.018446267 -0.11008179 0.015312821 0.028229982 -0.009854749 -0.11532025 0.061562926
0.00956732 0.012339056 0.039731562 0.04671231 -0.11853336 0.03942518 0.09015286 0.03262663
-0.09724352 -0.1179782 -0.034072936 -0.076396585 -0.056317553 0.11053291 -0.051846907 -0.050115556
0.08825509 0.09154242 -0.06844562 0.11474645 -0.10183382 0.0011020005 0.11399655 0.0036282688
0.103803635 0.073033586 0.031074435 -0.103780806 -0.10513669 0.019864693 -0.09187214 -0.0032648146
0.014559567 -0.11436175 0.09197225 -0.029564545 0.03671436 0.071357295 -0.10751669 -0.09256974
0.0364687 0.058650434 -0.10557404 -0.017096937 0.06732339 -0.03947042 0.03748636 0.103214115
-0.06342201 0.056985363 -0.0072134733 0.09907919 -0.027978212 -0.069114566 -0.06374994 -0.09418988
-0.107050225 -0.09021106 0.0266103 0.0927169 0.049464762 0.024842456 0.0055086613 -0.0022487491
0.0964503 -0.055735305 0.045313925 0.06327833 -0.12363386 -0.027907088 0.0642302 -0.03879711
0.10228464 0.032985196 0.056245685 -0.055778176 0.081688955 0.0619774 0.042112067 -0.080198124
0.056718916 -0.0075903386 -0.044858888 0.087650985 0.00419876 -0.015399143 0.09306185 -0.0021614432
-0.07731065 -0.018757388 0.12453322 0.097038165 0.058614 -0.11273545 -0.015964314 -0.10086031
-0.062479034 0.09170121 -0.081575826 -0.08431405 -0.1121992 0.014168516 0.10786341 0.04993123
-0.02600266 -0.091479465 0.04948573 -0.118740365 -0.080485344 -0.10939367 0.011841595 -0.08874716
0.05894199 -0.0012802333 -0.026716724 0.08418642 0.08395006 -0.12242943 0.06764519 0.0110067725
-0.084406495 -0.009260163 0.06793897 -0.060221896 0.02749148 0.11946869 0.061366916 -0.013027206
0.07149613 -0.07283062 -0.08488445 0.06624445 -0.07399735 -0.02046521 -0.0025484413 -0.004202649
0.05249232 0.08630435 0.0930379 -0.09664084 0.015273437 -0.023512155 0.09615354 0.06638612
-0.083911926 0.09578006 -0.010528907 0.08971411 -0.12007782 0.056013554 -0.055173114 -0.016463771
0.023591086 0.04937789 0.12246688 -0.045633763 0.035100803 0.0698182 -0.01810284 -0.050828114
0.03195542 -0.04663828 0.01654756 0.075952664 -0.0378059 -0.05295995 -0.07538928 0.021621928
-0.015699252 -0.12372327 -0.03280011 -0.077249914 -0.106466785 -0.05660954 0.0069146156 0.05176778
-0.049681276 -0.016945615 0.05559413 -0.012232915 0.082469866 0.09569603 -0.026772365 -0.11971481
0.09130125 0.06223619 0.04228221 -0.06329526 -0.10853711 0.054116905 0.10870302 -0.11310233
0.070981055 0.04435745 0.09859435 -0.049408972 0.10030784 -0.08941899 -0.11203714 0.05950564
0.0831991 -0.003810212 0.06278859 0.005909592 0.074008286 -0.0721122 -0.003708601 -0.12139836
0.11572087 -0.044630364 -0.0266103 0.075438336 -0.10319345 0.06735262 0.07565683 -0.047575384
-0.012129709 0.0006913394 0.030586943 0.111492634 -0.037984163 -0.053119346 0.013107628 0.119869575
0.06776892 0.12267539 0.028180078 -0.056198567 -0.034255743 -0.012633994 -0.071134076 -0.094706774
-0.013111427 -0.11971396 -0.057627782 -0.020196319 0.06711145 0.12183203 -0.08143176 -0.08178046

fc2.bias f4 [64]
00000000: 5315 1ebd ad4f ac3d c0b2 96bc 83be 39bd
00000010: b330 b13d dcf5 053d 5614 643d 855b 973d
00000020: 01a7 5abd bbd8 863d f8f2 d5bc f710 813d
00000030: 168d 363d c017 90bc a4ee ae3c 78bd 92bd
00000040: 4b92 853d c818 50bd 740b a3bd 3001 8dbc
00000050: 1b04 0cbd 8047 1a3b 0624 353d 604c dd3c
00000060: d019 d63c e076 d0bc 3e9c 313d 0855 f43c
00000070: 0ca3 dcbc 7b90 8e3d 90bc 75bd d8c9 2fbd
00000080: e129 5ebd e9dd 20bd 64c4 983c 901f 57bc
00000090: 1091 bebc ef61 1ebd 9a95 7abd 2064 df3c
000000a0: bafc 513d e0e7 83bb 94ef 8cbd eb67 97bd
000000b0: 1228 7c3d 56bd 303d 1557 913d 27a5 b23d
000000c0: b288 423d d94e 9fbd fc02 8cbd a839 80bd
000000d0: 9303 a0bd 1afd 2ebd 842e 2cbd 619b 993d
000000e0: 60e4 7abd 6329 31bd 3ba5 b33d 7071 8dbc
000000f0: dac8 28bd 88f2 9ebc 460b 7cbd f4f8 c0bc
-0.038594555 0.084136344 -0.018395782 -0.0453477 0.08651867 0.032705173 0.055683456 0.07390503
-0.053381924 0.06584307 -0.026116833 0.06302064 0.044568144 -0.01758945 0.021354027 -0.071650445
0.06522044 -0.050804883 -0.07961169 -0.01721248 -0.034183603 0.0023541152 0.044223808 0.027013958
0.026135355 -0.025447309 0.043361895 0.029825702 -0.026933216 0.06961151 -0.05999428 -0.042917103
-0.054239158 -0.03927413 0.018648334 -0.013130084 -0.02326253 -0.038667616 -0.061177827 0.027269423
0.05126641 -0.0040254444 -0.068816334 -0.07392868 0.06156165 0.043149315 0.07096688 0.087229066
0.047493644 -0.07778711 -0.06836507 -0.06260997 -0.07813182 -0.042721845 -0.04203655 0.07500339
-0.06125295 -0.04325236 0.087717496 -0.017266005 -0.041207172 -0.019402757 -0.06153419 -0.02355621

bn2.weight f4 [64]
00000000: e3e5 7f3f 9981 2a3f f41f 1b3f 5f4f 3d3f
00000010: dc89 453f b757 183f 4117 203f 28d3 4f3f
00000020: 2853 d73d 6c50 823e 82e6 f13e 0c19 593f
00000030: e6b7 563f 7630 9f3e 485b fa3d 41a0 6b3f
00000040: 58ae 2e3e 745c e53e d6d7 b23e 6cec 633f
00000050: 9822 513e 8009 8f3b 6496 1d3e 4a9a ca3e
00000060: 2c1d 7f3e 1426 693f aa35 153f be64 483f
00000070: 603b 8d3c 30a2 8b3e 7683 223f de99 923e
00000080: 2070 253d 979b 2f3f 004c d13d c3b2 293f
00000090: a7f8 4b3f 5a2b b53e 8064 cc3c a0da db3d
000000a0: 34fd 7f3e cc1c 253f 4694 5d3f 277e 723f
000000b0: b0a6 3a3d d4ce 5b3f 2811 2b3f 1aa5 bb3e
000000c0: 4e83 0b3f dc1f 7b3f 308d 3e3f 9a1e 0a3f
000000d0: 6cd4 5e3e b045 4f3d 4662 a43e 9c32 603e
000000e0: f133 513f 0c5b ee3e 6ad3 1c3f e092 c23d
000000f0: 7739 123f d183 623f 7671 8c3e 34e7 153f
0.99960154 0.66604 0.6059563 0.73949236 0.7716348 0.5950884 0.6253548 0.81181574
0.10513908 0.25451982 0.47246176 0.84803843 0.83874357 0.3109166 0.12224442 0.92041403
0.17058694 0.447971 0.34930295 0.89032626 0.20423353 0.004365146 0.153894 0.39570838
0.24913472 0.9107373 0.5828501 0.7827872 0.017240226 0.27272177 0.63481843 0.28633016
0.040390134 0.68596786 0.10219574 0.66288394 0.7967629 0.35384637 0.024950266 0.10735059
0.24998933 0.64497066 0.8655437 0.94723743 0.04556912 0.8586247 0.66823053 0.366494
0.5449723 0.9809549 0.74434185 0.53952944 0.2176072 0.05060357 0.32106227 0.21894306
0.8171988 0.46553838 0.6126009 0.095006704 0.57118934 0.88482386 0.27430314 0.5855591

bn2.bias f4 [64]
00000000: 0000 0000 0000 0000 0000 0000 0000 0000
00000010: 0000 0000 0000 0000 0000 0000 0000 0000
00000020: 0000 0000 0000 0000 0000 0000 0000 0000
00000030: 0000 0000 0000 0000 0000 0000 0000 0000
00000040: 0000 0000 0000 0000 0000 0000 0000 0000
00000050: 0000 0000 0000 0000 0000 0000 0000 0000
00000060: 0000 0000 0000 0000 0000 0000 0000 0000
00000070: 0000 0000 0000 0000 0000 0000 0000 0000
00000080: 0000 0000 0000 0000 0000 0000 0000 0000
00000090: 0000 0000 0000 0000 0000 0000 0000 0000
000000a0: 0000 0000 0000 0000 0000 0000 0000 0000
000000b0: 0000 0000 0000 0000 0000 0000 0000 0000
000000c0: 0000 0000 0000 0000 0000 0000 0000 0000
000000d0: 0000 0000 0000 0000 0000 0000 0000 0000
000000e0: 0000 0000 0000 0000 0000 0000 0000 0000
000000f0: 0000 0000 0000 0000 0000 0000 0000 0000
0.0 0.0 0.0 0.0 0.0 0.0 0.0 0.0
0.0 0.0 0.0 0.0 0.0 0.0 0.0 0.0
0.0 0.0 0.0 0.0 0.0 0.0 0.0 0.0
0.0 0.0 0.0 0.0 0.0 0.0 0.0 0.0
0.0 0.0 0.0 0.0 0.0 0.0 0.0 0.0
0.0 0.0 0.0 0.0 0.0 0.0 0.0 0.0
0.0 0.0 0.0 0.0 0.0 0.0 0.0 0.0
0.0 0.0 0.0 0.0 0.0 0.0 0.0 0.0

bn2.running_mean f4 [64]
00000000: 0000 0000 0000 0000 0000 0000 0000 0000
00000010: 0000 0000 0000 0000 0000 0000 0000 0000
00000020: 0000 0000 0000 0000 0000 0000 0000 0000
00000030: 0000 0000 0000 0000 0000 0000 0000 0000
00000040: 0000 0000 0000 0000 0000 0000 0000 0000
00000050: 0000 0000 0000 0000 0000 0000 0000 0000
00000060: 0000 0000 0000 0000 0000 0000 0000 0000
00000070: 0000 0000 0000 0000 0000 0000 0000 0000
00000080: 0000 0000 0000 0000 0000 0000 0000 0000
00000090: 0000 0000 0000 0000 0000 0000 0000 0000
000000a0: 0000 0000 0000 0000 0000 0000 0000 0000
000000b0: 0000 0000 0000 0000 0000 0000 0000 0000
000000c0: 0000 0000 0000 0000 0000 0000 0000 0000
000000d0: 0000 0000 0000 0000 0000 0000 0000 0000
000000e0: 0000 0000 0000 0000 0000 0000 0000 0000
000000f0: 0000 0000 0000 0000 0000 0000 0000 0000
0.0 0.0 0.0 0.0 0.0 0.0 0.0 0.0
0.0 0.0 0.0 0.0 0.0 0.0 0.0 0.0
0.0 0.0 0.0 0.0 0.0 0.0 0.0 0.0
0.0 0.0 0.0 0.0 0.0 0.0 0.0 0.0
0.0 0.0 0.0 0.0 0.0 0.0 0.0 0.0
0.0 0.0 0.0 0.0 0.0 0.0 0.0 0.0
0.0 0.0 0.0 0.0 0.0 0.0 0.0 0.0
0.0 0.0 0.0 0.0 0.0 0.0 0.0 0.0

bn2.running_var f4 [64]
00000000: 0000 803f 0000 803f 0000 803f 0000 803f
00000010: 0000 803f 0000 803f 0000 803f 0000 803f
00000020: 0000 803f 0000 803f 0000 803f 0000 803f
00000030: 0000 803f 0000 803f 0000 803f 0000 803f
00000040: 0000 803f 0000 803f 0000 803f 0000 803f
00000050: 0000 803f 0000 803f 0000 803f 0000 803f
00000060: 0000 803f 0000 803f 0000 803f 0000 803f
00000070: 0000 803f 0000 803f 0000 803f 0000 803f
00000080: 0000 803f 0000 803f 0000 803f 0000 803f
00000090: 0000 803f 0000 803f 0000 803f 0000 803f
000000a0: 0000 803f 0000 803f 0000 803f 0000 803f
000000b0: 0000 803f 0000 803f 0000 803f 0000 803f
000000c0: 0000 803f 0000 803f 0000 803f 0000 803f
000000d0: 0000 803f 0000 803f 0000 803f 0000 803f
000000e0: 0000 803f 0000 803f 0000 803f 0000 803f
000000f0: 0000 803f 0000 803f 0000 803f 0000 803f
1.0 1.0 1.0 1.0 1.0 1.0 1.0 1.0
1.0 1.0 1.0 1.0 1.0 1.0 1.0 1.0
1.0 1.0 1.0 1.0 1.0 1.0 1.0 1.0
1.0 1.0 1.0 1.0 1.0 1.0 1.0 1.0
1.0 1.0 1.0 1.0 1.0 1.0 1.0 1.0
1.0 1.0 1.0 1.0 1.0 1.0 1.0 1.0
1.0 1.0 1.0 1.0 1.0 1.0 1.0 1.0
1.0 1.0 1.0 1.0 1.0 1.0 1.0 1.0

fc3.weight f4 [2, 64]
00000000: e470 66ba 58f1 713a 705b b53a 74a2 da3a
00000010: 98ca d539 e67a e3ba e430 43ba 22f1 10bb
00000020: 1f78 d5ba 84cb 0c3b d15f 8bba 6883 db3a
00000030: 9e82 87ba 705b 2cbb 6857 e63a 0051 e73a
00000040: 9e1a 343b 5003 013b e655 023b 2a85 3fbb
00000050: 6250 c7ba 38fd dfb9 4b6f 95ba 9b81 3fbb
00000060: 7370 1dbb d5d4 28bb 0c6a 113a 00e4 c53a
00000070: 14c9 293a f496 c03a b29c 043b 4f54 a9ba
00000080: 405d 5d39 26d8 a7ba c090 7539 8422 353b
00000090: 5896 38ba 6452 40ba d897 a4b9 509b 4aba
000000a0: 0c43 ca3a d0cd 0f3b 1cd4 d73a 3051 57b9
000000b0: 18d0 0f3b db36 feba e0f7 27bb 82d8 32bb
000000c0: 2433 aa3a d806 61ba ce59 02bb 58c1 e239
000000d0: 0e0a 0abb 582f daba 3d61 3dbb 843e 18ba
000000e0: 6089 2bba 57ef b1ba 0f41 10bb a0e2 313a
000000f0: 50f8 a139 b8b2 943a 806f 3dba ad07 20bb
00000100: 41da fdba 3064 4bba 608c 8d38 0420 d13a
00000110: a2c4 1a3b b454 0aba 86f6 afba b63b 33bb
00000120: 3a6e 80ba a031 8cba b83c 583a b877 653a
00000130: 8093 f939 28d6 13ba f403 203b 2a2c 0b3b
00000140: 18f5 a7ba 98b3 3b3b c76c 12bb b689 01bb
00000150: 6a46 a0ba 1821 e63a 786b dd3a 6809 d73a
00000160: 18c3 fd39 fe50 3fbb a863 4aba d81b a13a
00000170: c26e 333b 2c48 8b3a 5eda 013b 8ac5 393b
00000180: 588b 0f3b 5739 12bb a83c 8e3a 7043 1a3b
00000190: 8c2a 21ba 20eb bc38 e095 b039 742f 4a3a
000001a0: 5fd2 07bb 4781 2fbb c8b1 773a c0a5 6fb9
000001b0: 738b 20bb 90d5 dab9 20b2 30b9 1ca9 c8ba
000001c0: 0aab 013b aae1 2d3b ecad 37bb e883 aa3a
000001d0: 48af 2aba 7436 30ba 809c caba 4080 303a
000001e0: 38f6 35bb c0fa 583a 00fc 6238 9e5c 3d3b
000001f0: 70aa 35b9 7a61 8aba 7a1b 33bb 90a1 093b
-0.0008790626 0.00092293834 0.0013836455 0.0016680495 0.0004077747 -0.0017355352 -0.0007445945 -0.0022116383
-0.0016286409 0.002148361 -0.0010633414 0.0016747536 -0.001033861 -0.0026299618 0.0017573657 0.0017648041
0.0027481685 0.0019685812 0.0019887625 -0.002922366 -0.0015206451 -0.00042722537 -0.0011400966 -0.0029221538
-0.0024023324 -0.0025761623 0.0005547113 0.0015097857 0.00064768014 0.0014693425 0.0020235 -0.0012918803
0.0002111094 -0.0012805506 0.00023418944 0.002763898 -0.0007041446 -0.0007336496 -0.0003139365 -0.0007728832
0.0015431358 0.0021942742 0.0016466412 -0.00020534243 0.0021944102 -0.001939501 -0.0025629923 -0.0027289693
0.0012985212 -0.00085840886 -0.0019889954 0.0004325013 -0.0021063122 -0.001664619 -0.002889707 -0.00058076554
-0.0006543603 -0.0013575357 -0.0022011434 0.0006785784 0.0003089332 0.0011344766 -0.00072263926 -0.0024418638
-0.0019367413 -0.00077587646 6.749551e-05 0.0015954976 0.0023615737 -0.0005276904 -0.001342491 -0.0027348823
-0.0009798475 -0.0010695942 0.0008248794 0.0008753496 0.00047602877 -0.0005639517 0.0024416419 0.002123604
-0.0012814132 0.0028640982 -0.0022342668 -0.001976592 -0.0012228016 0.001755747 0.001689299 0.0016406002
0.00048401277 -0.0029192562 -0.00077205384 0.0012291623 0.002737925 0.0010626367 0.0019813995 0.0028346502
0.0021903124 -0.002231201 0.0010851817 0.002353873 -0.00061480026 9.008334e-05 0.00033681002 0.00077127595
-0.0020724756 -0.0026779936 0.0009448794 -0.00022854563 -0.002449718 -0.00041739317 -0.00016851025 -0.0015309188
0.0019785785 0.0026532211 -0.002802725 0.0013009282 -0.00065111043 -0.00067219813 -0.0015458018 0.0006732978
-0.0027765166 0.0008277111 5.4117292e-05 0.0028894315 -0.00017324998 -0.0010557615 -0.002732961 0.002100084

fc3.bias f4 [2]
00000000: f81d 89bd 006d 1e3a
-0.06695169 0.0006043464

bn3.weight f4 [2]
00000000: 2d06 0a3f 7897 1d3f
0.53915673 0.6155925

bn3.bias f4 [2]
00000000: 0000 0000 0000 0000
0.0 0.0

bn3.running_mean f4 [2]
00000000: 0000 0000 0000 0000
0.0 0.0

bn3.running_var f4 [2]
00000000: 0000 803f 0000 803f
1.0 1.0
