projects/p3_collab-compet/critic_1.pth (torch_old, 52813 bytes, 17 tensors)

bn0.weight f4 [24]
00000000: 7f6b 223f 9c62 fa3e 5e27 fd3e 4769 c03e
00000010: 7019 633f 247c 413f 54d5 b73e a2d6 b03d
00000020: ba75 1f3f ad40 733e 53b8 123f 2a71 a23e
00000030: 9ac3 183f 923d 733f 5200 123f cd46 c93e
00000040: 7453 573f 7c0c 8e3e 2067 c73e fe4a 363f
00000050: 21ab f53e 0450 293f f81f 093f 0ba7 ea3e
0.63445276 0.48903358 0.49444097 0.3758032 0.8871069 0.7558005 0.35904944 0.08634688
0.6228901 0.2375514 0.57312506 0.31726962 0.59673464 0.95015824 0.5703174 0.3931183
0.84111714 0.277439 0.38945866 0.7120818 0.47982123 0.6613772 0.53564405 0.4583057

bn0.bias f4 [24]
00000000: 8281 42bd 71c6 2a3d 93c6 443d c9ea 643d
00000010: 1806 aa3d 4a38 263c 32ae b63b 497e a93d
00000020: 5483 87bd bb08 ab3d f807 21bd c82e eebc
00000030: 1134 a53d 283d ac3d 2d66 21bc 18ea 48bd
00000040: 7731 b6bc 1a22 e53c b13b d93c e9c0 7e3c
00000050: 17d5 113e ea57 fd3c eee9 02bd 948b e6bb
-0.04748679 0.041693155 0.048040938 0.05588797 0.083019435 0.010145256 0.005574965 0.0827604
-0.06616846 0.083512746 -0.03931424 -0.029075041 0.080665715 0.08410102 -0.009851021 -0.049051374
-0.022240384 0.027970362 0.02651772 0.015548923 0.14241444 0.03092571 -0.031961374 -0.007035682

bn0.running_mean f4 [24]
00000000: ebae d8c0 1aa6 9dbf e0fc 3f3f eef3 f33d
00000010: e7aa 78bc cebf 3340 e0fc 3f3f eef3 f33d
00000020: 9c39 e5c0 90ea a7bf 53c1 cc3f b43b aa3d
00000030: 4b92 17bd 25c3 2e40 53c1 cc3f b43b aa3d
00000040: e825 f3c0 2907 b2bf 6e37 8e3f cc3c 493d
00000050: 2bd3 d2bc 3e79 2540 6e37 8e3f cc3c 493d
-6.7713523 -1.2316315 0.7499523 0.1191176 -0.015177465 2.8085818 0.7499523 0.1191176
-7.1632824 -1.3118458 1.5996498 0.08312169 -0.03700475 2.7306607 1.5996498 0.08312169
-7.598377 -1.3908435 1.1110666 0.049130246 -0.025735458 2.585525 1.1110666 0.049130246

bn0.running_var f4 [24]
00000000: a9b4 6341 7164 543f 34b4 7443 84b5 3040
00000010: a752 2042 8cb5 ad40 34b4 7443 84b5 3040
00000020: 122c 3e41 e351 483f 73a9 8543 708b 4240
00000030: a742 2d42 5fda c140 73a9 8543 708b 4240
00000040: d90a 1c41 6d74 383f 13c3 8f43 ed4b 5640
00000050: 5d17 3a42 b3f7 e340 13c3 8f43 ed4b 5640
14.2316065 0.8296576 244.70392 2.7610788 40.080715 5.4284115 244.70392 2.7610788
11.885759 0.7824995 267.32382 3.0397606 43.31509 6.0579066 267.32382 3.0397606
9.752648 0.7205265 287.52402 3.3483841 46.522816 7.1239867 287.52402 3.3483841

fcs1.weight f4 [128, 24]
00000000: ed8e 373d 5a8e 43be 50ab 6c3d 82d0 adbd
00000010: 3fa0 713e d82b 833c 7fa4 353e f5fa a6bc
00000020: 05c3 d4bd b4c3 76be c9cd 4bbe 4983 0f3e
00000030: 43a2 283e eabc 2c3d 9325 2abe daca 9e3c
00000040: dfbc 41be c146 ecbc c746 07be d2b5 c2bb
00000050: 9b18 04bd e623 303e 6b00 3fbe 8f7b f63d
00000060: 203d fb3d 832c 46bd 06d4 903d 4327 8abc
00000070: d9b4 d73e 1404 ba3e cda4 4c3d c5ed 24be
00000080: 9def 383e db36 06be 7945 063d 0791 2f3d
00000090: e37a 9f3e 6f07 b23e bcf0 fd3d 298b 7f3d
000000a0: 226e 293e bff0 46bc 72df b23d 4a5d 32bd
000000b0: cd34 23bd e830 cf3e 053f fd3d a3d3 bf3c
000000c0: 628a 143e c74d 1b3e 67d5 123e fc22 553e
000000d0: 04dc c23c 577a cf3b b928 003e 82ea ce3d
000000e0: e292 993d 67ca a93d c453 3c3d 112e e5bc
000000f0: b3fd 403e 2024 243d 0ae2 943b 177b 733d
00000100: 7835 65bc d26b dbbc 675c 3dbe d217 99bd
00000110: dcaa 313e e3f3 98bd c298 55be 7068 34bd
00000120: 5a77 7539 46c3 cf39 c687 023e bc9f 51bc
00000130: c025 093b 5146 8a3d afa7 4d3d 9226 23bd
00000140: ea3c 32bd ef31 a9bd 2c47 793d 00f1 a9bd
00000150: 3def a33d be70 f1bd f02f 13bd 56df 2abd
00000160: 1da8 8b3c 671f b1bc 5baf ebbc e22f 86bd
00000170: 14f4 8fbc 66c5 263e 3cc1 babd fa2d b5bd
00000180: 32d2 b13e 8e46 a53d e0e7 ec3d 9cd4 bebd
00000190: 583c 4a3e a9b0 743e f04d 123d 0ff3 3bbe
000001a0: 4a58 e63d 7413 a83d 7e2a 273d 52f1 99bd
000001b0: d7c2 173e f056 003e 137c 8a3d 6a84 febd
000001c0: e299 d93d d776 44bd cd52 82be 6700 29be
000001d0: 83e3 77bd 26a6 a53d 08c7 7bbe 0643 81be
000001e0: de06 ff3b b2f7 ddbc 5255 d2bd 995d 1bbd
000001f0: 1558 dc3c b602 10bb be9c 3abb 93d5 32bd
00000200: 709f eabc d23a a0bc f2f6 16be e6d2 bcbc
00000210: 2967 9c3c a785 893d eb6f e6bd f82a 00be
00000220: 673c 2fbe e77e b5bc 94c8 fe3b 43fb d33d
00000230: cde2 783d 90f8 52be 1c00 0e3d 495e c53d
00000240: 332b 523e 5646 003e 711b e63d a8e6 c6bd
00000250: b3ab 913d 6684 3bbc 535a d33d f199 1b3d
00000260: 93db 013e 3a8c 8abd e32f 2d3e e8db adbd
00000270: 1019 c73d 4641 f53b 33ad b03d 87c7 7abb
00000280: a3cd be3d acde 063d f947 d73d 1738 4abe
00000290: 19c6 04be 05db f63c 3117 7a3d 3977 24be
000002a0: ac23 493d 6b74 cbbe 0f5c 583d 30c2 01be
000002b0: 0766 2abe 9118 debd f454 893d 1071 c3bc
000002c0: 3929 ee3c e041 d8be 8d25 2e3d 5078 e1bd
000002d0: ebbd 7c3d 3777 583d 5e76 19bd 1d32 a6bd
000002e0: a05d 453d b4fb a2be 1668 6fbe d77d f0bd
000002f0: efd6 b83e a884 803e 01fc 01be 3d4c f5bc
00000300: 1127 c5bd 229d b13d dc31 d2bd 649a 18be
00000310: 33fa b73d 11f8 45bc 5966 26be 29d2 fcbd
00000320: 696e b73c 492b 983c 1e1d acbd 40e7 b43d
00000330: 2a55 ce3d e0a0 0fbe 273a d1bc 9c5e 35bd
00000340: 3f24 1abe 0af5 923d 861c e53d 4eaa ebbc
00000350: ad2d 813d b2c1 703e 92ba 743d 3e97 75bd
00000360: 0776 e7bd 53a4 81bc 8019 a73c b7c6 13bc
00000370: 6174 8b3d c8aa 8ebd 2377 a83c d715 f9ba
00000380: d312 a53c 522d 05be 6a24 06be 1a12 1e3e
00000390: 7f09 a03c ed20 993d bd19 0cbe e66a af3d
000003a0: 903e 67bb 7c00 3cbd fef1 1d3e b585 fd3c
000003b0: fea8 23bc bc9b 22be a739 0a3d 00c8 5b3d
000003c0: 97f9 d0bd 0c7b d4bc 03ca c5bc e1aa 62bd
000003d0: e6ed fdbd 3779 553d c7ce b7bd d3ab 02bd
000003e0: 8d12 a7bd 6406 8c3d 81c0 d13d a479 53bc
000003f0: 2928 20be bf36 2ebd 0ef2 113e 04b4 303d
0.04481404 -0.19097272 0.057780564 -0.08487035 0.23596285 0.016012117 0.17738532 -0.020383338
-0.103887595 -0.24098092 -0.1990272 0.14014925 0.16468148 0.04217235 -0.16615896 0.019383837
-0.18919705 -0.028842332 -0.13210593 -0.005942085 -0.032250028 0.17201194 -0.18652503 0.12035286
0.12267518 -0.048382293 0.0707169 -0.016864425 0.42130163 0.36331236 0.049961854 -0.16106327
0.18060155 -0.13106863 0.032781098 0.04286292 0.31148443 0.34771296 0.12399432 0.062388573
0.16545919 -0.012142359 0.08734025 -0.043546 -0.039845277 0.40467 0.12365536 0.023416346
0.14505914 0.15166388 0.14339219 0.20814127 0.023786552 0.0063317227 0.12515534 0.101033226
0.07498719 0.08290558 0.045978323 -0.027976068 0.18846779 0.040073514 0.0045435475 0.05944356
-0.013989799 -0.026784811 -0.1849228 -0.074752465 0.17350334 -0.07468393 -0.20859054 -0.04404491
0.00023409483 0.00039627607 0.12747106 -0.012794431 0.0020927042 0.06751693 0.050208744 -0.039831705
-0.043515123 -0.08261477 0.06085889 -0.0829792 0.080046155 -0.11789082 -0.03593439 -0.041716896
0.017047936 -0.02162142 -0.02877014 -0.06552102 -0.01757244 0.16286239 -0.09118888 -0.0884666
0.3473068 0.08070098 0.11567664 -0.09317896 0.19749582 0.23895516 0.03571886 -0.18354438
0.112473086 0.082068354 0.040812008 -0.07516731 0.14820419 0.12533164 0.067619465 -0.124276
0.10625054 -0.047964897 -0.25453797 -0.1650406 -0.060519706 0.08088331 -0.24587643 -0.25246447
0.007782801 -0.02709565 -0.1027018 -0.03793106 0.02689747 -0.0021974272 -0.0028474773 -0.04366071
-0.028640479 -0.019559298 -0.1474264 -0.023049783 0.01909216 0.06714945 -0.112518154 -0.12516391
-0.17112885 -0.022155238 0.0077753756 0.10350659 0.06076317 -0.20602632 0.034668073 0.09637124
0.20524292 0.12526831 0.11235703 -0.09711963 0.07112827 -0.0114451405 0.10319962 0.037988607
0.12681417 -0.06765027 0.16912799 -0.084892094 0.09721577 0.007484588 0.08626785 -0.00382659
0.09316566 0.0329272 0.105117746 -0.19747959 -0.12966193 0.030133734 0.061057273 -0.16061105
0.049106285 -0.39737257 0.05282217 -0.12671733 -0.16640483 -0.108445294 0.06705657 -0.023857623
0.02907239 -0.4223776 0.04251628 -0.11009276 0.061704557 0.052848067 -0.0374664 -0.08115027
0.04818499 -0.3183266 -0.2337955 -0.11742752 0.3610148 0.2510121 -0.12693788 -0.02994358
-0.09626592 0.08672549 -0.10263416 -0.14902645 0.089832686 -0.012083069 -0.1624998 -0.12344772
0.022391515 0.018575327 -0.08403991 0.0883317 0.100748375 -0.14026213 -0.025540425 -0.04427968
-0.1505289 0.07175644 0.11187081 -0.028767731 0.0630754 0.23511389 0.05974824 -0.05995869
-0.11301809 -0.015825426 0.020397902 -0.009019545 0.06809307 -0.06966168 0.020564621 -0.0019003701
0.020150578 -0.1300557 -0.13099828 0.15436593 0.019535778 0.07476983 -0.13681693 0.08565311
-0.0035285093 -0.0458989 0.15424344 0.030947546 -0.009989021 -0.1587972 0.033746388 0.05365753
-0.102038555 -0.02593758 -0.024144178 -0.055338744 -0.12398891 0.052117553 -0.089749865 -0.031902146
-0.08157835 0.068371564 0.10241795 -0.012907419 -0.1564032 -0.04253268 0.14252493 0.043140426

fcs1.bias f4 [128]
00000000: 5129 6fbe 0f99 8cbe 741a ba3d de20 8f3d
00000010: f8db 02be d4d8 20be 6ff7 4dbc 9907 ffbd
00000020: a5f1 893d 920d 28bd 77c2 88bc 3f55 053d
00000030: 7bba d53d 1cdd c9bd 3efe d53d a167 8abd
00000040: 1753 73bc b6d4 f8bd 1759 153e 957a 72be
00000050: 4ed9 3c3d d4a5 c4bd 34f4 afbc 919e 6bbe
00000060: 2522 91bd e8e3 b3bd 8a46 4b3d ca5a 1bbe
00000070: bd6c 55bc 65c3 193c 79e7 d83d cf58 73be
00000080: bc28 08bc 7cf7 bfbc bf26 fe3d a54d 4bbd
00000090: b7d1 8bbd 264c 883d 1dae fe3d 2083 4dbe
000000a0: deb4 27be 08e2 453d 59e5 c7bd 2114 3dbe
000000b0: c774 27be e845 123e 3f59 23be c4b2 79bc
000000c0: 1206 803d a2e6 55be 4fbb 2ebd 3f9f e13d
000000d0: 6420 4a3e 955a 54be daee f7bb 4260 46bc
000000e0: 619e 0e3e 9702 8d3a 6a35 38bd fe8d 2cbe
000000f0: 8724 a93d 1790 00bc dfa6 dabd 403d 01be
00000100: c6bc 353e afee 3cbe 47d2 c9bd 919f b4bd
00000110: 3623 c9bb a271 f3bd e2a6 40be 0485 a63d
00000120: 65e2 993d 7af1 373e cc87 b9bd a655 12be
00000130: 9f78 54be c5a4 dabd 799d 79be 4048 18be
00000140: 0dca c7bd e93b 393e 48d4 5fbe 3407 9ebe
00000150: 950a cdbd 872f 983d 34f6 b8bd 8fb3 17be
00000160: 77c2 17bd 0f6d ce3d 4406 ef3d a685 3abd
00000170: da31 be3d ed53 95be 015e 7fbe 38db 37bc
00000180: fcc4 763d 189d 75bd 1f79 963d 2543 1fbd
00000190: ed4b 15bd ce94 92bc 4089 14be 5cf3 b5bc
000001a0: 165c 4c3d 0403 71be 3e07 a43d 60ce 1e3e
000001b0: d94c d1bb 4405 013e dc05 d03b 81bd ba3d
000001c0: c5f8 cabc dd55 89bd ec43 b0bd 0476 21be
000001d0: 8fa5 60be da6d fa3d b92d dcbd 34c5 793d
000001e0: 96d2 c93d ea25 3ebe 5d5a 31be ee00 933c
000001f0: bc02 9d3d 139c c73c 76ff 0fbe 0e03 973d
-0.23355605 -0.27460524 0.09087077 0.06988691 -0.12779224 -0.15707713 -0.0125712 -0.12452621
0.06735543 -0.041028567 -0.01669429 0.032552 0.10435959 -0.098566264 0.104488835 -0.06758047
-0.014851353 -0.121499464 0.14584766 -0.23679574 0.046105675 -0.09601942 -0.02147875 -0.23009707
-0.07086591 -0.08783704 0.04962782 -0.15171352 -0.0130264135 0.009384965 0.10591025 -0.23764347
-0.008310493 -0.02343344 0.12409734 -0.049634594 -0.06827109 0.06655149 0.12435553 -0.20069551
-0.16377589 0.048311263 -0.097605415 -0.1846471 -0.16353141 0.1428448 -0.15952013 -0.015240375
0.06251158 -0.2088876 -0.0426591 0.11016702 0.19738919 -0.2073768 -0.007566315 -0.012107911
0.13927604 0.0010758218 -0.044972815 -0.1685104 0.0825892 -0.007846854 -0.106763594 -0.12621021
0.17747793 -0.18450426 -0.0985456 -0.088194974 -0.0061382307 -0.11886908 -0.1881366 0.081308395
0.075138845 0.1796321 -0.09059104 -0.14290485 -0.20749138 -0.106759585 -0.24376477 -0.14871311
-0.09755335 0.1808926 -0.21858323 -0.3086487 -0.10011784 0.0743094 -0.090313345 -0.1481459
-0.03705069 0.10079395 0.11671117 -0.045537613 0.09286852 -0.29165593 -0.24938203 -0.011221699
0.060246453 -0.05996427 0.07347321 -0.038882393 -0.03644936 -0.017893221 -0.14505482 -0.02221077
0.049892507 -0.23536307 0.08009194 0.15508413 -0.006387335 0.12599665 0.0063483547 0.09118176
-0.024776826 -0.0670583 -0.08606705 -0.15767676 -0.21938156 0.12227984 -0.107509084 0.060979083
0.09854619 -0.1856915 -0.17319627 0.01794478 0.07666537 0.024366414 -0.14062294 0.073736295

bn1.weight f4 [128]
00000000: ac7b 3c3f 6812 a03d 2035 703f 2683 0a3f
00000010: bcf7 953e 005d 403c c649 1e3f 60e9 bd3e
00000020: 58ea 1a3f e8d3 dd3d 4ba6 313f 70cd f13d
00000030: cb88 653f daea 073f 955c 3e3f 03ff 4b3f
00000040: 586d 733f 0fb1 133f 49c7 663f e8cc ac3d
00000050: 9ae8 5b3f 97e5 5d3f 9c62 783e b894 763e
00000060: b89d 693f aedd 663f 48b6 ab3d 5c5f 013f
00000070: 10e1 fd3d e511 453f e84a a53d 9c8b 833e
00000080: b444 613f fbf2 6b3f 596c 713f 6a38 0d3f
00000090: 800c 6c3d f688 503f d9cd 693f 15a3 623f
000000a0: 9d7e 503f c895 eb3e 184c 403f 1a04 1c3f
000000b0: 4a9b 873e 812b 533f 404a a13e 27e9 4a3f
000000c0: 20ab e83e c802 e93e 4c4b 363f 606b de3e
000000d0: 35df 343f a071 873d c02d 7d3c a106 113f
000000e0: 0257 c93e e0eb 903e f0d8 543d 0364 0c3f
000000f0: 54d3 823e 8dba 733f 709d ea3d e225 a53e
00000100: 9a21 cf3e 9021 173f d0d0 273d 4339 463f
00000110: 1094 013d 5821 6f3e fe6c 193f e246 da3e
00000120: bc9b 0f3f 00e9 5d3b 54d3 173e 8561 553f
00000130: 56d3 313f 44cd 373f ade0 473f 7982 593f
00000140: b20a 3f3f d85f b13e 04a3 803e f4ff 223e
00000150: 5dd9 253f 9ee5 f83e b001 853e e11e 4e3f
00000160: 7b38 053f 02a5 e43e bc29 be3e 7448 0c3e
00000170: e2b4 693f 4049 5b3c a0e7 2d3d ada0 193f
00000180: 82cd 8c3e c50b 5f3f ae27 f73e 46a2 873e
00000190: eb14 003f c0ba d73e cc8f d73e 62a6 e33e
000001a0: d8e8 2e3e a2a7 ae3e a06f 923c 5c63 363e
000001b0: 0163 093f 87dd 533f be53 f43e 75e6 633f
000001c0: 306a d73d dac2 2d3f e85b 1e3f 82ad 983e
000001d0: 8e97 343f d004 3d3e faf8 083f 5d99 2b3f
000001e0: 681b 893e 283a 173e e21a 523f 3885 c53d
000001f0: 434c 7e3f 704b a33e 36f2 d73e 40ea 6f3e
0.7362621 0.07816011 0.9383106 0.54106367 0.2929057 0.011740923 0.6183132 0.37092113
0.6051383 0.108314335 0.6939437 0.11806762 0.89661855 0.5309273 0.7436002 0.7968599
0.9508872 0.57692045 0.90147835 0.0843752 0.85901797 0.8667845 0.24256366 0.24080169
0.91256285 0.90182006 0.08384377 0.5053613 0.12396443 0.7698043 0.08070928 0.2569245
0.8799546 0.92167634 0.9430595 0.55164206 0.05762911 0.81458986 0.91329724 0.88530093
0.81443197 0.46012712 0.7511611 0.6094376 0.26485664 0.82488257 0.3150196 0.7926201
0.45443058 0.45509934 0.71208644 0.43441296 0.70653087 0.06613469 0.015452802 0.5665074
0.39324194 0.28304958 0.0519647 0.54840106 0.25551856 0.9520653 0.1145581 0.32255465
0.40455323 0.5903559 0.040970623 0.77431124 0.031635344 0.23352563 0.59931934 0.42632204
0.56097007 0.0033860803 0.14826709 0.8335193 0.694631 0.71797585 0.78077203 0.8496471
0.74625695 0.34643435 0.2512437 0.15917951 0.64784795 0.48612684 0.2597785 0.8051587
0.5203931 0.4465714 0.37141216 0.13699514 0.9129163 0.013384163 0.042457223 0.60010797
0.2750054 0.87127334 0.4827246 0.26490992 0.5003192 0.42134666 0.42101896 0.44462878
0.1708101 0.3411227 0.017875493 0.1781134 0.5366669 0.827599 0.4772014 0.89023525
0.105183005 0.67875445 0.6185899 0.29819876 0.70543754 0.18458867 0.5350491 0.6703089
0.26778722 0.14768279 0.8207227 0.0964455 0.99335116 0.31893492 0.4217698 0.23429203

bn1.bias f4 [128]
00000000: 0000 0000 0000 0000 0000 0000 0000 0000
00000010: 0000 0000 0000 0000 0000 0000 0000 0000
00000020: 0000 0000 0000 0000 0000 0000 0000 0000
00000030: 0000 0000 0000 0000 0000 0000 0000 0000
00000040: 0000 0000 0000 0000 0000 0000 0000 0000
00000050: 0000 0000 0000 0000 0000 0000 0000 0000
00000060: 0000 0000 0000 0000 0000 0000 0000 0000
00000070: 0000 0000 0000 0000 0000 0000 0000 0000
00000080: 0000 0000 0000 0000 0000 0000 0000 0000
00000090: 0000 0000 0000 0000 0000 0000 0000 0000
000000a0: 0000 0000 0000 0000 0000 0000 0000 0000
000000b0: 0000 0000 0000 0000 0000 0000 0000 0000
000000c0: 0000 0000 0000 0000 0000 0000 0000 0000
000000d0: 0000 0000 0000 0000 0000 0000 0000 0000
000000e0: 0000 0000 0000 0000 0000 0000 0000 0000
000000f0: 0000 0000 0000 0000 0000 0000 0000 0000
00000100: 0000 0000 0000 0000 0000 0000 0000 0000
00000110: 0000 0000 0000 0000 0000 0000 0000 0000
00000120: 0000 0000 0000 0000 0000 0000 0000 0000
00000130: 0000 0000 0000 0000 0000 0000 0000 0000
00000140: 0000 0000 0000 0000 0000 0000 0000 0000
00000150: 0000 0000 0000 0000 0000 0000 0000 0000
00000160: 0000 0000 0000 0000 0000 0000 0000 0000
00000170: 0000 0000 0000 0000 0000 0000 0000 0000
00000180: 0000 0000 0000 0000 0000 0000 0000 0000
00000190: 0000 0000 0000 0000 0000 0000 0000 0000
000001a0: 0000 0000 0000 0000 0000 0000 0000 0000
000001b0: 0000 0000 0000 0000 0000 0000 0000 0000
000001c0: 0000 0000 0000 0000 0000 0000 0000 0000
000001d0: 0000 0000 0000 0000 0000 0000 0000 0000
000001e0: 0000 0000 0000 0000 0000 0000 0000 0000
000001f0: 0000 0000 0000 0000 0000 0000 0000 0000
0.0 0.0 0.0 0.0 0.0 0.0 0.0 0.0
0.0 0.0 0.0 0.0 0.0 0.0 0.0 0.0
0.0 0.0 0.0 0.0 0.0 0.0 0.0 0.0
0.0 0.0 0.0 0.0 0.0 0.0 0.0 0.0
0.0 0.0 0.0 0.0 0.0 0.0 0.0 0.0
0.0 0.0 0.0 0.0 0.0 0.0 0.0 0.0
0.0 0.0 0.0 0.0 0.0 0.0 0.0 0.0
0.0 0.0 0.0 0.0 0.0 0.0 0.0 0.0
0.0 0.0 0.0 0.0 0.0 0.0 0.0 0.0
0.0 0.0 0.0 0.0 0.0 0.0 0.0 0.0
0.0 0.0 0.0 0.0 0.0 0.0 0.0 0.0
0.0 0.0 0.0 0.0 0.0 0.0 0.0 0.0
0.0 0.0 0.0 0.0 0.0 0.0 0.0 0.0
0.0 0.0 0.0 0.0 0.0 0.0 0.0 0.0
0.0 0.0 0.0 0.0 0.0 0.0 0.0 0.0
0.0 0.0 0.0 0.0 0.0 0.0 0.0 0.0

bn1.running_mean f4 [128]
00000000: 0000 0000 0000 0000 0000 0000 0000 0000
00000010: 0000 0000 0000 0000 0000 0000 0000 0000
00000020: 0000 0000 0000 0000 0000 0000 0000 0000
00000030: 0000 0000 0000 0000 0000 0000 0000 0000
00000040: 0000 0000 0000 0000 0000 0000 0000 0000
00000050: 0000 0000 0000 0000 0000 0000 0000 0000
00000060: 0000 0000 0000 0000 0000 0000 0000 0000
00000070: 0000 0000 0000 0000 0000 0000 0000 0000
00000080: 0000 0000 0000 0000 0000 0000 0000 0000
00000090: 0000 0000 0000 0000 0000 0000 0000 0000
000000a0: 0000 0000 0000 0000 0000 0000 0000 0000
000000b0: 0000 0000 0000 0000 0000 0000 0000 0000
000000c0: 0000 0000 0000 0000 0000 0000 0000 0000
000000d0: 0000 0000 0000 0000 0000 0000 0000 0000
000000e0: 0000 0000 0000 0000 0000 0000 0000 0000
000000f0: 0000 0000 0000 0000 0000 0000 0000 0000
00000100: 0000 0000 0000 0000 0000 0000 0000 0000
00000110: 0000 0000 0000 0000 0000 0000 0000 0000
00000120: 0000 0000 0000 0000 0000 0000 0000 0000
00000130: 0000 0000 0000 0000 0000 0000 0000 0000
00000140: 0000 0000 0000 0000 0000 0000 0000 0000
00000150: 0000 0000 0000 0000 0000 0000 0000 0000
00000160: 0000 0000 0000 0000 0000 0000 0000 0000
00000170: 0000 0000 0000 0000 0000 0000 0000 0000
00000180: 0000 0000 0000 0000 0000 0000 0000 0000
00000190: 0000 0000 0000 0000 0000 0000 0000 0000
000001a0: 0000 0000 0000 0000 0000 0000 0000 0000
000001b0: 0000 0000 0000 0000 0000 0000 0000 0000
000001c0: 0000 0000 0000 0000 0000 0000 0000 0000
000001d0: 0000 0000 0000 0000 0000 0000 0000 0000
000001e0: 0000 0000 0000 0000 0000 0000 0000 0000
000001f0: 0000 0000 0000 0000 0000 0000 0000 0000
0.0 0.0 0.0 0.0 0.0 0.0 0.0 0.0
0.0 0.0 0.0 0.0 0.0 0.0 0.0 0.0
0.0 0.0 0.0 0.0 0.0 0.0 0.0 0.0
0.0 0.0 0.0 0.0 0.0 0.0 0.0 0.0
0.0 0.0 0.0 0.0 0.0 0.0 0.0 0.0
0.0 0.0 0.0 0.0 0.0 0.0 0.0 0.0
0.0 0.0 0.0 0.0 0.0 0.0 0.0 0.0
0.0 0.0 0.0 0.0 0.0 0.0 0.0 0.0
0.0 0.0 0.0 0.0 0.0 0.0 0.0 0.0
0.0 0.0 0.0 0.0 0.0 0.0 0.0 0.0
0.0 0.0 0.0 0.0 0.0 0.0 0.0 0.0
0.0 0.0 0.0 0.0 0.0 0.0 0.0 0.0
0.0 0.0 0.0 0.0 0.0 0.0 0.0 0.0
0.0 0.0 0.0 0.0 0.0 0.0 0.0 0.0
0.0 0.0 0.0 0.0 0.0 0.0 0.0 0.0
0.0 0.0 0.0 0.0 0.0 0.0 0.0 0.0

bn1.running_var f4 [128]
00000000: 0000 803f 0000 803f 0000 803f 0000 803f
00000010: 0000 803f 0000 803f 0000 803f 0000 803f
00000020: 0000 803f 0000 803f 0000 803f 0000 803f
00000030: 0000 803f 0000 803f 0000 803f 0000 803f
00000040: 0000 803f 0000 803f 0000 803f 0000 803f
00000050: 0000 803f 0000 803f 0000 803f 0000 803f
00000060: 0000 803f 0000 803f 0000 803f 0000 803f
00000070: 0000 803f 0000 803f 0000 803f 0000 803f
00000080: 0000 803f 0000 803f 0000 803f 0000 803f
00000090: 0000 803f 0000 803f 0000 803f 0000 803f
000000a0: 0000 803f 0000 803f 0000 803f 0000 803f
000000b0: 0000 803f 0000 803f 0000 803f 0000 803f
000000c0: 0000 803f 0000 803f 0000 803f 0000 803f
000000d0: 0000 803f 0000 803f 0000 803f 0000 803f
000000e0: 0000 803f 0000 803f 0000 803f 0000 803f
000000f0: 0000 803f 0000 803f 0000 803f 0000 803f
00000100: 0000 803f 0000 803f 0000 803f 0000 803f
00000110: 0000 803f 0000 803f 0000 803f 0000 803f
00000120: 0000 803f 0000 803f 0000 803f 0000 803f
00000130: 0000 803f 0000 803f 0000 803f 0000 803f
00000140: 0000 803f 0000 803f 0000 803f 0000 803f
00000150: 0000 803f 0000 803f 0000 803f 0000 803f
00000160: 0000 803f 0000 803f 0000 803f 0000 803f
00000170: 0000 803f 0000 803f 0000 803f 0000 803f
00000180: 0000 803f 0000 803f 0000 803f 0000 803f
00000190: 0000 803f 0000 803f 0000 803f 0000 803f
000001a0: 0000 803f 0000 803f 0000 803f 0000 803f
000001b0: 0000 803f 0000 803f 0000 803f 0000 803f
000001c0: 0000 803f 0000 803f 0000 803f 0000 803f
000001d0: 0000 803f 0000 803f 0000 803f 0000 803f
000001e0: 0000 803f 0000 803f 0000 803f 0000 803f
000001f0: 0000 803f 0000 803f 0000 803f 0000 803f
1.0 1.0 1.0 1.0 1.0 1.0 1.0 1.0
1.0 1.0 1.0 1.0 1.0 1.0 1.0 1.0
1.0 1.0 1.0 1.0 1.0 1.0 1.0 1.0
1.0 1.0 1.0 1.0 1.0 1.0 1.0 1.0
1.0 1.0 1.0 1.0 1.0 1.0 1.0 1.0
1.0 1.0 1.0 1.0 1.0 1.0 1.0 1.0
1.0 1.0 1.0 1.0 1.0 1.0 1.0 1.0
1.0 1.0 1.0 1.0 1.0 1.0 1.0 1.0
1.0 1.0 1.0 1.0 1.0 1.0 1.0 1.0
1.0 1.0 1.0 1.0 1.0 1.0 1.0 1.0
1.0 1.0 1.0 1.0 1.0 1.0 1.0 1.0
1.0 1.0 1.0 1.0 1.0 1.0 1.0 1.0
1.0 1.0 1.0 1.0 1.0 1.0 1.0 1.0
1.0 1.0 1.0 1.0 1.0 1.0 1.0 1.0
1.0 1.0 1.0 1.0 1.0 1.0 1.0 1.0
1.0 1.0 1.0 1.0 1.0 1.0 1.0 1.0

fc2.weight f4 [64, 130]
00000000: fbf7 b5bc 129d 00bf 8c05 b7bc 2814 ee3d
00000010: 038b 153e 7edd 46be 53a6 81be 5a06 983e
00000020: 0733 e23d 48fc a8bc 403a a9bd 802a 5dbd
00000030: e0cd c9bc 1f4a 98be d44e 953c 2bff 02bd
00000040: fd73 febc 90c9 a13d 4828 003c 18d0 79be
00000050: c3cf 87bd f678 673e a071 7f3e 9388 3dbc
00000060: 6d24 dabe 3a23 e1bd 1d6b 2cbd e273 55be
00000070: bede 813d bb07 87bd 73de 8d3d fc34 41bd
00000080: fb6b b1bc 837e 2d3d 1877 963d 2471 99bd
00000090: b61c c93b 24cb b93d c719 ffbd 35f9 06be
000000a0: d0dc 33be e033 3bbe 0d93 e33d e130 47bd
000000b0: 008a a73c d209 80bc 8553 0b3e 010c 033e
000000c0: 976a 39bd 6a86 dc3c e6bf b83d ae64 973a
000000d0: 35c1 17bc 37be 7e3d a621 c9bc a3f6 463e
000000e0: a108 d93d bdec 03bd 456e dbbd 8f83 ed3d
000000f0: 67b3 e3bd 3500 04be 47f4 e83c 2408 debe
00000100: ba73 7fbb 42c0 bb3d ddcf e03c 762e 56be
00000110: 73ba 17be 004e de3d b52f 9cbd deb3 803d
00000120: ed82 363d ee55 a03d c73c 843d 4751 d3bd
00000130: bed6 c03c 8b22 8cbc b20b a0bd aca8 d8bc
00000140: d72b 3d3d 3faa 9bbd d7e6 7e3c c491 99bd
00000150: 5775 773d 850a 213e 4357 bdbd bbe3 a3bc
00000160: b177 b23d add5 da3b fd8a 90be 99fe 953d
00000170: acf3 84bd 634b 58be 3413 f03d 83b6 d2bd
00000180: 6125 a4be ac2a 3a3e bd6f a0bd d095 d63d
00000190: 8c58 60be 1a82 59be 50d2 47be 2e04 4abe
000001a0: 14f6 0ebe 14f8 7abd b17a 0d3d 964e 71bd
000001b0: d463 7c3d d621 b63c 51a0 013e 5033 3d3e
000001c0: 618c c43d 5882 45be 5f33 f5bd 4ce3 8b3d
000001d0: c43b d7bd 55f1 333c 3d5a 5b3d d40c 723d
000001e0: 7b4e 693d c6c3 903e f347 22bf d5d3 f23c
000001f0: 9c80 05bd 5b4f 0b3e 9f09 4cbf 9d6a 7f3d
00000200: 0242 b9bd 1ad5 3bbd a508 143e 1887 323d
00000210: d05f 8ebd 8056 dd3d dc00 283c 4ec1 793c
00000220: c05e 7dbd b266 a23d ad9b 61bd 5540 603e
00000230: 6c1f b9bd 0c97 57be c97a 2b3e 3f0d 83bd
00000240: 7035 ef3d 3700 be3d 60b9 58bd 1266 25be
00000250: f04c 81bb ee03 f53c ba49 69bd 7bd3 52bd
00000260: 0e3d 05be 0ec1 5ebe 6449 673d 1e78 383e
00000270: b2af 073e 637f c43d 023c 52be fec9 83bd
00000280: 1e1b 793d d0a6 4d3c db1b f2bd 7a51 00bd
00000290: 3dcf ac3b 6339 49bd 578f adbc 5d95 373d
000002a0: fd1c 493e 141d 9dbe b74c f33d 9101 9abd
000002b0: b628 9aba 538b 5dbe 14a5 a3bd ed57 28be
000002c0: 5d7a 07be ce65 1dbe 47a2 d3bc 3613 3bbd
000002d0: 2484 08be 8365 7e3c 3ccc 453d 3dad 613e
000002e0: 4cce c83d 5533 1bbd 6a3b adbd c80f 823d
000002f0: 6f24 d83d 6fe8 7abe 65de ab3c 6d49 f0bd
00000300: 5862 17bd 5ecd 55bd 6b4a 96bd 1622 0abe
00000310: 216c 3ebe d2d3 ab3d 6b85 37bc a573 09bd
00000320: ff2b 813d 5ed7 45be 9c82 96bd 54f0 3c3e
00000330: f68d 4cbe 08cd a23d 00f0 0d3e 0075 cfbc
00000340: 5185 36be 0ae8 67be d420 66bd 8485 d2bc
00000350: 4fcd 1d3d e1a0 b43d 2d4f b33d d10a 9f3d
00000360: a0ee 1f3d d205 95bd cca6 e3bc e62d 32bc
00000370: e409 273e f87c 853e a47c 643d c506 d63d
00000380: 6c8a 703d d25b 58be 722f ff3a bf00 813d
00000390: 0348 16be 9ea8 5cbc 105a 893d 942c 5dbc
000003a0: 1e0f d33c 68ef 08ba ec12 b83d 0efe 41bd
000003b0: 0998 f1bc d46e 2dbe a1af 64bd d885 573d
000003c0: 438e cabd 15d4 f3bc 0572 0f3d 089c 763d
000003d0: 65c3 11be 34c0 dcbd 83ce acbc 9a4e 25bd
000003e0: 7901 69bd 21a4 913a 4ebb 553d 539f fc3e
000003f0: c36c b6bc f551 08bd 8f83 d2bd a657 233d
-0.022212973 -0.5023967 -0.022341512 0.11624938 0.1460381 -0.1942043 -0.25322208 0.29692346
0.11044889 -0.02062811 -0.082630634 -0.05399561 -0.024634302 -0.2974405 0.018226065 -0.03198163
-0.031061167 0.07899773 0.007822104 -0.24395788 -0.06631424 0.22604737 0.24945688 -0.011568206
-0.42605916 -0.10993047 -0.04209434 -0.20844987 0.06341313 -0.06593271 0.069271944 -0.04716967
-0.021657934 0.04235698 0.07346934 -0.07492283 0.006137456 0.09071949 -0.124560885 -0.13181002
-0.17564702 -0.18281507 0.11112032 -0.0486306 0.020451546 -0.015629683 0.13606079 0.12797548
-0.045267668 0.026919562 0.09020977 0.0011550391 -0.009262373 0.06219312 -0.024552178 0.19430022
0.10597349 -0.032208193 -0.107143916 0.115973584 -0.11118203 -0.12890704 0.028436793 -0.43365586
-0.003897889 0.0916753 0.027442867 -0.20916161 -0.14817218 0.10854721 -0.07626287 0.06284307
0.044558454 0.0782889 0.06456905 -0.10318237 0.023539897 -0.017106315 -0.07814731 -0.026447617
0.046184387 -0.07600831 0.015557966 -0.07498506 0.06041464 0.15726669 -0.092451595 -0.020006051
0.087142356 0.006678304 -0.2823104 0.07323951 -0.06491789 -0.21122508 0.11722413 -0.102887176
-0.32059768 0.1818034 -0.078338124 0.10477793 -0.21908778 -0.21241036 -0.19513822 -0.19728157
-0.13961059 -0.061271742 0.034540836 -0.058912836 0.06161864 0.022232931 0.12658812 0.18476605
0.09597088 -0.19288003 -0.11972689 0.06830463 -0.10509446 0.010982831 0.053552855 0.059094265
0.05695961 0.28274363 -0.63391036 0.029642025 -0.032593355 0.1360449 -0.7970218 0.062357534
-0.09045793 -0.045857526 0.14456423 0.043585867 -0.069518685 0.10807514 0.010254111 0.015243841
-0.06185794 0.07929744 -0.055080105 0.2189954 -0.09039196 -0.21053714 0.16746058 -0.06399011
0.11680114 0.09277385 -0.052911162 -0.16152218 -0.0039459392 0.0299091 -0.056955077 -0.051471215
-0.13011572 -0.21753332 0.056466475 0.18014571 0.13250616 0.095946096 -0.20530704 -0.06435011
0.060816877 0.012551978 -0.11821719 -0.031327702 0.005273728 -0.049126994 -0.021186514 0.04482018
0.19639964 -0.30686247 0.118798666 -0.0751983 -0.00117614 -0.21635179 -0.079904705 -0.16439791
-0.13230272 -0.15370867 -0.025834216 -0.045672618 -0.13331658 0.015527132 0.048290476 0.22038741
0.09804973 -0.03789075 -0.08458598 0.06350666 0.10553824 -0.24502729 0.02098007 -0.11732755
-0.036959022 -0.052197807 -0.07338413 -0.13489565 -0.18595935 0.08390011 -0.011201243 -0.033557553
0.0630722 -0.19320437 -0.073491305 0.18451053 -0.19976029 0.07949263 0.13861084 -0.025324345
-0.17824294 -0.2264711 -0.05618365 -0.02569843 0.038525876 0.08819748 0.08755336 0.07765735
0.03904593 -0.07276501 -0.027789496 -0.010875201 0.16312367 0.26071906 0.05578293 0.1045051
0.05872576 -0.21128777 0.0019469096 0.062989704 -0.14675908 -0.013467936 0.06706631 -0.013499398
0.025764044 -0.00052236626 0.08987984 -0.047361426 -0.029491441 -0.16936809 -0.055831555 0.052617878
-0.098904155 -0.029764215 0.035020847 0.060207397 -0.14234693 -0.10778847 -0.021094566 -0.040358163
-0.05688617 0.0011111536 0.05218058 0.49340305 -0.022268659 -0.033281285 -0.10278999 0.03987851

fc2.bias f4 [64]
00000000: 5282 5c3d e6e5 483d 9766 afbc 5f35 84bd
00000010: 3148 45bd 5d03 553d 2a17 09bd cd6c 033d
00000020: fe5a 6cbc a8a6 e83c d139 89bd 1271 1c3c
00000030: 3af3 853d b827 11bd db51 883d e024 db3b
00000040: 5649 823d 3478 d43c db8e 8dbc 7a60 723d
00000050: e07d 7f3d d5dc d7bb 63bd 83bd f554 9c3d
00000060: 2fe2 63bd 755e 863c ff39 973d 37b8 b03d
00000070: c0cc 553c 16b6 793b ec31 8ebb 06a5 95bc
00000080: c3cf d5bc cd91 f1bd 10dd 5a3d 28a2 49bd
00000090: 6728 a9bc 2628 d73b 08de 513d f341 78bd
000000a0: edc8 29bd 217c b6bd 514d cbbc bd98 273a
000000b0: 1825 883c c858 923d a761 afbc dbbf 3c3d
000000c0: 2514 5d3d e518 f0bc 8bad 31bd 4ee6 b2bd
000000d0: 1efb 7e3d 062f a83c b51b 893d 5b33 0c3d
000000e0: 5654 d8bc 208e ebbc 4889 ed3d 699b aabd
000000f0: 70dd 5fbd 3d8e 1f3d 31de b83d c819 2abd
0.05383522 0.049047373 -0.021411223 -0.06455492 -0.04816455 0.05200516 -0.033469357 0.032086182
-0.014425991 0.02839978 -0.06700481 0.009548442 0.065405324 -0.03543827 0.06656238 0.0066877455
0.06361644 0.025936224 -0.017280033 0.05917404 0.062375903 -0.0065876045 -0.06432607 0.07633392
-0.055635627 0.016402462 0.07384109 0.08628886 0.0130493045 0.0038102916 -0.0043394472 -0.018267166
-0.026100045 -0.117953874 0.053433478 -0.04922691 -0.020649148 0.0065660654 0.051237136 -0.06060977
-0.041451383 -0.089103945 -0.02481714 0.0006393304 0.01661925 0.0714584 -0.021408869 0.046081405
0.05397429 -0.029308746 -0.043378394 -0.087353334 0.062251203 0.020530235 0.06694738 0.034228664
-0.026407402 -0.028754294 0.1159845 -0.083304234 -0.05465454 0.03895401 0.09026755 -0.041528493

bn2.weight f4 [64]
00000000: b8ad 9c3d 008c a33d 2d6f 1d3f 70f5 983e
00000010: ce48 f03e 308d 353e 9a64 233f f388 6c3f
00000020: 4829 703e 6fbb 0a3f c0af e73e 1627 e23e
00000030: 20c6 9a3c 282d d83d 8ef2 b93e 16f0 3e3f
00000040: 6efa 053f b07a 473d a2c8 763f a876 963e
00000050: 7872 aa3d 52b5 073f a402 653e 83ba 713f
00000060: 2a71 9c3e f3b8 0e3f 183b fd3d a05c c23c
00000070: 3284 d33e a0b6 723f 1be1 5d3f daa6 0d3f
00000080: 7c54 203f a9e6 213f 4e2f 043f 18c4 ba3e
00000090: 40ee 993e 8839 0a3e a459 223e 094e 1d3f
000000a0: 10c4 6d3e 6d9e 003f 2d06 0a3f 7897 1d3f
000000b0: a068 2f3e 7afe 683f ef72 5d3f 73e6 7a3f
000000c0: e05e 4e3e 48d4 793e d57e 643f 3508 1c3f
000000d0: 4065 0f3c 7d53 0c3f b6ef 193f 1410 e73e
000000e0: 2c0f b63e a043 153d 009a 863a 0110 4a3f
000000f0: 0252 8c3e b8f5 5a3f 50ce 593f 8cb5 733e
0.07650322 0.07985687 0.61497766 0.29874754 0.46930546 0.1772964 0.6382538 0.9239647
0.23453248 0.5419225 0.45251274 0.44170445 0.018893301 0.10555488 0.36317867 0.7458509
0.5233525 0.04870099 0.9639989 0.29387403 0.083226144 0.5301105 0.22364289 0.9442522
0.30555087 0.5575096 0.12364787 0.023725808 0.41311795 0.94809914 0.8667161 0.5533272
0.6262891 0.63242584 0.5163468 0.36477733 0.30064583 0.13498509 0.15854508 0.614472
0.23219323 0.5024174 0.53915673 0.6155925 0.17129755 0.910133 0.865035 0.9800789
0.2015338 0.24397385 0.8925603 0.6095002 0.008752167 0.54814893 0.60131395 0.45129454
0.3555845 0.036441445 0.0010269284 0.7893067 0.27406317 0.8553119 0.8508043 0.23799723

bn2.bias f4 [64]
00000000: 0000 0000 0000 0000 0000 0000 0000 0000
00000010: 0000 0000 0000 0000 0000 0000 0000 0000
00000020: 0000 0000 0000 0000 0000 0000 0000 0000
00000030: 0000 0000 0000 0000 0000 0000 0000 0000
00000040: 0000 0000 0000 0000 0000 0000 0000 0000
00000050: 0000 0000 0000 0000 0000 0000 0000 0000
00000060: 0000 0000 0000 0000 0000 0000 0000 0000
00000070: 0000 0000 0000 0000 0000 0000 0000 0000
00000080: 0000 0000 0000 0000 0000 0000 0000 0000
00000090: 0000 0000 0000 0000 0000 0000 0000 0000
000000a0: 0000 0000 0000 0000 0000 0000 0000 0000
000000b0: 0000 0000 0000 0000 0000 0000 0000 0000
000000c0: 0000 0000 0000 0000 0000 0000 0000 0000
000000d0: 0000 0000 0000 0000 0000 0000 0000 0000
000000e0: 0000 0000 0000 0000 0000 0000 0000 0000
000000f0: 0000 0000 0000 0000 0000 0000 0000 0000
0.0 0.0 0.0 0.0 0.0 0.0 0.0 0.0
0.0 0.0 0.0 0.0 0.0 0.0 0.0 0.0
0.0 0.0 0.0 0.0 0.0 0.0 0.0 0.0
0.0 0.0 0.0 0.0 0.0 0.0 0.0 0.0
0.0 0.0 0.0 0.0 0.0 0.0 0.0 0.0
0.0 0.0 0.0 0.0 0.0 0.0 0.0 0.0
0.0 0.0 0.0 0.0 0.0 0.0 0.0 0.0
0.0 0.0 0.0 0.0 0.0 0.0 0.0 0.0

bn2.running_mean f4 [64]
00000000: 0000 0000 0000 0000 0000 0000 0000 0000
00000010: 0000 0000 0000 0000 0000 0000 0000 0000
00000020: 0000 0000 0000 0000 0000 0000 0000 0000
00000030: 0000 0000 0000 0000 0000 0000 0000 0000
00000040: 0000 0000 0000 0000 0000 0000 0000 0000
00000050: 0000 0000 0000 0000 0000 0000 0000 0000
00000060: 0000 0000 0000 0000 0000 0000 0000 0000
00000070: 0000 0000 0000 0000 0000 0000 0000 0000
00000080: 0000 0000 0000 0000 0000 0000 0000 0000
00000090: 0000 0000 0000 0000 0000 0000 0000 0000
000000a0: 0000 0000 0000 0000 0000 0000 0000 0000
000000b0: 0000 0000 0000 0000 0000 0000 0000 0000
000000c0: 0000 0000 0000 0000 0000 0000 0000 0000
000000d0: 0000 0000 0000 0000 0000 0000 0000 0000
000000e0: 0000 0000 0000 0000 0000 0000 0000 0000
000000f0: 0000 0000 0000 0000 0000 0000 0000 0000
0.0 0.0 0.0 0.0 0.0 0.0 0.0 0.0
0.0 0.0 0.0 0.0 0.0 0.0 0.0 0.0
0.0 0.0 0.0 0.0 0.0 0.0 0.0 0.0
0.0 0.0 0.0 0.0 0.0 0.0 0.0 0.0
0.0 0.0 0.0 0.0 0.0 0.0 0.0 0.0
0.0 0.0 0.0 0.0 0.0 0.0 0.0 0.0
0.0 0.0 0.0 0.0 0.0 0.0 0.0 0.0
0.0 0.0 0.0 0.0 0.0 0.0 0.0 0.0

bn2.running_var f4 [64]
00000000: 0000 803f 0000 803f 0000 803f 0000 803f
00000010: 0000 803f 0000 803f 0000 803f 0000 803f
00000020: 0000 803f 0000 803f 0000 803f 0000 803f
00000030: 0000 803f 0000 803f 0000 803f 0000 803f
00000040: 0000 803f 0000 803f 0000 803f 0000 803f
00000050: 0000 803f 0000 803f 0000 803f 0000 803f
00000060: 0000 803f 0000 803f 0000 803f 0000 803f
00000070: 0000 803f 0000 803f 0000 803f 0000 803f
00000080: 0000 803f 0000 803f 0000 803f 0000 803f
00000090: 0000 803f 0000 803f 0000 803f 0000 803f
000000a0: 0000 803f 0000 803f 0000 803f 0000 803f
000000b0: 0000 803f 0000 803f 0000 803f 0000 803f
000000c0: 0000 803f 0000 803f 0000 803f 0000 803f
000000d0: 0000 803f 0000 803f 0000 803f 0000 803f
000000e0: 0000 803f 0000 803f 0000 803f 0000 803f
000000f0: 0000 803f 0000 803f 0000 803f 0000 803f
1.0 1.0 1.0 1.0 1.0 1.0 1.0 1.0
1.0 1.0 1.0 1.0 1.0 1.0 1.0 1.0
1.0 1.0 1.0 1.0 1.0 1.0 1.0 1.0
1.0 1.0 1.0 1.0 1.0 1.0 1.0 1.0
1.0 1.0 1.0 1.0 1.0 1.0 1.0 1.0
1.0 1.0 1.0 1.0 1.0 1.0 1.0 1.0
1.0 1.0 1.0 1.0 1.0 1.0 1.0 1.0
1.0 1.0 1.0 1.0 1.0 1.0 1.0 1.0

fc3.weight f4 [1, 64]
00000000: ae43 953d cc24 85bd ead2 2b3e cdc1 863e
00000010: 2e35 473e 5107 c9bd 6618 b6bc f066 0ebe
00000020: c040 17bd 75c9 0cbd 32e5 02bd 2c3d 5f3e
00000030: 8b83 efbc e0dd 35bd defc 4f3d 041d 9f3e
00000040: 5dad bdbc e85f a63e 13eb 3d3e eea9 c6bc
00000050: f258 0d3e de05 84bd ae00 56bd 382c 0dbd
00000060: 2ee7 bebc 9d47 debc 3ed4 d43d 648c a83d
00000070: 7407 4b3e db07 b73d d78c 093e 54d3 4e3d
00000080: 5b6d 1dbd b16c 12bd 3571 b6bc a0d5 09be
00000090: 6620 a9bc edce 9dbc 1c25 31bd 7e42 e13d
000000a0: 935c 86bd 08e7 07be bb60 2a3e cdcf 323e
000000b0: 55fc 333e 046b 1a3e e680 7cbd 1552 3f3d
000000c0: 3d71 2b3e 498a cabc bb06 5cbd d4d5 593e
000000d0: ecf7 1fbd 7b70 413e ce58 20bd a77c c1bc
000000e0: 4086 8e3d be6d c23d 2628 6ebd 863a df3d
000000f0: 7401 14bd bed2 1c3e e64e 75bd bac5 893e
0.072882995 -0.06501159 0.16779676 0.26319733 0.1945388 -0.098158486 -0.022228431 -0.13906455
-0.036926985 -0.034371812 -0.03195686 0.21800679 -0.02923753 -0.04440105 0.050778262 0.31076825
-0.023153955 0.32495046 0.18546705 -0.02425095 0.13803461 -0.064464316 -0.052246742 -0.034466
-0.023303594 -0.027133757 0.103920445 0.082299024 0.19827062 0.08937045 0.13432632 0.050494507
-0.038434368 -0.035748187 -0.022270778 -0.13460398 -0.020645332 -0.019263709 -0.04324828 0.109990105
-0.06560626 -0.13271725 0.16638462 0.17462082 0.17576726 0.15079886 -0.061646365 0.04670914
0.16742416 -0.024724143 -0.053717356 0.21272975 -0.039054796 0.18890564 -0.03914719 -0.02361901
0.069592 0.09493588 -0.058143757 0.10899834 -0.0361342 0.15314767 -0.059889697 0.26908666
