projects/p3_collab-compet/critic_0.pth (torch_old, 52813 bytes, 17 tensors)

bn0.weight f4 [24]
00000000: a85c 1d3f 1e14 c33e ed19 233f 90ec f23e
00000010: 16ae 363f 2b79 1e3f a493 e23e 5822 c43d
00000020: 6839 1d3f 70d0 6a3d a2d2 103f b181 083f
00000030: beb4 c73e 4baa 683f d58a 083f 2f14 353f
00000040: 3f2b 363f 7cf4 513e b495 9d3e 9419 7b3f
00000050: 001f 283c e89c ee3e 4ab6 eb3e a7ca 5a3f
0.6146951 0.38101286 0.63711435 0.47446108 0.71359384 0.6190364 0.44253266 0.09576863
0.6141572 0.057327688 0.565714 0.53322893 0.39005083 0.90884846 0.5333684 0.7073392
0.7115974 0.2050342 0.30778277 0.98085904 0.010261297 0.46604085 0.46037513 0.8546547

bn0.bias f4 [24]
00000000: 0000 0000 0000 0000 0000 0000 0000 0000
00000010: 0000 0000 0000 0000 0000 0000 0000 0000
00000020: 0000 0000 0000 0000 0000 0000 0000 0000
00000030: 0000 0000 0000 0000 0000 0000 0000 0000
00000040: 0000 0000 0000 0000 0000 0000 0000 0000
00000050: 0000 0000 0000 0000 0000 0000 0000 0000
0.0 0.0 0.0 0.0 0.0 0.0 0.0 0.0
0.0 0.0 0.0 0.0 0.0 0.0 0.0 0.0
0.0 0.0 0.0 0.0 0.0 0.0 0.0 0.0

bn0.running_mean f4 [24]
00000000: 0000 0000 0000 0000 0000 0000 0000 0000
00000010: 0000 0000 0000 0000 0000 0000 0000 0000
00000020: 0000 0000 0000 0000 0000 0000 0000 0000
00000030: 0000 0000 0000 0000 0000 0000 0000 0000
00000040: 0000 0000 0000 0000 0000 0000 0000 0000
00000050: 0000 0000 0000 0000 0000 0000 0000 0000
0.0 0.0 0.0 0.0 0.0 0.0 0.0 0.0
0.0 0.0 0.0 0.0 0.0 0.0 0.0 0.0
0.0 0.0 0.0 0.0 0.0 0.0 0.0 0.0

bn0.running_var f4 [24]
00000000: 0000 803f 0000 803f 0000 803f 0000 803f
00000010: 0000 803f 0000 803f 0000 803f 0000 803f
00000020: 0000 803f 0000 803f 0000 803f 0000 803f
00000030: 0000 803f 0000 803f 0000 803f 0000 803f
00000040: 0000 803f 0000 803f 0000 803f 0000 803f
00000050: 0000 803f 0000 803f 0000 803f 0000 803f
1.0 1.0 1.0 1.0 1.0 1.0 1.0 1.0
1.0 1.0 1.0 1.0 1.0 1.0 1.0 1.0
1.0 1.0 1.0 1.0 1.0 1.0 1.0 1.0

fcs1.weight f4 [128, 24]
00000000: eef6 303d 37c0 3fbd 4e53 7dbd 7f03 87bd
00000010: 7fdc 9b3d aef5 5b3d f67e 623d 9cc9 c33c
00000020: c09e 29bb d135 b2bd 7b77 9abd 8fdf ac3d
00000030: 3a1e 3f3d a16c a03d e21f 25bd c9ae 29bd
00000040: 80fb 3bba 2d64 963d 98b1 90bc d13f 4abd
00000050: c802 2dbc 7b03 b43d bc9f a5bd 6968 9c3d
00000060: 749c c03c a447 f93c 5433 a43c 82bd 573d
00000070: f6bd adbd 2bcc 843d 0029 64bb 909f dbbb
00000080: 40c3 03bc b834 d43c c8a1 91bd 1efd 503d
00000090: 0324 06bd 32db 2b3d 0c05 bc3c 76ba 463d
000000a0: 9901 4fbd 0d4f 9a3d dc8c b2bc d0b8 8f3c
000000b0: a412 7ebd 14d4 37bd 8017 62ba ff26 9d3d
000000c0: 7aa0 573d 4f42 a63d 404a 7e3b 1deb aa3d
000000d0: da03 233d 5140 65bd f0f9 53bc 3a8e 2c3d
000000e0: aebb 7e3d 5ade 173d c133 a53d 7ec6 3abd
000000f0: bff9 8a3d 58f8 34bc 9e6a 233d e88d 153d
00000100: e6a7 2f3d 3c96 8ebd 9276 673d 1c3b dbbc
00000110: 5773 30bd c49a b1bd e05d dd3c 00ea e739
00000120: 8eeb 89bd e4d7 78bd 2259 363d 5c16 b93c
00000130: 40c4 cdbc 6233 373d 18e2 12bd de41 743d
00000140: f312 94bd 364c a2bd a873 9c3c b074 75bc
00000150: 4219 1b3d e6a1 abbd f144 a3bd ee61 093d
00000160: e818 373c 68dc 8abd 40f4 15bc f49a f3bc
00000170: 10c0 87bd 6209 3a3d f380 a8bd 932b 6cbd
00000180: bf7a aa3d 1e53 413d de8d 593d d773 813d
00000190: b0e6 083d 6d5e 803d 2c03 cfbc f0f8 91bc
000001a0: 600f e8bc 5fdf a73d 20e1 b13c 80f6 17bb
000001b0: 8b8d 973d 50a5 1f3c 4eea 4d3d 853d 67bd
000001c0: 81b0 933d 0ea2 553d 3398 a5bd a5b8 8d3d
000001d0: e636 8bbd 2b9f 9c3d 0132 96bd c692 e7bc
000001e0: 4ee9 783d 7283 52bd 6dc7 9ebd b097 a4bd
000001f0: 0cfc fa3c 295f a4bd 0440 c23c e830 86bd
00000200: 763b 1f3d 35dd 43bd 489e 61bd 82d5 683d
00000210: c06e 543c 301b f03b 100d cfbc 5f88 5fbd
00000220: 8e32 64bd acc3 8fbc 1443 d33c 939d 923d
00000230: ef3c 0bbd 3828 7ebd c6ef 563d 1149 923d
00000240: ae5c 273d ead4 4a3d 0e45 193d e6ee 87bd
00000250: 0045 01bc c0a4 ee3c a05e ca3c ef4b 8c3d
00000260: 2006 8d3c d1f0 acbd 0ad6 713d d746 7bbd
00000270: 4f01 813d 5297 dfbc 7c01 afbc 30ac d83c
00000280: 8aa8 6dbd ace3 953c 7c90 e03c 3468 a4bd
00000290: 5e33 9bbd 97e9 39bd 7034 78bc dddf 42bd
000002a0: 8349 a73d bea7 04bd 5882 fa3c c2ae 9abd
000002b0: 584a 93bd cc76 58bd 7268 423d 2020 02bb
000002c0: 6ab0 2a3d edcb 82bd cf19 a43d 6c05 c7bc
000002d0: a526 2dbd 00b6 c73c 4042 23bb 007b 683c
000002e0: e952 91bd 2605 9abd 29d6 8cbd 967a 7ebd
000002f0: b8a8 03bc 6573 a93d 9231 103d 6cbf f23c
00000300: 91d2 6fbd 8d8c ae3d 9047 89bc ca71 b0bd
00000310: 6bd4 9b3d 623c 6b3d a0cd a8bd 70f8 a2bd
00000320: cf5a b23d d849 21bd 485d 15bc 1588 ad3d
00000330: aac7 7c3d 875a 93bd eabf 293d b036 1abd
00000340: 2113 b2bd 2878 74bc c85c 3e3c 7234 1b3d
00000350: 2b5a ad3d ba29 6a3d c9d0 28bd b0f6 033c
00000360: 2e12 b0bd 8cea d93c f647 04bd d034 c93c
00000370: 2fe5 a63d 21c5 95bd cc16 c7bc c2ec 2bbd
00000380: bb5e b13d 5bc1 b2bd 9ea7 9cbd afd8 8e3d
00000390: 5afa 1e3d 6804 223c 70d6 acbd 8075 7dbb
000003a0: e23b 4c3d bcf3 ab3c fbdd a43d 2277 473d
000003b0: 507c 523c 7a71 81bd e009 16bd 4529 a53d
000003c0: 281c 37bc b8a8 44bd 2f22 a93d 7c15 86bc
000003d0: dba2 3bbd 2047 f5bc b096 2e3c e649 2c3d
000003e0: 3dcf a6bd 775f 9d3d 88a4 c23c 4ca6 ccbc
000003f0: 1885 12bc 00f6 6939 f535 823d 003f 0f3d
0.04320424 -0.04681417 -0.061847024 -0.06592464 0.07610416 0.053701095 0.05529686 0.023899846
-0.0025881976 -0.08701671 -0.0754232 0.08441078 0.046659686 0.07833219 -0.04031361 -0.041426454
-0.00071709603 0.07343326 -0.017662808 -0.049377266 -0.010559745 0.08789726 -0.080871075 0.07637102
0.023512103 0.030429669 0.020044006 0.052670963 -0.08483498 0.064842544 -0.0034814477 -0.006702371
-0.008042157 0.025904045 -0.071109354 0.05102264 -0.032749187 0.041957088 0.022951625 0.048517667
-0.050538633 0.07534609 -0.021795683 0.01754418 -0.062029496 -0.044879988 -0.00086247176 0.076734535
0.052643277 0.08118116 0.003880158 0.083456255 0.039798595 -0.05596954 -0.012938008 0.042127825
0.062190704 0.037077285 0.08066512 -0.045599453 0.067859165 -0.011045538 0.0398966 0.036512285
0.04288473 -0.06962249 0.05650956 -0.026761584 -0.043078747 -0.08672097 0.027022302 0.00044234097
-0.067343816 -0.060752764 0.044518597 0.02259367 -0.025117993 0.044726737 -0.03586015 0.05963313
-0.07230177 -0.07924692 0.019098118 -0.014981434 0.037865885 -0.08380489 -0.07972134 0.03354066
0.011175372 -0.067803204 -0.009152472 -0.029736973 -0.0662843 0.045419104 -0.0822772 -0.057658743
0.08324193 0.047198407 0.05311381 0.06320923 0.033423126 0.0626801 -0.025270067 -0.017818898
-0.028327644 0.081969015 0.021713793 -0.0023187697 0.07400044 0.009744003 0.05027228 -0.056455154
0.072114 0.0521565 -0.0808567 0.06919984 -0.067975804 0.076475464 -0.07333756 -0.02826823
0.06076937 -0.051394887 -0.07752881 -0.080367446 0.030637763 -0.08025963 0.023712166 -0.06552297
0.038875066 -0.04781838 -0.05508259 0.056844242 0.012965858 0.0073274598 -0.025274783 -0.054573413
-0.055712275 -0.017549358 0.025788821 0.07158961 -0.033993658 -0.062050074 0.05247476 0.071428426
0.04085987 0.049519457 0.03741937 -0.06637363 -0.007889986 0.029131293 0.024703324 0.06850421
0.017214835 -0.084443696 0.059042014 -0.061346855 0.06299078 -0.027293835 -0.021363012 0.026449293
-0.05802206 0.018297039 0.027412646 -0.08027688 -0.07578157 -0.045388784 -0.015149221 -0.047576774
0.08168318 -0.032386534 0.03057973 -0.07552864 -0.07191914 -0.05284767 0.047462888 -0.0019855574
0.041672148 -0.06386552 0.08012735 -0.024294578 -0.042273182 0.024378777 -0.0024911314 0.014189482
-0.07095892 -0.07520513 -0.06876785 -0.062128626 -0.008035831 0.08273963 0.035203524 0.029632293
-0.05855042 0.08522902 -0.016757756 -0.086154535 0.07608875 0.057430632 -0.08242345 -0.07957542
0.087087266 -0.039377064 -0.009116478 0.08473221 0.061713852 -0.07195001 0.04144279 -0.03764981
-0.08695055 -0.014921226 0.0116188 0.037891813 0.08464464 0.0571687 -0.041214738 0.00805442
-0.085972175 0.026601098 -0.03229519 0.024561316 0.08149182 -0.0731299 -0.024302863 -0.041973837
0.086606465 -0.08728286 -0.07649158 0.06974923 0.038812973 0.009888746 -0.08439338 -0.0038674772
0.049861796 0.020990245 0.08050152 0.0486976 0.012847021 -0.06320472 -0.03663051 0.08064512
-0.011176147 -0.048012465 0.08258473 -0.016367666 -0.045809608 -0.029941142 0.010656044 0.042062663
-0.08144996 0.07684224 0.023760095 -0.02498164 -0.008942865 0.00022312254 0.06357948 0.03497219

fcs1.bias f4 [128]
00000000: 4e58 1cbe 956f 11be bc46 293e f83d 0d3e
00000010: 00a0 25be 6393 1fbe 601b 94bd 7ca6 15be
00000020: 7023 f33c 0498 78bd d055 643d c004 1c3c
00000030: 74b3 d33d 3817 51bd 2cd5 0a3d a495 0bbd
00000040: a8ed 433d 006e 25bb de50 093e f45b d3bd
00000050: b4ef 9a3d b8bc 2bbd 441c e03d d241 1dbe
00000060: b03d 15be 4c22 37bd f04d c63d 2826 ac3d
00000070: 58cb 513d 3c4d b7bd 2079 0f3e 6fbc ffbd
00000080: 0838 453d c016 e73d 74d3 453e f843 923c
00000090: b516 aabd a083 b03d e07a 393e 3a4e 31be
000000a0: 09b7 4dbe d82e c8bc 291c d1bd e5d0 c0bd
000000b0: 278c 0fbe 48d7 173d 8086 c2bd a8fa e23d
000000c0: 0844 3d3e aadb 38be a058 583c 128f 413e
000000d0: be6e 4d3e ece8 4abd 2ca2 fa3d 909a cb3d
000000e0: 2ec8 0f3e 7885 95bc 0ce7 2bbd a36d bcbd
000000f0: 8875 f33c f83a 5a3d 289b a0bd 6726 1fbe
00000100: 0a92 443e 04db fabd 0880 8dbc 61fe bfbd
00000110: 0058 37bd 713b 4ebe e07f bebd 6ca6 863d
00000120: 8ecd 0f3e 7e83 463e ba52 98bd b6a2 fcbd
00000130: fe84 37be de1f 8fbd 8469 31be 33ae f9bd
00000140: 340a 8abd e042 4f3e 78b4 08be cec1 18be
00000150: 5471 33bd 88ef f73d b0a5 f2bc 8051 03bb
00000160: 9ecd 133e 587a f03d 1874 293e 9b5b f5bd
00000170: 647e 203e 5aee 47be c42b 07be 009d eebb
00000180: b85c 903d 0017 9dbc e071 443e 08fc a1bc
00000190: 69a9 b7bd 7027 0ebd 206b ddbc e08a cd3c
000001a0: 14bc dc3d aa9f 31be 6049 d53c e27f 2f3e
000001b0: 6c69 17bd d868 c63d b00e f2bc 9eec 4e3e
000001c0: a0ac 8dbb 62f7 063e ecbb 85bd 76b4 3fbe
000001d0: fb3f adbd c623 113e 00c9 083b 10ec 04bd
000001e0: 76f3 273e 801d 07be 1b1d 10be 886e 9a3d
000001f0: 8215 4d3e 5898 813d b686 8dbd 08f2 ae3d
-0.1526806 -0.14202721 0.1653089 0.1379317 -0.16174316 -0.15583567 -0.07231784 -0.1461429
0.029679984 -0.06069185 0.0557459 0.009522617 0.10336962 -0.051047534 0.033894703 -0.034078255
0.04783407 -0.0025242567 0.13409755 -0.10320273 0.07565251 -0.041928023 0.10942891 -0.1535714
-0.14574313 -0.044710442 0.09682834 0.08405715 0.051219314 -0.08950278 0.1401105 -0.12487113
0.04814914 0.11283636 0.19318944 0.017854676 -0.08305112 0.086188555 0.1811328 -0.17314997
-0.20089354 -0.0244364 -0.10210449 -0.094148435 -0.14018308 0.037070543 -0.0949831 0.11082965
0.18482983 -0.18052545 0.013204724 0.18902233 0.20061776 -0.049538538 0.12237963 0.0994159
0.14041206 -0.01825212 -0.04196839 -0.09200599 0.02971913 0.053278893 -0.07842094 -0.15541993
0.19196334 -0.12248805 -0.017272964 -0.09374691 -0.044761658 -0.20139863 -0.09301734 0.06574711
0.14043257 0.19386098 -0.07437654 -0.12335722 -0.17921826 -0.069885 -0.17325407 -0.12191429
-0.06740227 0.20240355 -0.13350093 -0.1491768 -0.04380925 0.12106234 -0.029620022 -0.0020037591
0.14433905 0.11742085 0.16548193 -0.11980363 0.15673214 -0.19524518 -0.13200289 -0.0072818995
0.07048935 -0.019176006 0.19184065 -0.019773498 -0.08967859 -0.03470558 -0.02702862 0.025090635
0.107780606 -0.17346063 0.026035964 0.17138627 -0.036965773 0.09687966 -0.02954802 0.2020745
-0.004323557 0.13180307 -0.06529984 -0.18721184 -0.08459469 0.14173803 0.0020871758 -0.03245169
0.16401467 -0.13194847 -0.14073603 0.075406134 0.20027736 0.063278854 -0.0691046 0.085422575

bn1.weight f4 [128]
00000000: ac7b 3c3f 6812 a03d 2035 703f 2683 0a3f
00000010: bcf7 953e 005d 403c c649 1e3f 60e9 bd3e
00000020: 58ea 1a3f e8d3 dd3d 4ba6 313f 70cd f13d
00000030: cb88 653f daea 073f 955c 3e3f 03ff 4b3f
00000040: 586d 733f 0fb1 133f 49c7 663f e8cc ac3d
00000050: 9ae8 5b3f 97e5 5d3f 9c62 783e b894 763e
00000060: b89d 693f aedd 663f 48b6 ab3d 5c5f 013f
00000070: 10e1 fd3d e511 453f e84a a53d 9c8b 833e
00000080: b444 613f fbf2 6b3f 596c 713f 6a38 0d3f
00000090: 800c 6c3d f688 503f d9cd 693f 15a3 623f
000000a0: 9d7e 503f c895 eb3e 184c 403f 1a04 1c3f
000000b0: 4a9b 873e 812b 533f 404a a13e 27e9 4a3f
000000c0: 20ab e83e c802 e93e 4c4b 363f 606b de3e
000000d0: 35df 343f a071 873d c02d 7d3c a106 113f
000000e0: 0257 c93e e0eb 903e f0d8 543d 0364 0c3f
000000f0: 54d3 823e 8dba 733f 709d ea3d e225 a53e
00000100: 9a21 cf3e 9021 173f d0d0 273d 4339 463f
00000110: 1094 013d 5821 6f3e fe6c 193f e246 da3e
00000120: bc9b 0f3f 00e9 5d3b 54d3 173e 8561 553f
00000130: 56d3 313f 44cd 373f ade0 473f 7982 593f
00000140: b20a 3f3f d85f b13e 04a3 803e f4ff 223e
00000150: 5dd9 253f 9ee5 f83e b001 853e e11e 4e3f
00000160: 7b38 053f 02a5 e43e bc29 be3e 7448 0c3e
00000170: e2b4 693f 4049 5b3c a0e7 2d3d ada0 193f
00000180: 82cd 8c3e c50b 5f3f ae27 f73e 46a2 873e
00000190: eb14 003f c0ba d73e cc8f d73e 62a6 e33e
000001a0: d8e8 2e3e a2a7 ae3e a06f 923c 5c63 363e
000001b0: 0163 093f 87dd 533f be53 f43e 75e6 633f
000001c0: 306a d73d dac2 2d3f e85b 1e3f 82ad 983e
000001d0: 8e97 343f d004 3d3e faf8 083f 5d99 2b3f
000001e0: 681b 893e 283a 173e e21a 523f 3885 c53d
000001f0: 434c 7e3f 704b a33e 36f2 d73e 40ea 6f3e
0.7362621 0.07816011 0.9383106 0.54106367 0.2929057 0.011740923 0.6183132 0.37092113
0.6051383 0.108314335 0.6939437 0.11806762 0.89661855 0.5309273 0.7436002 0.7968599
0.9508872 0.57692045 0.90147835 0.0843752 0.85901797 0.8667845 0.24256366 0.24080169
0.91256285 0.90182006 0.08384377 0.5053613 0.12396443 0.7698043 0.08070928 0.2569245
0.8799546 0.92167634 0.9430595 0.55164206 0.05762911 0.81458986 0.91329724 0.88530093
0.81443197 0.46012712 0.7511611 0.6094376 0.26485664 0.82488257 0.3150196 0.7926201
0.45443058 0.45509934 0.71208644 0.43441296 0.70653087 0.06613469 0.015452802 0.5665074
0.39324194 0.28304958 0.0519647 0.54840106 0.25551856 0.9520653 0.1145581 0.32255465
0.40455323 0.5903559 0.040970623 0.77431124 0.031635344 0.23352563 0.59931934 0.42632204
0.56097007 0.0033860803 0.14826709 0.8335193 0.694631 0.71797585 0.78077203 0.8496471
0.74625695 0.34643435 0.2512437 0.15917951 0.64784795 0.48612684 0.2597785 0.8051587
0.5203931 0.4465714 0.37141216 0.13699514 0.9129163 0.013384163 0.042457223 0.60010797
0.2750054 0.87127334 0.4827246 0.26490992 0.5003192 0.42134666 0.42101896 0.44462878
0.1708101 0.3411227 0.017875493 0.1781134 0.5366669 0.827599 0.4772014 0.89023525
0.105183005 0.67875445 0.6185899 0.29819876 0.70543754 0.18458867 0.5350491 0.6703089
0.26778722 0.14768279 0.8207227 0.0964455 0.99335116 0.31893492 0.4217698 0.23429203

bn1.bias f4 [128]
00000000: 0000 0000 0000 0000 0000 0000 0000 0000
00000010: 0000 0000 0000 0000 0000 0000 0000 0000
00000020: 0000 0000 0000 0000 0000 0000 0000 0000
00000030: 0000 0000 0000 0000 0000 0000 0000 0000
00000040: 0000 0000 0000 0000 0000 0000 0000 0000
00000050: 0000 0000 0000 0000 0000 0000 0000 0000
00000060: 0000 0000 0000 0000 0000 0000 0000 0000
00000070: 0000 0000 0000 0000 0000 0000 0000 0000
00000080: 0000 0000 0000 0000 0000 0000 0000 0000
00000090: 0000 0000 0000 0000 0000 0000 0000 0000
000000a0: 0000 0000 0000 0000 0000 0000 0000 0000
000000b0: 0000 0000 0000 0000 0000 0000 0000 0000
000000c0: 0000 0000 0000 0000 0000 0000 0000 0000
000000d0: 0000 0000 0000 0000 0000 0000 0000 0000
000000e0: 0000 0000 0000 0000 0000 0000 0000 0000
000000f0: 0000 0000 0000 0000 0000 0000 0000 0000
00000100: 0000 0000 0000 0000 0000 0000 0000 0000
00000110: 0000 0000 0000 0000 0000 0000 0000 0000
00000120: 0000 0000 0000 0000 0000 0000 0000 0000
00000130: 0000 0000 0000 0000 0000 0000 0000 0000
00000140: 0000 0000 0000 0000 0000 0000 0000 0000
00000150: 0000 0000 0000 0000 0000 0000 0000 0000
00000160: 0000 0000 0000 0000 0000 0000 0000 0000
00000170: 0000 0000 0000 0000 0000 0000 0000 0000
00000180: 0000 0000 0000 0000 0000 0000 0000 0000
00000190: 0000 0000 0000 0000 0000 0000 0000 0000
000001a0: 0000 0000 0000 0000 0000 0000 0000 0000
000001b0: 0000 0000 0000 0000 0000 0000 0000 0000
000001c0: 0000 0000 0000 0000 0000 0000 0000 0000
000001d0: 0000 0000 0000 0000 0000 0000 0000 0000
000001e0: 0000 0000 0000 0000 0000 0000 0000 0000
000001f0: 0000 0000 0000 0000 0000 0000 0000 0000
0.0 0.0 0.0 0.0 0.0 0.0 0.0 0.0
0.0 0.0 0.0 0.0 0.0 0.0 0.0 0.0
0.0 0.0 0.0 0.0 0.0 0.0 0.0 0.0
0.0 0.0 0.0 0.0 0.0 0.0 0.0 0.0
0.0 0.0 0.0 0.0 0.0 0.0 0.0 0.0
0.0 0.0 0.0 0.0 0.0 0.0 0.0 0.0
0.0 0.0 0.0 0.0 0.0 0.0 0.0 0.0
0.0 0.0 0.0 0.0 0.0 0.0 0.0 0.0
0.0 0.0 0.0 0.0 0.0 0.0 0.0 0.0
0.0 0.0 0.0 0.0 0.0 0.0 0.0 0.0
0.0 0.0 0.0 0.0 0.0 0.0 0.0 0.0
0.0 0.0 0.0 0.0 0.0 0.0 0.0 0.0
0.0 0.0 0.0 0.0 0.0 0.0 0.0 0.0
0.0 0.0 0.0 0.0 0.0 0.0 0.0 0.0
0.0 0.0 0.0 0.0 0.0 0.0 0.0 0.0
0.0 0.0 0.0 0.0 0.0 0.0 0.0 0.0

bn1.running_mean f4 [128]
00000000: 0000 0000 0000 0000 0000 0000 0000 0000
00000010: 0000 0000 0000 0000 0000 0000 0000 0000
00000020: 0000 0000 0000 0000 0000 0000 0000 0000
00000030: 0000 0000 0000 0000 0000 0000 0000 0000
00000040: 0000 0000 0000 0000 0000 0000 0000 0000
00000050: 0000 0000 0000 0000 0000 0000 0000 0000
00000060: 0000 0000 0000 0000 0000 0000 0000 0000
00000070: 0000 0000 0000 0000 0000 0000 0000 0000
00000080: 0000 0000 0000 0000 0000 0000 0000 0000
00000090: 0000 0000 0000 0000 0000 0000 0000 0000
000000a0: 0000 0000 0000 0000 0000 0000 0000 0000
000000b0: 0000 0000 0000 0000 0000 0000 0000 0000
000000c0: 0000 0000 0000 0000 0000 0000 0000 0000
000000d0: 0000 0000 0000 0000 0000 0000 0000 0000
000000e0: 0000 0000 0000 0000 0000 0000 0000 0000
000000f0: 0000 0000 0000 0000 0000 0000 0000 0000
00000100: 0000 0000 0000 0000 0000 0000 0000 0000
00000110: 0000 0000 0000 0000 0000 0000 0000 0000
00000120: 0000 0000 0000 0000 0000 0000 0000 0000
00000130: 0000 0000 0000 0000 0000 0000 0000 0000
00000140: 0000 0000 0000 0000 0000 0000 0000 0000
00000150: 0000 0000 0000 0000 0000 0000 0000 0000
00000160: 0000 0000 0000 0000 0000 0000 0000 0000
00000170: 0000 0000 0000 0000 0000 0000 0000 0000
00000180: 0000 0000 0000 0000 0000 0000 0000 0000
00000190: 0000 0000 0000 0000 0000 0000 0000 0000
000001a0: 0000 0000 0000 0000 0000 0000 0000 0000
000001b0: 0000 0000 0000 0000 0000 0000 0000 0000
000001c0: 0000 0000 0000 0000 0000 0000 0000 0000
000001d0: 0000 0000 0000 0000 0000 0000 0000 0000
000001e0: 0000 0000 0000 0000 0000 0000 0000 0000
000001f0: 0000 0000 0000 0000 0000 0000 0000 0000
0.0 0.0 0.0 0.0 0.0 0.0 0.0 0.0
0.0 0.0 0.0 0.0 0.0 0.0 0.0 0.0
0.0 0.0 0.0 0.0 0.0 0.0 0.0 0.0
0.0 0.0 0.0 0.0 0.0 0.0 0.0 0.0
0.0 0.0 0.0 0.0 0.0 0.0 0.0 0.0
0.0 0.0 0.0 0.0 0.0 0.0 0.0 0.0
0.0 0.0 0.0 0.0 0.0 0.0 0.0 0.0
0.0 0.0 0.0 0.0 0.0 0.0 0.0 0.0
0.0 0.0 0.0 0.0 0.0 0.0 0.0 0.0
0.0 0.0 0.0 0.0 0.0 0.0 0.0 0.0
0.0 0.0 0.0 0.0 0.0 0.0 0.0 0.0
0.0 0.0 0.0 0.0 0.0 0.0 0.0 0.0
0.0 0.0 0.0 0.0 0.0 0.0 0.0 0.0
0.0 0.0 0.0 0.0 0.0 0.0 0.0 0.0
0.0 0.0 0.0 0.0 0.0 0.0 0.0 0.0
0.0 0.0 0.0 0.0 0.0 0.0 0.0 0.0

bn1.running_var f4 [128]
00000000: 0000 803f 0000 803f 0000 803f 0000 803f
00000010: 0000 803f 0000 803f 0000 803f 0000 803f
00000020: 0000 803f 0000 803f 0000 803f 0000 803f
00000030: 0000 803f 0000 803f 0000 803f 0000 803f
00000040: 0000 803f 0000 803f 0000 803f 0000 803f
00000050: 0000 803f 0000 803f 0000 803f 0000 803f
00000060: 0000 803f 0000 803f 0000 803f 0000 803f
00000070: 0000 803f 0000 803f 0000 803f 0000 803f
00000080: 0000 803f 0000 803f 0000 803f 0000 803f
00000090: 0000 803f 0000 803f 0000 803f 0000 803f
000000a0: 0000 803f 0000 803f 0000 803f 0000 803f
000000b0: 0000 803f 0000 803f 0000 803f 0000 803f
000000c0: 0000 803f 0000 803f 0000 803f 0000 803f
000000d0: 0000 803f 0000 803f 0000 803f 0000 803f
000000e0: 0000 803f 0000 803f 0000 803f 0000 803f
000000f0: 0000 803f 0000 803f 0000 803f 0000 803f
00000100: 0000 803f 0000 803f 0000 803f 0000 803f
00000110: 0000 803f 0000 803f 0000 803f 0000 803f
00000120: 0000 803f 0000 803f 0000 803f 0000 803f
00000130: 0000 803f 0000 803f 0000 803f 0000 803f
00000140: 0000 803f 0000 803f 0000 803f 0000 803f
00000150: 0000 803f 0000 803f 0000 803f 0000 803f
00000160: 0000 803f 0000 803f 0000 803f 0000 803f
00000170: 0000 803f 0000 803f 0000 803f 0000 803f
00000180: 0000 803f 0000 803f 0000 803f 0000 803f
00000190: 0000 803f 0000 803f 0000 803f 0000 803f
000001a0: 0000 803f 0000 803f 0000 803f 0000 803f
000001b0: 0000 803f 0000 803f 0000 803f 0000 803f
000001c0: 0000 803f 0000 803f 0000 803f 0000 803f
000001d0: 0000 803f 0000 803f 0000 803f 0000 803f
000001e0: 0000 803f 0000 803f 0000 803f 0000 803f
000001f0: 0000 803f 0000 803f 0000 803f 0000 803f
1.0 1.0 1.0 1.0 1.0 1.0 1.0 1.0
1.0 1.0 1.0 1.0 1.0 1.0 1.0 1.0
1.0 1.0 1.0 1.0 1.0 1.0 1.0 1.0
1.0 1.0 1.0 1.0 1.0 1.0 1.0 1.0
1.0 1.0 1.0 1.0 1.0 1.0 1.0 1.0
1.0 1.0 1.0 1.0 1.0 1.0 1.0 1.0
1.0 1.0 1.0 1.0 1.0 1.0 1.0 1.0
1.0 1.0 1.0 1.0 1.0 1.0 1.0 1.0
1.0 1.0 1.0 1.0 1.0 1.0 1.0 1.0
1.0 1.0 1.0 1.0 1.0 1.0 1.0 1.0
1.0 1.0 1.0 1.0 1.0 1.0 1.0 1.0
1.0 1.0 1.0 1.0 1.0 1.0 1.0 1.0
1.0 1.0 1.0 1.0 1.0 1.0 1.0 1.0
1.0 1.0 1.0 1.0 1.0 1.0 1.0 1.0
1.0 1.0 1.0 1.0 1.0 1.0 1.0 1.0
1.0 1.0 1.0 1.0 1.0 1.0 1.0 1.0

fc2.weight f4 [64, 130]
00000000: 689d e4bc 208b 833d b8e9 1ebd 9c7a d13d
00000010: 7c1b 073d e061 663d a877 64bd 8a4c a73d
00000020: 04dc 7d3d b47d 2c3d ea3e a4bd 1852 683d
00000030: 60b8 f8bb f4bd 37bd 5c82 b33d c095 893b
00000040: b04c 7cbc 3697 be3d 00a7 0dbb 0c55 9ebd
00000050: 18a9 99bc 460b ff3d f2bb c63d 3c15 703d
00000060: d8e1 e6bd 98c7 82bc da8f cebd 04ea 7fbd
00000070: d8cd bb3d 3a11 a7bd d8ac acbd b2c8 e5bd
00000080: 1023 683c 7ee7 dc3d b084 4c3d 8803 d5bc
00000090: 9659 bbbd 8cb1 4a3d 262e f3bd 80d5 a4bd
000000a0: ca09 e0bd 4003 423c 12c1 b5bd 286d 713d
000000b0: 80cd a7ba 08dd dabc ee69 ac3d 02ee ab3d
000000c0: 48bc fabd 9089 8a3d c055 343c 50dd acbd
000000d0: f0b7 17bc 9623 8b3d 3cab 76bd d035 e13c
000000e0: 00ac f43d e05b 7b3d 1070 55bc 906c 923d
000000f0: 3828 95bd e6d7 adbd 2cab 873d ec8b 97bd
00000100: a8a6 a7bc c003 27bb 60b6 89bb 3002 573d
00000110: 56c0 b03d a88a be3d a2eb c5bd 703d 7a3c
00000120: 909c c0bc 26ec c43d 72f5 873d 04da abbd
00000130: 5628 c43d 7081 2cbc 08bc b73d 5ceb f5bd
00000140: 786e 653d 34fd 61bd 08df 86bc 1842 c13c
00000150: 7840 4a3d eacf fa3d 78ea 3abd dcc5 0f3d
00000160: d8fc 8e3d 684c 94bc 2431 50bd b0e3 023d
00000170: c807 3fbd c08e 873c 128d 9b3d 5cda 1abd
00000180: 88ec 58bd b265 9abd 7820 b13c b89b 80bc
00000190: a062 fdbd 6859 06bd 3435 9ebd 420b dabd
000001a0: 68df 67bd 0094 e23b 740a 543d 987e 4bbd
000001b0: 88d1 8abc acb6 633d 906c 48bc f6e5 a83d
000001c0: 48fc c33d b851 dbbc 0a2d f5bd 26fc ba3d
000001d0: 60eb 7e3d 1c30 2d3d f2a0 81bd b448 debd
000001e0: b0a9 5d3d b09f de3d 32a2 e7bd 845e 913d
000001f0: 28b0 353d d6eb c93d 1061 4abd 326e cd3d
00000200: 4e21 b7bd ba73 e5bd 30bc 733d 4a64 aa3d
00000210: c0b4 79bb 4e97 803d 40a5 c13b a891 973d
00000220: 90af 93bd 000c 73bb b49f f8bd 10ff ec3d
00000230: 54ce 36bd d8fd d9bc 6a7f 9a3d 1657 d3bd
00000240: 2cf0 893d f8f1 9a3d 68de 42bd b0bb 46bc
00000250: 003b 353a 7891 fa3c 4056 e43d 4895 1bbd
00000260: ac93 59bd 60c1 563c 2e7e f53d 6eca 8a3d
00000270: 3c3d fb3d e8d9 e63c 7830 66bd c04f 0cbd
00000280: d0fe 4ebc beae 91bd a0f5 c1bd 50d1 56bc
00000290: 982c f5bd 1c0b 6cbd c072 a5bc ba71 893d
000002a0: 1283 f93d b2c5 a6bd 847c a7bd 0020 25b9
000002b0: eced e6bd 60af f0bb cce7 763d 4e62 8cbd
000002c0: 6c00 8abd 48b0 a8bd 4cd6 b63d d0a4 9b3c
000002d0: 90c4 db3d 806f 12bd a8fd e5bc 2e33 cb3d
000002e0: 10dc 843d e046 c4bc a49e 06bd c472 50bd
000002f0: 1278 8c3d 28b4 f83c 20c9 debb d47f a13d
00000300: 5a6f ba3d fc0d 0c3d a8d8 66bd 183c dbbc
00000310: 2403 adbd 1083 a63d e2c0 943d b01d 93bd
00000320: 08cb a7bc 1673 aabd 783e 54bd b003 973d
00000330: 90c6 e23c 8889 2c3d 908b 313d e8c8 433d
00000340: dec8 dabd 36a3 f5bd a070 9bbd dc6c 34bd
00000350: e0a7 b53c 104a 413c 225f a83d 9814 b43c
00000360: c035 7a3d 6491 34bd 0815 3e3d 5841 8fbc
00000370: 8000 933c 805b 193b 5205 ae3d f4ef 36bd
00000380: 7852 b63d 2078 14bc 50ed 313d 64b1 433d
00000390: 6af1 dbbd c074 a33b 6cb4 8f3d a015 70bc
000003a0: 8615 9f3d c829 be3d fcd6 893d e06a 50bd
000003b0: 2cda 373d 5444 8abd 00b3 3eba 6e30 963d
000003c0: 1c70 ebbd 6892 c03c 1891 2e3d 34ce d63d
000003d0: 5cc7 95bd a06d 0bbc 1808 fe3c e86b 013d
000003e0: a0ff 623c c0eb 8d3c 107c c53c 5026 7a3c
000003f0: dea1 d43d a090 683d d0d0 54bd 2048 823b
-0.027907088 0.0642302 -0.03879711 0.10228464 0.032985196 0.056245685 -0.055778176 0.081688955
0.0619774 0.042112067 -0.080198124 0.056718916 -0.0075903386 -0.044858888 0.087650985 0.00419876
-0.015399143 0.09306185 -0.0021614432 -0.07731065 -0.018757388 0.12453322 0.097038165 0.058614
-0.11273545 -0.015964314 -0.10086031 -0.062479034 0.09170121 -0.081575826 -0.08431405 -0.1121992
0.014168516 0.10786341 0.04993123 -0.02600266 -0.091479465 0.04948573 -0.118740365 -0.080485344
-0.10939367 0.011841595 -0.08874716 0.05894199 -0.0012802333 -0.026716724 0.08418642 0.08395006
-0.12242943 0.06764519 0.0110067725 -0.084406495 -0.009260163 0.06793897 -0.060221896 0.02749148
0.11946869 0.061366916 -0.013027206 0.07149613 -0.07283062 -0.08488445 0.06624445 -0.07399735
-0.02046521 -0.0025484413 -0.004202649 0.05249232 0.08630435 0.0930379 -0.09664084 0.015273437
-0.023512155 0.09615354 0.06638612 -0.083911926 0.09578006 -0.010528907 0.08971411 -0.12007782
0.056013554 -0.055173114 -0.016463771 0.023591086 0.04937789 0.12246688 -0.045633763 0.035100803
0.0698182 -0.01810284 -0.050828114 0.03195542 -0.04663828 0.01654756 0.075952664 -0.0378059
-0.05295995 -0.07538928 0.021621928 -0.015699252 -0.12372327 -0.03280011 -0.077249914 -0.106466785
-0.05660954 0.0069146156 0.05176778 -0.049681276 -0.016945615 0.05559413 -0.012232915 0.082469866
0.09569603 -0.026772365 -0.11971481 0.09130125 0.06223619 0.04228221 -0.06329526 -0.10853711
0.054116905 0.10870302 -0.11310233 0.070981055 0.04435745 0.09859435 -0.049408972 0.10030784
-0.08941899 -0.11203714 0.05950564 0.0831991 -0.003810212 0.06278859 0.005909592 0.074008286
-0.0721122 -0.003708601 -0.12139836 0.11572087 -0.044630364 -0.0266103 0.075438336 -0.10319345
0.06735262 0.07565683 -0.047575384 -0.012129709 0.0006913394 0.030586943 0.111492634 -0.037984163
-0.053119346 0.013107628 0.119869575 0.06776892 0.12267539 0.028180078 -0.056198567 -0.034255743
-0.012633994 -0.071134076 -0.094706774 -0.013111427 -0.11971396 -0.057627782 -0.020196319 0.06711145
0.12183203 -0.08143176 -0.08178046 -0.00015747547 -0.11275849 -0.007345125 0.060279652 -0.06854688
-0.06738362 -0.08236748 0.08927593 0.018999487 0.10730851 -0.035750866 -0.028075054 0.09921871
0.06487286 -0.023959577 -0.032866135 -0.0508907 0.06858839 0.030359343 -0.0067988783 0.078857094
0.0910327 0.034193024 -0.056358963 -0.026762053 -0.08447865 0.08130467 0.07263352 -0.07183397
-0.020482555 -0.08322732 -0.051817387 0.0737375 0.027682573 0.042123348 0.043345988 0.04779902
-0.106828436 -0.11994021 -0.07589841 -0.04404913 0.022174776 0.011797443 0.0822127 0.021982476
0.061086416 -0.044083968 0.046406776 -0.017487213 0.017944574 0.0023400486 0.084971085 -0.04466243
0.089024484 -0.009061843 0.04343921 0.047776595 -0.107394055 0.004988283 0.070168346 -0.014653593
0.07767777 0.09285313 0.06730458 -0.050883174 0.0448858 -0.06751314 -0.0007274598 0.07333456
-0.114959925 0.023507312 0.04261884 0.10488549 -0.073134154 -0.008510023 0.031009719 0.031597048
0.013854891 0.017324328 0.02410701 0.0152679235 0.10382436 0.05677855 -0.05195695 0.003975883

fc2.bias f4 [64]
00000000: 62f6 293d 7e67 6a3d c837 8fbc d007 b3bc
00000010: 62c2 9fbd 8077 11bb 3a94 efbc 8075 cd3c
00000020: f1bd 43bd 69d0 ab3d 80a9 80ba e8eb 89bc
00000030: 6b3c 843d 0cf0 d4bc 13ab 8f3d 9856 74bc
00000040: 0a2a 5f3d 60b4 5e3c a406 003d 76c6 493d
00000050: 32dd 703d 36dc 3c3d 4ccb aabc d667 533d
00000060: a005 7cbc a22e 5b3d 5ed2 3c3d 7a36 633d
00000070: 6cc7 c03c 40ee cd3a 268d 4d3d 7272 72bd
00000080: 6397 8abd 24d6 a8bd 4e3a 603d 0ce1 c3bc
00000090: a00e babc 4222 123d 2041 c63c 67cb 3dbd
000000a0: 84ea b1bc 2c32 83bd 4448 a8bd 3e39 403d
000000b0: 607e 243b b97b 9f3d 7457 073d 16ce 6f3d
000000c0: 604e 04bb 3ccd d63c d808 24bd b4ee 64bd
000000d0: 62b7 4f3d b0b7 fabb de9f 6f3d 0bc4 903d
000000e0: bc19 90bd a450 4ebd 3544 a13d 6cae 9cbc
000000f0: e063 a93b 4ebe eabc ef22 9e3d 20a3 92bd
0.041494735 0.057227604 -0.017482653 -0.021854311 -0.078007475 -0.0022196472 -0.029245485 0.025080442
-0.047788564 0.083893605 -0.000981614 -0.016836122 0.06456836 -0.02599337 0.07015052 -0.014913224
0.05448345 0.013592809 0.031256333 0.049261533 0.0588047 0.046108447 -0.020848893 0.051612698
-0.0153822005 0.05351127 0.04609906 0.055471875 0.023532592 0.0015711263 0.050183438 -0.059191175
-0.06767156 -0.08243969 0.054743104 -0.023911022 -0.022712052 0.035677202 0.024200976 -0.046336558
-0.021718271 -0.06406054 -0.082169086 0.04692959 0.002509974 0.0778727 0.033042386 0.05854615
-0.0020188317 0.02622091 -0.040047497 -0.055891708 0.050711997 -0.007651292 0.05850207 0.07068642
-0.070361584 -0.050369874 0.078743376 -0.01912614 0.0051693767 -0.028655197 0.07721507 -0.0716002

bn2.weight f4 [64]
00000000: b8ad 9c3d 008c a33d 2d6f 1d3f 70f5 983e
00000010: ce48 f03e 308d 353e 9a64 233f f388 6c3f
00000020: 4829 703e 6fbb 0a3f c0af e73e 1627 e23e
00000030: 20c6 9a3c 282d d83d 8ef2 b93e 16f0 3e3f
00000040: 6efa 053f b07a 473d a2c8 763f a876 963e
00000050: 7872 aa3d 52b5 073f a402 653e 83ba 713f
00000060: 2a71 9c3e f3b8 0e3f 183b fd3d a05c c23c
00000070: 3284 d33e a0b6 723f 1be1 5d3f daa6 0d3f
00000080: 7c54 203f a9e6 213f 4e2f 043f 18c4 ba3e
00000090: 40ee 993e 8839 0a3e a459 223e 094e 1d3f
000000a0: 10c4 6d3e 6d9e 003f 2d06 0a3f 7897 1d3f
000000b0: a068 2f3e 7afe 683f ef72 5d3f 73e6 7a3f
000000c0: e05e 4e3e 48d4 793e d57e 643f 3508 1c3f
000000d0: 4065 0f3c 7d53 0c3f b6ef 193f 1410 e73e
000000e0: 2c0f b63e a043 153d 009a 863a 0110 4a3f
000000f0: 0252 8c3e b8f5 5a3f 50ce 593f 8cb5 733e
0.07650322 0.07985687 0.61497766 0.29874754 0.46930546 0.1772964 0.6382538 0.9239647
0.23453248 0.5419225 0.45251274 0.44170445 0.018893301 0.10555488 0.36317867 0.7458509
0.5233525 0.04870099 0.9639989 0.29387403 0.083226144 0.5301105 0.22364289 0.9442522
0.30555087 0.5575096 0.12364787 0.023725808 0.41311795 0.94809914 0.8667161 0.5533272
0.6262891 0.63242584 0.5163468 0.36477733 0.30064583 0.13498509 0.15854508 0.614472
0.23219323 0.5024174 0.53915673 0.6155925 0.17129755 0.910133 0.865035 0.9800789
0.2015338 0.24397385 0.8925603 0.6095002 0.008752167 0.54814893 0.60131395 0.45129454
0.3555845 0.036441445 0.0010269284 0.7893067 0.27406317 0.8553119 0.8508043 0.23799723

bn2.bias f4 [64]
00000000: 0000 0000 0000 0000 0000 0000 0000 0000
00000010: 0000 0000 0000 0000 0000 0000 0000 0000
00000020: 0000 0000 0000 0000 0000 0000 0000 0000
00000030: 0000 0000 0000 0000 0000 0000 0000 0000
00000040: 0000 0000 0000 0000 0000 0000 0000 0000
00000050: 0000 0000 0000 0000 0000 0000 0000 0000
00000060: 0000 0000 0000 0000 0000 0000 0000 0000
00000070: 0000 0000 0000 0000 0000 0000 0000 0000
00000080: 0000 0000 0000 0000 0000 0000 0000 0000
00000090: 0000 0000 0000 0000 0000 0000 0000 0000
000000a0: 0000 0000 0000 0000 0000 0000 0000 0000
000000b0: 0000 0000 0000 0000 0000 0000 0000 0000
000000c0: 0000 0000 0000 0000 0000 0000 0000 0000
000000d0: 0000 0000 0000 0000 0000 0000 0000 0000
000000e0: 0000 0000 0000 0000 0000 0000 0000 0000
000000f0: 0000 0000 0000 0000 0000 0000 0000 0000
0.0 0.0 0.0 0.0 0.0 0.0 0.0 0.0
0.0 0.0 0.0 0.0 0.0 0.0 0.0 0.0
0.0 0.0 0.0 0.0 0.0 0.0 0.0 0.0
0.0 0.0 0.0 0.0 0.0 0.0 0.0 0.0
0.0 0.0 0.0 0.0 0.0 0.0 0.0 0.0
0.0 0.0 0.0 0.0 0.0 0.0 0.0 0.0
0.0 0.0 0.0 0.0 0.0 0.0 0.0 0.0
0.0 0.0 0.0 0.0 0.0 0.0 0.0 0.0

bn2.running_mean f4 [64]
00000000: 0000 0000 0000 0000 0000 0000 0000 0000
00000010: 0000 0000 0000 0000 0000 0000 0000 0000
00000020: 0000 0000 0000 0000 0000 0000 0000 0000
00000030: 0000 0000 0000 0000 0000 0000 0000 0000
00000040: 0000 0000 0000 0000 0000 0000 0000 0000
00000050: 0000 0000 0000 0000 0000 0000 0000 0000
00000060: 0000 0000 0000 0000 0000 0000 0000 0000
00000070: 0000 0000 0000 0000 0000 0000 0000 0000
00000080: 0000 0000 0000 0000 0000 0000 0000 0000
00000090: 0000 0000 0000 0000 0000 0000 0000 0000
000000a0: 0000 0000 0000 0000 0000 0000 0000 0000
000000b0: 0000 0000 0000 0000 0000 0000 0000 0000
000000c0: 0000 0000 0000 0000 0000 0000 0000 0000
000000d0: 0000 0000 0000 0000 0000 0000 0000 0000
000000e0: 0000 0000 0000 0000 0000 0000 0000 0000
000000f0: 0000 0000 0000 0000 0000 0000 0000 0000
0.0 0.0 0.0 0.0 0.0 0.0 0.0 0.0
0.0 0.0 0.0 0.0 0.0 0.0 0.0 0.0
0.0 0.0 0.0 0.0 0.0 0.0 0.0 0.0
0.0 0.0 0.0 0.0 0.0 0.0 0.0 0.0
0.0 0.0 0.0 0.0 0.0 0.0 0.0 0.0
0.0 0.0 0.0 0.0 0.0 0.0 0.0 0.0
0.0 0.0 0.0 0.0 0.0 0.0 0.0 0.0
0.0 0.0 0.0 0.0 0.0 0.0 0.0 0.0

bn2.running_var f4 [64]
00000000: 0000 803f 0000 803f 0000 803f 0000 803f
00000010: 0000 803f 0000 803f 0000 803f 0000 803f
00000020: 0000 803f 0000 803f 0000 803f 0000 803f
00000030: 0000 803f 0000 803f 0000 803f 0000 803f
00000040: 0000 803f 0000 803f 0000 803f 0000 803f
00000050: 0000 803f 0000 803f 0000 803f 0000 803f
00000060: 0000 803f 0000 803f 0000 803f 0000 803f
00000070: 0000 803f 0000 803f 0000 803f 0000 803f
00000080: 0000 803f 0000 803f 0000 803f 0000 803f
00000090: 0000 803f 0000 803f 0000 803f 0000 803f
000000a0: 0000 803f 0000 803f 0000 803f 0000 803f
000000b0: 0000 803f 0000 803f 0000 803f 0000 803f
000000c0: 0000 803f 0000 803f 0000 803f 0000 803f
000000d0: 0000 803f 0000 803f 0000 803f 0000 803f
000000e0: 0000 803f 0000 803f 0000 803f 0000 803f
000000f0: 0000 803f 0000 803f 0000 803f 0000 803f
1.0 1.0 1.0 1.0 1.0 1.0 1.0 1.0
1.0 1.0 1.0 1.0 1.0 1.0 1.0 1.0
1.0 1.0 1.0 1.0 1.0 1.0 1.0 1.0
1.0 1.0 1.0 1.0 1.0 1.0 1.0 1.0
1.0 1.0 1.0 1.0 1.0 1.0 1.0 1.0
1.0 1.0 1.0 1.0 1.0 1.0 1.0 1.0
1.0 1.0 1.0 1.0 1.0 1.0 1.0 1.0
1.0 1.0 1.0 1.0 1.0 1.0 1.0 1.0

fc3.weight f4 [1, 64]
00000000: 7a20 f8ba acb5 a23a 98d8 9c3a 84b9 123a
00000010: e08b 493a 5d1e 18bb f8bc dfb9 94f4 963a
00000020: 926d 44bb 52fa 1abb 801f 1638 f422 0f3a
00000030: 10c8 49b9 9033 3b3a a77a abba 5ef5 0c3b
00000040: 4ce3 0dbb b0fd bb3a 541c 3e3a c5b0 dcba
00000050: 7a4e 30bb ce4f 05bb 7ae6 333b f4d4 6aba
00000060: 80b9 28b8 545e 2e3a 0414 e93a dc06 9dba
00000070: 663f 98ba c292 043b 1809 37ba 8055 3e3a
00000080: bc94 2dbb f833 ca3a a2de e8ba c057 d83a
00000090: 379d adba dc83 8e3a 32b9 99ba e67c 05bb
000000a0: 888e 31ba e004 0aba 00a8 e239 44f9 5e3a
000000b0: d016 c9b9 1426 8d3a 52b2 263b 5864 8639
000000c0: 1c7b bdba 8c37 2ebb d058 20ba 00c2 ea36
000000d0: 9704 b3ba 1c16 9f3a e078 07b9 228a 333b
000000e0: 803b e839 906c 203b fddf 41bb 201a 0dbb
000000f0: bcda 6c3a f42a 2ebb 15fc 3ebb f654 3f3b
-0.0018930577 0.0012413762 0.0011966405 0.0005597102 0.00076883845 -0.0023211457 -0.00042674667 0.0011516982
-0.0029972536 -0.0023647738 3.5792124e-05 0.00054602255 -0.00019243383 0.00071411673 -0.0013082818 0.0021508555
-0.0021650372 0.0014342573 0.0007252146 -0.0016837349 -0.0026902244 -0.0020341757 0.0027450607 -0.0008958124
-4.022708e-05 0.0006651629 0.0017782454 -0.0011980194 -0.0011615574 0.0020229076 -0.0006982251 0.00072606653
-0.0026486358 0.0015426865 -0.0017766545 0.0016505644 -0.0013245706 0.0010873037 -0.0011728166 -0.0020368635
-0.0006773253 -0.00052650087 0.0004323125 0.00085057714 -0.00038354704 0.0010768794 0.0025435877 0.00025633234
-0.0014456245 -0.0026583401 -0.000611675 6.996328e-06 -0.0013657984 0.0012137326 -0.00012919633 0.0027395566
0.0004429482 0.002447877 -0.002958297 -0.0021530464 0.00090352795 -0.0026575895 -0.0029141952 0.0029194928
