projects/p2_continuous-control/actor_0.pth (torch_old, 169484 bytes, 6 tensors)

fc1.weight f4 [256, 33]
00000000: 00c5 87bd caaa 59bc 3307 ac3b 402c 26bc
00000010: 132e 67ba 2eb0 743c 10b9 8bbd 2093 2a39
00000020: 4b3f 10bc 080a 353d 8861 90bc 081b c8bd
00000030: 1cc1 babc 4c0b d1bd 0940 2a3d 9182 b239
00000040: 2baa 2f3d 9fd0 003d dc84 913c 69ab 1f3b
00000050: f22a 80bb 13ad 22bd 2d24 423d b872 95bd
00000060: 1357 87bd f8df 623d 2167 c3bb 7a19 203d
00000070: ef58 c1bc 304d f0bc 2840 7ebd a02b 29bd
00000080: 0526 fb3c 575d 623d 838d 08bd eda6 e93d
00000090: 48e0 e6bb db58 843d 33c6 a2ba 9fef fabc
000000a0: 174f 0abd f4f8 42bd f97b ce3d 7f85 cdbc
000000b0: 68dc 0cbc b9c1 8f3c 2467 32bc f6a5 3ebd
000000c0: 0673 0d3e 6e71 6fbd 17be dbbb c3b0 063c
000000d0: 3a4d 1fbd af54 f53a fa91 19bc da2d 523d
000000e0: 274b 4b3d 855b 123d 50e9 553d 4b3f 16bc
000000f0: 8ae6 a33c 96df 01bd 4017 d3bb 8b99 9f3d
00000100: 4002 3cbc f7d8 c03d 4eb2 84bd 341c 243d
00000110: b183 833d fdac 083d 1c9a 7bbd 5c1c e13d
00000120: a3da 473c c6e3 d73c 96f1 32bc 9647 c93b
00000130: 7077 89bd 468e 64bd ce9c bb3c 5e41 2ab8
00000140: 4866 ad3d f5eb af3b 4af4 20bc 65da 5d3d
00000150: 7a1d fd3c 3100 ea3c df37 c03b a2ff dcbc
00000160: 5ec5 81bd fc8c 3d3d 30a9 593a faf4 1938
00000170: c983 0dbc 49c7 deb8 4536 88bd d064 edbb
00000180: 51aa 773d ac9d 613d 90e3 083d 5e56 f0bc
00000190: 37cf 003d 1e78 2e3d 2777 ef3d b615 8f3d
000001a0: ec6e e73b baf5 d33c 77f3 71bd 4f35 8dbc
000001b0: 9eb5 42bd 5b07 ccbd 94c4 cfbb d3d5 b63d
000001c0: 537e 343d a47e cb3d f4ec 043e e29b 02bd
000001d0: 786e 073c dabc 813d 27a8 4ebd a18e 80bd
000001e0: f383 a23c 7519 853c 2ee8 803d 5f58 f53b
000001f0: 8059 e73c 1c7c 8a3d 6cbb c5bd 84a0 33bd
00000200: 48d7 21bc 7c23 c43d 2096 2fbc 793f 863d
00000210: f5c1 57bd 0bab 373d e490 9cbc 44f9 c43c
00000220: 5d43 313d 40e9 d1bc f6a3 423d 6e35 103d
00000230: e16f 073d f438 433c a0e2 88bd c51b 99bd
00000240: fa84 a1bc b871 85bd 22c4 ccbc 7789 d43c
00000250: b01c fe3c de16 79bc 2bd8 ddbd 0e4c 32bc
00000260: 42a0 49bc 87de 14bd 5533 ec3c 1c36 1bbe
00000270: b444 53bd 26fb 893a ffb5 d6bd 6f91 503a
00000280: 135e bfbd f810 743d 080e 87bc 049c 81bc
00000290: 4086 dfbc ab95 f93c 54ca a13c 9af2 aebd
000002a0: a23e 3dbb 18e2 aabd da0b 51bd 5d6b 273c
000002b0: e0d6 d13c 61b1 17bd 5f03 663d e843 bc3d
000002c0: 59b1 e43a 6a98 4fbd 3a65 92bc f225 b43d
000002d0: c9b6 f5bd 6015 49bd 9c3d 81bc 08d4 063d
000002e0: 3f67 9abd 4618 ef3c fc65 9f3c b212 8c3c
000002f0: cb13 03bd f2d0 fd3c 1605 6f3d e201 abbb
00000300: 52e1 94bd 6a2a 5cbc 7403 3f3d edf5 183d
00000310: f08d f43b dfa5 b1bb 6529 2bbd 3511 023c
00000320: 77b6 cbbb eeb8 13bd 2d46 f8bd 077d 4b3d
00000330: 8b1a c7bc 54ca d13b 9518 94bd 0c01 86bb
00000340: 84f0 8d3c 9ee7 143d f2f6 0d3d 0254 3c3d
00000350: 804d 873d 24fb b93a fc4e 233d 6e9b dbbc
00000360: 7fa5 b83c 41f8 c3bc bf83 2b3d 8ac4 003d
00000370: 8304 febc 9571 c43c 8087 c6bc 953b 883d
00000380: 991d 2cbc babf 94bd 52ce febd 888f 0f3c
00000390: 3299 0fbc 84fa f83c af1f 533d 10fa 2b3a
000003a0: c847 2f3d 9949 d7bd 7fa3 9dbd 8430 7fbd
000003b0: fed4 85bc c221 993d 0e9c d93d 5f0f 4ebd
000003c0: 3bcf 963d 455f 103c f795 443d 6dee 3dbd
000003d0: 2c30 af3d 9eef 07bd 8ed0 05be f68e 0fbc
000003e0: 312c 463c 11d7 9cbd 175f 5b3c 9b62 aa3b
000003f0: f728 2ebd 02ce 053d 90f4 88bc e7aa 8b3d
-0.06629372 -0.013285348 0.0052498817 -0.010142386 -0.0008818816 0.014934583 -0.06822407 0.00016267272
-0.008804153 0.04419902 -0.017624632 -0.09770781 -0.02279716 -0.10207233 0.041564975 0.00034048085
0.042886894 0.031448957 0.017763548 0.0024363643 -0.0039113695 -0.039715838 0.04739778 -0.072972715
-0.06608405 0.055389374 -0.0059632217 0.039086796 -0.023601977 -0.02933368 -0.062072903 -0.04130137
0.030657778 0.055264797 -0.03333808 0.11408792 -0.0070457794 0.0646226 -0.0012418687 -0.030631838
-0.033766832 -0.0476007 0.1008224 -0.02508807 -0.008597471 0.017548429 -0.010888848 -0.04654499
0.13813409 -0.058457784 -0.00670601 0.008220854 -0.03889201 0.0018717254 -0.009373182 0.05131326
0.049632218 0.03573181 0.052224457 -0.009170364 0.02000739 -0.03170737 -0.0064419806 0.07792958
-0.011475146 0.09416383 -0.064793214 0.04006596 0.064216025 0.0333681 -0.061426267 0.10991737
0.012198123 0.026353728 -0.010921856 0.006142567 -0.06712234 -0.055799745 0.022901919 -4.0592036e-05
0.08466774 0.0053687044 -0.009823868 0.054163355 0.030897845 0.028564544 0.0058660354 -0.026977364
-0.06336473 0.04627703 0.0008303104 3.6706195e-05 -0.008637377 -0.00010622905 -0.06650976 -0.007244684
0.06046516 0.05508201 0.033420146 -0.029338058 0.031447615 0.04259502 0.116926484 0.06986563
0.0070627835 0.025874007 -0.059070077 -0.017237334 -0.047536485 -0.099623404 -0.0063405726 0.089275025
0.044065785 0.09936264 0.12981015 -0.031886943 0.008266084 0.06334849 -0.05045333 -0.06277204
0.019838309 0.01624749 0.06294285 0.0074873413 0.02824092 0.06761953 -0.096548885 -0.04385425
-0.009877987 0.095770806 -0.010716945 0.06555075 -0.052675206 0.044840854 -0.019112058 0.02404464
0.043277133 -0.025623918 0.047519647 0.035207205 0.03306568 0.011915434 -0.0668385 -0.07476
-0.019716728 -0.06515831 -0.024995867 0.025944455 0.031019539 -0.015203206 -0.108322464 -0.010882391
-0.012306275 -0.03634503 0.02883307 -0.1515736 -0.051579192 0.0010527119 -0.10483932 0.00079562416
-0.09344115 0.059586495 -0.016486183 -0.015821464 -0.027285695 0.030466875 0.019749798 -0.08542366
-0.0028876443 -0.08343905 -0.051036693 0.0102184685 0.025615156 -0.037034396 0.05615556 0.091926396
0.0017447873 -0.050682463 -0.017870534 0.087963 -0.11997754 -0.04909265 -0.015776448 0.032917053
-0.07539224 0.02918638 0.01945781 0.017098758 -0.032001298 0.030983422 0.05835446 -0.0052187303
-0.07269539 -0.013437847 0.046634153 0.037343908 0.0074632093 -0.0054213847 -0.041787524 0.007938673
-0.00621682 -0.036065035 -0.1212276 0.049679782 -0.024304649 0.006402293 -0.07231251 -0.0040894803
0.0173266 0.0363537 0.034659334 0.045978554 0.06606579 0.0014189226 0.039870247 -0.026807513
0.022539852 -0.023922088 0.04187369 0.031437434 -0.03100801 0.023979941 -0.024234533 0.06651989
-0.0105051035 -0.072631314 -0.12441696 0.008762248 -0.008764552 0.030392893 0.051543888 0.00065603945
0.042793065 -0.105120845 -0.076972 -0.062302127 -0.016336914 0.07477142 0.10625468 -0.050307628
0.07363745 0.0088117765 0.04799458 -0.04636996 0.0855411 -0.0331875 -0.13067839 -0.008762112
0.012095497 -0.07658208 0.01338937 0.005199743 -0.042519536 0.032667167 -0.016718179 0.068197064

fc1.bias f4 [256]
00000000: ab10 f7bd f030 433e 7523 da3d 9e3f 9dbd
00000010: ba5c c5bd b08e 5bbd 3261 b1bd 465d 103e
00000020: a24e acbc f4aa 563d 3a70 26bd 4c55 d73d
00000030: b16d 3e3e 4363 193e dfa4 b2bd b633 2ebd
00000040: 1597 d43c c465 8abd d68f 9ebd 7009 1a3e
00000050: 585d 3a3e 7db7 493e fc67 373d 1e49 d63d
00000060: fdd3 da3d 1017 fabd 96a0 3f3d 286b 0ebb
00000070: dd90 813e 41d8 8abc 8297 613d 6e74 e9bc
00000080: ffb5 db3d 8f66 d83c ef82 993d b11f 0fbc
00000090: db64 513d 16f7 013e bfd9 16be bf67 80bb
000000a0: 3e6f 20bd 2f40 ad3d eaa5 cb3d c7d5 373c
000000b0: e3b6 60bc 2653 5a3d 64f4 1dbe 6693 05bd
000000c0: f5ab 47bd 6a51 003e 89f1 753c c4fd cb3d
000000d0: 2eb9 29bb 9f9b f4bd 6b03 9c3d 1f9b 86bc
000000e0: 8f55 1ebe 9543 6c3d 2b45 cb3d cdd9 f43d
000000f0: 9a62 3d3e 68ca a33d 578f 8f3d f9b8 c9bb
00000100: 4d74 a23d 8a37 72bd f404 b63d ee13 32be
00000110: cac1 86bd 8684 0b3e 9a3f 0dbe 4878 3e3d
00000120: 47fa 08bd 1e4f 413c 7f44 e23d 6e34 293e
00000130: 46ef 8cbc 41f5 c7bd 5013 6fbd ad08 2c3d
00000140: 03e2 663e da58 243d 8bc5 dfbd 68aa a9bb
00000150: 5328 1e3e e8d9 c3bd 5f03 153e 2932 193e
00000160: f7ee d9bd 4b79 0e3e 7e68 33be 2ea9 6c3d
00000170: dacd 9e3d 6e66 d8bd b613 fd3d 4ff8 11be
00000180: 3493 1bbe ccbf 563d 40f1 a3bd edb2 d2bd
00000190: cda2 d4bd 0959 f0bc c507 af3d 3dd9 d2bd
000001a0: efb5 09bc 340b c53d a60c 873a 733a 8bbd
000001b0: 6b65 47bd 85e2 b2bc 9ab2 e63d e7fc 2bbc
000001c0: 91df d0bd 8efb 15be b17c b33d 9b8f fcbd
000001d0: 355f a23d 6118 9ebd b175 a23b 77cd c2bd
000001e0: 9fc2 c8bd 8203 1ebd 9ad2 173e d781 91bc
000001f0: 8ba6 bbbd 9b7a c03d 3732 f2bc bc66 d03d
00000200: e9bf 24be 2cb6 eb3d 42b7 163e 79c7 ec3d
00000210: b605 b53d 5e76 2d3e 6a57 a03d 96cd 07be
00000220: 4b0f fbbc ce2e 663e 5419 81bd a45e 83bd
00000230: b9e3 00be 07c7 d5bd 19b2 9abd 7fd0 c1bd
00000240: f2de 193e 0891 e4bd bd88 3fbd ded4 153e
00000250: f096 38bc d139 853d 2b6c 0abe 24b7 d5bd
00000260: f92b 48be 7f22 e0bd fc49 03be c1b4 0abe
00000270: 86b8 3b3e 143d c6bd 317c 273e e0df 473e
00000280: 2189 10be c2f1 9bbd 3d26 4a3d 73ea a53d
00000290: 6210 0f3e af75 563d a797 153e c867 4f3e
000002a0: 2742 8e3d 6cd1 c73d 3e81 bcbd ed18 c63c
000002b0: 09a4 f33d c856 213e 53de fabd 6f08 fd3d
000002c0: 15b5 abbc 1558 26bd c5dd 593e 5233 d0bd
000002d0: 357d 8bbd c821 6abd 6e85 3f3d 739a 67bc
000002e0: bf9c 6bbd d807 a53d cde5 d93a 7489 e6bb
000002f0: 1887 003d 340b 5bbd 8a78 fb3d 6299 a6bd
00000300: e55b 2e3e 952c 46bd ac49 ddbb 8052 37bd
00000310: 32a1 be3d 7e8b b9bd 5c02 223e f51c 073c
00000320: 083c e4bd ac71 2d3c ae43 d3bd 3578 e13d
00000330: d365 653e 1aa5 1c3e 447c e43d 80f0 573e
00000340: 5424 bcbd 4a38 84bd c123 f6bc d238 d9bd
00000350: bfc4 b6bd 52ba 763d 314d 60bd d291 363c
00000360: 9c1a 02bd 1c81 bf3d 0495 253d 55f8 53bd
00000370: f2ae 263c d7e4 64bc 967f 013e 4bc6 5f3e
00000380: d553 093e 05b3 2abd 26d1 d5bd d0e5 aebb
00000390: 6c15 233d d49b 563e a847 413e 8d65 03be
000003a0: 5955 b7bd 40ff 133e 8569 ccbc c443 ad3d
000003b0: 444e d43b cc3f 9b3d ff54 c6bd bc78 253e
000003c0: f269 413e 1f56 b13d 23e3 e43c c27e a6bd
000003d0: 89ec cebd d9cf e6bd e38d 6cbd bd8b a3bd
000003e0: c49b 0f3e ec1a 903d 8b7b fa3c aea7 b3bd
000003f0: 1eeb 243e f01c f9bd 59aa 8b3d 3ba2 fd3c
-0.12063726 0.19061637 0.10651294 -0.0767815 -0.09636827 -0.053602874 -0.08661117 0.14098081
-0.021033589 0.052409127 -0.04063437 0.10514316 0.18596531 0.14979272 -0.08722853 -0.042529784
0.025950948 -0.067576915 -0.07742278 0.15042663 0.1819967 0.19698901 0.0447769 0.10463165
0.10684965 -0.1221143 0.046784006 -0.002173135 0.25305834 -0.016948821 0.05507613 -0.0284979
0.107280724 0.026416091 0.07495677 -0.008735583 0.051121574 0.12691912 -0.14731501 -0.0039186175
-0.03916859 0.08459508 0.09943755 0.011220402 -0.013715479 0.053301953 -0.15425259 -0.032611273
-0.048747975 0.12531057 0.0150112 0.09960511 -0.002589773 -0.11943745 0.076178394 -0.01643139
-0.15462326 0.05768164 0.09925302 0.11955605 0.18494645 0.0799759 0.07009762 -0.0061560837
0.07932339 -0.059134997 0.088876635 -0.17390415 -0.06579931 0.13624772 -0.13793793 0.046501428
-0.033441808 0.011798648 0.11048221 0.16523907 -0.017203938 -0.09763575 -0.058368027 0.04200046
0.22547154 0.040123798 -0.1092635 -0.0051777847 0.1544507 -0.09563047 0.14552067 0.14960541
-0.10641282 0.13913457 -0.1752033 0.05777853 0.07754107 -0.10566412 0.12357275 -0.14254878
-0.15192872 0.052429006 -0.08004999 -0.10288034 -0.10382614 -0.02933933 0.08546404 -0.10295341
-0.008405193 0.096212775 0.0010303452 -0.06798258 -0.048680704 -0.021836529 0.11264534 -0.010497308
-0.10198892 -0.14646742 0.087640174 -0.12332078 0.079283156 -0.07719494 0.0049578776 -0.095118456
-0.09802746 -0.038577564 0.14826432 -0.017762108 -0.09162625 0.09398385 -0.02956496 0.10175845
-0.16088833 0.11509356 0.14718345 0.11561484 0.0883898 0.16939685 0.07829173 -0.13262019
-0.03064694 0.22478792 -0.06303659 -0.06414536 -0.1258687 -0.10438352 -0.07553501 -0.094635956
0.15026453 -0.11160475 -0.046761263 0.14631984 -0.011266455 0.06505168 -0.13517825 -0.10435322
-0.19548024 -0.109440796 -0.12821192 -0.13545515 0.18332109 -0.096796185 0.16355969 0.19518995
-0.1411481 -0.07614471 0.049352873 0.08101358 0.13971093 0.052358326 0.14608632 0.20254433
0.06946211 0.09756741 -0.092043385 0.024181807 0.118965216 0.1575576 -0.12249436 0.12355124
-0.02096037 -0.040611345 0.21276005 -0.101660386 -0.06810991 -0.057161123 0.046758108 -0.014135945
-0.05752253 0.08058137 0.0016624272 -0.0070354287 0.031378835 -0.05347748 0.122788504 -0.08134724
0.17027242 -0.04838236 -0.006753167 -0.044756413 0.09308089 -0.09059809 0.15821213 0.00824665
-0.111442626 0.0105861835 -0.10315643 0.11009256 0.22402124 0.15297356 0.11156514 0.21087837
-0.091866165 -0.06456049 -0.030046346 -0.10606541 -0.08924245 0.060236283 -0.054761115 0.011143165
-0.031763658 0.093507975 0.040425315 -0.0517505 0.010173546 -0.013970575 0.12646326 0.21852987
0.13410886 -0.041674633 -0.104402825 -0.0053374544 0.03981535 0.20957881 0.18874991 -0.12831707
-0.08951826 0.14452839 -0.02495266 0.08460191 0.0064790566 0.07580528 -0.096841805 0.16159338
0.18888071 0.086590044 0.027940338 -0.08129646 -0.10103709 -0.112701125 -0.0577525 -0.07985637
0.14024264 0.07036385 0.030576488 -0.08772217 0.16105315 -0.121637225 0.068196006 0.030961147

fc2.weight f4 [128, 256]
00000000: 51d8 87bd ac5d b73c 4ae5 d03c b1d6 6a3d
00000010: afbb 1cbd 1bf9 b33d 7093 87bc 41a7 1d3d
00000020: 7865 203b eb2c c33d 6c81 64bd 9fb3 2a3d
00000030: 9571 3dbd ce4b 43bd 42c3 a43d f803 db3c
00000040: ef58 5c3c 111a dfbd b8c5 2dbd b34e 0dbd
00000050: 569a 68bc d6ef a93d f177 a23d b9df debd
00000060: 587f 4a3d e68f b5bd e025 d43d 4080 21bc
00000070: 7fce 093e 1b82 4bbd ffdf e53c 3dc4 98ba
00000080: bb07 4e3d f88e 173d 5717 02be 295f 55bb
00000090: 7d08 91bd f227 b2bc 5c99 aebb b06d 023e
000000a0: f13a c5bc 4d54 ce3d 85d9 593d f8fc 863d
000000b0: 9d21 e33d db33 de3d 5a52 eebd 1da4 493b
000000c0: d2f9 c138 a728 06bd 83d2 74bd bd44 e1bc
000000d0: 4c8c b5bc d268 cc3d d6c7 cebd 2a8b 1f3e
000000e0: 7e3d 893d cb30 e23d aa51 cc3c e39a 70bd
000000f0: 6d75 85bc 0eed d9bc 8745 203d ce9c 2b3d
00000100: 4a81 9abd ebf7 513c b15c 943d c96e 423c
00000110: 0a62 c5bc ff21 8b3d 4914 80bd 2bb6 c23d
00000120: ccd6 8cbd 4cbf 3ebd d1a6 da3d 152c ba3d
00000130: cfd1 9fbb ae7b e03d e76f b1bd 8a82 2c3d
00000140: e024 a93c 16dc 173d e79d 34bd eda8 933d
00000150: b8a8 36bc 3998 313d c193 8dbd f3ad 2cba
00000160: 4937 9f3d 4971 023d 27c9 2dbb be4b 9fbd
00000170: 824f 953c 3411 893d e2e1 543c fa33 19bb
00000180: b75a b63b 258c a1bc 1ef6 25bd f785 413c
00000190: 9ae4 29bd c483 a3bd 131e 0dbd f82a bf3d
000001a0: 017f c63d bde3 69bd a8c8 b4bd 2da8 1cbc
000001b0: 63c5 053c 656b e8bc 3fba 3abd 5769 2e3d
000001c0: a79b 633c b9d8 84bd fe22 5d3d 3e9f 813d
000001d0: 3bda ed3d 2840 bebc 7a92 123d 1bbb babd
000001e0: 67ae 6bbd 21a1 a2bc 0f14 d5bd 86bc 25bd
000001f0: 1c65 e83d 8de8 b13d d3e0 7bbd f727 f8bc
00000200: ee60 adbc 5205 443d 2021 213c ca9d 443d
00000210: 9f3c e6bd 6eb6 f1bb 6395 d1bd 75d7 6f3b
00000220: 0255 a2bd bd6c 643d d622 633d d5bc 08be
00000230: 8c97 15bd 11ed a1bc 9e55 bd3d ff9e 553c
00000240: a878 1fba 883a ba3d 9f46 c73c 8718 ab3d
00000250: 81b2 ba3d 6dc1 6dbb fa7d df3c 9cae 55bd
00000260: 3211 0e3d bde8 14bc 0687 383d a484 06be
00000270: 2348 33bd 4384 16bd b531 873d 0576 323d
00000280: 9fbe c93c 2215 c8bd 0241 0d3d c5a5 89bd
00000290: b9f1 97bd 5987 aa3b 6306 ba3d c476 8a3d
000002a0: 00e5 6e3c 0c17 983d a3e2 9abd 45fe fc3c
000002b0: d7c3 abbd a11e ed3d 8e31 dcbd 1b3d 953d
000002c0: 8c13 403c d8e9 d839 9852 9bbc bdd9 d7bc
000002d0: bff1 093d a502 b2bc 8e89 cfbd d6f6 83bc
000002e0: 3803 02be e952 a73d 1b5b 29bc 2697 70bd
000002f0: 0f92 6b3c 5359 0cbd 4940 a4bd 012b 73bd
00000300: 1db3 8f3a ac6b 45bd 99cb 983d 52a7 d33d
00000310: 1354 4cbd 72a4 bf3c 44cd c63d c6e9 a4bd
00000320: 7793 ff39 3a4e ed3a 5320 233c 795e 8fbd
00000330: ee7a b43d e58b 58bd a7ef 91bd 335a c33d
00000340: 2114 873c 2835 c93c 91a1 86bd 5416 d5bd
00000350: aab8 9e3c d5b5 7b3d cbdd 583d c452 57bd
00000360: 20fb 7c3d b74f af3d 3ed8 12bd e2ca 20bc
00000370: 8e02 e63d 8799 1b3d 4fd6 e9bb 0a34 d63d
00000380: dd0a 973d 6cbc 093d 5b07 9c3d 5eef e53b
00000390: 3426 b93c 84cd a83c 8449 7b3d 6b15 573c
000003a0: 35cb 633d 99ef 8cbd ac02 a2bd 9913 3a3c
000003b0: 21dd f63d 0dc9 773d aee1 733d b637 8b3d
000003c0: 8f65 d23d cd44 dbbd 27ca cc3d f60c 04bd
000003d0: 0793 0abc 4fac 0b3d 8dd8 9cbb 17fa 71bb
000003e0: 7672 cabc 5b7d 943d 3276 22bd b289 883c
000003f0: 1ff0 ac3d 6d88 5c3d 1f2b 973d 126a 64bd
-0.06633056 0.022383533 0.025499959 0.057333652 -0.038264927 0.087877475 -0.016549796 0.038489584
0.0024474543 0.09530052 -0.05578749 0.041675206 -0.0462509 -0.047679715 0.08045055 0.02673529
0.013448938 -0.10893644 -0.042424887 -0.03449888 -0.014196953 0.08297698 0.07933033 -0.108825155
0.04943785 -0.08865337 0.103587866 -0.009857237 0.13457678 -0.049684625 0.028060911 -0.0011655163
0.05030034 0.03700158 -0.12704216 -0.003255794 -0.07081697 -0.021747563 -0.0053283405 0.12737155
-0.024075957 0.10074673 0.05318596 0.06591219 0.110903956 0.108497344 -0.11636801 0.0030767985
9.24949e-05 -0.032753613 -0.059771072 -0.027498597 -0.022161625 0.099809304 -0.100967094 0.1558043
0.06701182 0.11044463 0.024941284 -0.05874146 -0.016291345 -0.026602294 0.039128806 0.041897587
-0.07544191 0.012815456 0.07244242 0.011867234 -0.0240946 0.067935936 -0.06253869 0.09507402
-0.06876907 -0.046569154 0.10676349 0.09090439 -0.004877306 0.1096109 -0.08663922 0.04211668
0.020647466 0.037075125 -0.0440959 0.072099544 -0.011148624 0.04335806 -0.069129474 -0.00065872
0.07774217 0.03184632 -0.0026517601 -0.077781186 0.018226389 0.06692734 0.012993308 -0.0023376928
0.0055650133 -0.019720146 -0.04051792 0.011811725 -0.041477777 -0.07984117 -0.03445251 0.093343675
0.09692193 -0.057101954 -0.08827335 -0.009561581 0.008164736 -0.028371522 -0.045587774 0.04258093
0.013892091 -0.06486649 0.05398845 0.06329201 0.1161389 -0.023223951 0.035784222 -0.09117719
-0.05753937 -0.019852223 -0.104042165 -0.040462993 0.1134741 0.08686934 -0.061493706 -0.030292494
-0.021164384 0.047856636 0.009834558 0.048002042 -0.11242031 -0.0073764836 -0.102335714 0.0036596928
-0.0792637 0.055767763 0.055453144 -0.13353284 -0.03652148 -0.019766362 0.09244846 0.013038396
-0.0006083348 0.09093195 0.024325667 0.083542876 0.09116078 -0.003627862 0.02728175 -0.052168474
0.034684367 -0.009088692 0.045050643 -0.13136536 -0.043769967 -0.03674723 0.06601278 0.043569583
0.024627028 -0.09769656 0.034485824 -0.06721071 -0.07419152 0.005204123 0.090832494 0.06760934
0.014580965 0.07426271 -0.07562759 0.030882964 -0.08386963 0.115781076 -0.10751639 0.072870456
0.01172341 0.00041372958 -0.018960282 -0.026348943 0.033677813 -0.021729777 -0.10133658 -0.016108911
-0.1269654 0.08170111 -0.010336663 -0.058737896 0.014378085 -0.034264874 -0.08020074 -0.059367184
0.0010963414 -0.048198387 0.07460708 0.10334648 -0.049884867 0.023393843 0.0970712 -0.08052401
0.0004874726 0.0018104978 0.009956437 -0.07000441 0.088125095 -0.05286779 -0.07125788 0.095386885
0.01648909 0.02456148 -0.06573785 -0.104046494 0.019375164 0.061452705 0.052945893 -0.052569166
0.06176293 0.08560126 -0.035850756 -0.009813996 0.11230956 0.037988212 -0.0071361433 0.104591444
0.07375119 0.03362696 0.076185904 0.00701706 0.022601224 0.02060581 0.061349407 0.013127665
0.055613715 -0.06881637 -0.07910666 0.0113572115 0.12053896 0.06049447 0.059541397 0.067977354
0.10273277 -0.10706482 0.09999495 -0.032238923 -0.008457906 0.034099873 -0.004786557 -0.0036922747
-0.024712782 0.07250472 -0.0396635 0.01666722 0.08444237 0.053841043 0.073812716 -0.05576522

fc2.bias f4 [128]
00000000: dfb3 863c 06f6 d5bc 4bc5 7f3d 08a1 9a3c
00000010: 9d96 473d da44 9e3d 8779 eabc 2189 023d
00000020: 4e3a 983c 95b4 34bc 17e6 18bd c4fe 093d
00000030: 44c4 4dbc 7313 123d 2873 e33c 86ef 913d
00000040: 97e5 2e3d a348 e4b9 66e1 e43a da56 4d3c
00000050: a1c7 3a3d 6f3d d33b 2858 b83d 0dea 383d
00000060: c060 60bc bcd3 9c3d 3423 e2bc 4166 8b3d
00000070: 15a5 65bd 61a3 63bd cd55 8c3b a602 373d
00000080: 9588 34bd 5cbb ab3c dcb4 da3d cc9c 13bc
00000090: 6dc1 d93c 5e6e 1fbd 4c69 463d d62b e7bc
000000a0: 59bf 723d 8831 7d3d 3687 8a3c 6125 4d3d
000000b0: 9522 003d c105 81bc 0ba3 bb3d 2885 39bc
000000c0: 3e65 dd3c 2afb aa3d 6a05 eabb 898b 35bc
000000d0: 9ec6 c33c 0c39 6a3d f018 7fbc 0ed7 5d3d
000000e0: e650 e03c 37aa 3fbd bb8d cdbc 50cf 663d
000000f0: 7091 7f3d 1177 643d 1613 fcbb 9da6 4f3d
00000100: 6286 fa3c 607e ba3d d2f2 c33d 1f86 bb3d
00000110: 8dcf a8bc 1fd4 123d 873e 88bb 2a0b a63c
00000120: b728 e93c 8948 d23c 5789 48bd 5f34 f6bc
00000130: dff5 7c3c b444 a83c 06e2 9c3d b736 5f3d
00000140: 5c23 9d3c 4475 693d 747c 33bd 6c5f 41bc
00000150: 5e68 f33a 4e03 c93c 0e99 f83c 5b59 5abd
00000160: 7e0a 8a3d d773 3a3d 04fb 8d3d e277 88bc
00000170: eb6a 6c3c f70a 073d f537 f2bc 9034 0f3c
00000180: 1774 603d b438 333c e343 643d da35 163c
00000190: 2eab 5a3d 9b6d 153d 9186 60bd 2031 5e3d
000001a0: 6739 25bc 7a2a 09bc c58a 08bc 40e3 853b
000001b0: f152 42bd 990c 923d 19c3 7e3d 2509 ea3c
000001c0: b7e6 c53c daaf 723c 9e7e 64bc 70aa 3abd
000001d0: 9185 6a3d b965 b43c fb35 b23c c24f 88bb
000001e0: 6c62 e03c 1955 3b3d 4c43 fa3c 967b 423d
000001f0: 38a3 a63b bff5 133d 38ee 2cbc ccec 41bd
0.016443191 -0.02611829 0.062444013 0.018875614 0.04872762 0.07727976 -0.028622402 0.031869058
0.01858249 -0.011029382 -0.037328806 0.03369023 -0.012559 0.03566308 0.027764872 0.071257636
0.042699423 -0.00043541667 0.0017462194 0.012532914 0.045600537 0.0064465324 0.090011895 0.045145083
-0.013694942 0.076575726 -0.027604677 0.06806613 -0.056065638 -0.055575732 0.004282689 0.04468026
-0.044075567 0.020963363 0.106790274 -0.009009551 0.02658149 -0.038923614 0.048440263 -0.028219145
0.059264515 0.061814815 0.016910177 0.050084475 0.03128298 -0.015749814 0.09161957 -0.011323251
0.027025815 0.08348687 -0.0071417587 -0.011080631 0.023898419 0.05718331 -0.01556991 0.05416017
0.027382325 -0.04679319 -0.025091996 0.056350052 0.06239456 0.055777613 -0.007692705 0.050696004
0.030581657 0.09106135 0.09567799 0.09156441 -0.02060678 0.035846826 -0.0041578445 0.020268995
0.028461797 0.025669353 -0.048959102 -0.03005427 0.01543948 0.020540573 0.07660298 0.05449554
0.0191819 0.0569966 -0.04381986 -0.0118025355 0.0018570533 0.024537709 0.03034642 -0.053307872
0.067402825 0.04552063 0.06932643 -0.016658727 0.014429788 0.03296944 -0.029567698 0.008740559
0.054798212 0.010938812 0.055728804 0.009168113 0.053385906 0.03648148 -0.054815833 0.054246068
-0.010084487 -0.008371944 -0.0083338665 0.004085928 -0.04744238 0.07131309 0.06219778 0.028568814
0.024157865 0.014812434 -0.0139462035 -0.045572698 0.057256285 0.022021161 0.021754256 -0.0041598985
0.027390681 0.045735452 0.030549668 0.047481142 0.005085375 0.036123034 -0.010554843 -0.047344968

fc3.weight f4 [4, 128]
00000000: ccc5 23bc 66ce 8dbd 34e7 023c 35fa 223b
00000010: 0c39 c6bc 7b91 bd3b 1105 e63c d768 07bc
00000020: 3c95 1a3d f2c9 80bd 956d 5bbd b3bc d53c
00000030: 2217 a93c 90f7 783d a8e3 f33c 1532 e63c
00000040: 1a43 40bc 8e47 6b3d d9f5 9dba 13e2 c8bc
00000050: 3d17 46bc bad7 a0bd 2c83 5b3d aa3c 623d
00000060: 0b8a bfbc 7a02 6dbc f392 073b ab06 433d
00000070: c5cc 513b 90da 4abd 11f6 433d 4040 713c
00000080: 3a32 5fbd 4478 7a3c 69ff 163d e3f5 373c
00000090: e09e 35bd 972c 2fbc dc89 1dbd 8c8c 1dbd
000000a0: ed31 e53b cb3a 873d 5a38 3bbd 18cf 4c3c
000000b0: 70fd d73c 7afa cb3c 051f 373d 826a fdbc
000000c0: 3710 3fbd 600b e73c a829 51bb 7393 2d3d
000000d0: c7d2 57bc 1b38 2d3d 9c2f 653c 1e23 643c
000000e0: e13d 6abc 9b6c 553b 5139 843c 2d1c e3bc
000000f0: 1608 88bc 686e 1a3d 3eda 863c 23be 0ebc
00000100: 0efe b93c 79ee 33bd f521 7f3c aca5 e53c
00000110: d048 133d 824c 743c bcfe 87bd 00a0 b73c
00000120: f164 093c dd21 e7bc 8ca8 d0bb d770 e8bc
00000130: c8c8 e63b f30d dfbc 146d 263d 5035 e2bc
00000140: 097b b53c d6ac 0b3c f70e bfbc bcdd 2b3d
00000150: b7d5 acbc 08e8 afbc 8d9e 6c3d 9503 a0bc
00000160: 5e7d 0f3d f559 453d d4fb d1bc 0eb4 5fbd
00000170: 3aa4 243d 8ba9 4f3d 3946 093b 41be 35bc
00000180: fb7e 933d 5be1 0c3d 04ce d2bb 499c 52bd
00000190: 5dca 243c 4257 d03c 3283 7abc 9196 813c
000001a0: 2f94 e5bb 2568 a6bd 5aa2 813c 6ad6 2dbd
000001b0: bf12 02bd 294e 4cbc e236 553c d78c 9a3c
000001c0: b5fc 7f3d 8351 f43c 5ad7 c43a 3590 13bc
000001d0: e5b6 b43b fa47 1d3d dcff 2bbd c2b8 083d
000001e0: f85b 3d3b c44c fbbc 16e5 7cbc d78a 063d
000001f0: d1b6 493d 76dd 1b3d 6e7c 84bc c8ed dfbc
00000200: e850 d93a 0ee6 9d3c 3cf1 a63c e04b e93c
00000210: 2db3 463d eacf 58bd b96b 43bc b371 ce3c
00000220: 1022 14bc 1c15 a6bc dbbe ddbc 4c2d 033d
00000230: 349a e63c 1a01 cf3b dfa0 883c dd3b 8d3c
00000240: 1bea c73b 6c60 fc3c 1224 853d f994 523c
00000250: ed98 bdbc 0b35 2b3d e42d a5bc d118 1c3b
00000260: a613 743c d651 b7bb 046a 4ebb c83d 2abb
00000270: bae4 c63c a1a0 063d 6c7b f83b 1904 2bbd
00000280: fd3b 873c 46d5 473c cc76 12bb e5c2 523c
00000290: ea31 b23d 6813 bd3c 4419 073d ea9c ee3c
000002a0: 452f 733c b17f 6ebc 7759 a03d b628 963d
000002b0: 9b75 f33b f273 8c3c 0126 563d f7f4 463d
000002c0: bcd9 883c 90bc a23c 5888 ac3c eb79 333d
000002d0: 39a9 e23c 1980 db3c 79c7 323d e394 f63b
000002e0: 0aa1 d13b 34b4 1b3c 7052 7abb 9a94 a73c
000002f0: 8094 d33a adcb 0dbc 7acc 27ba c235 a73b
00000300: 3403 723c bf63 ec3d a0d0 073d 6919 5e3c
00000310: b398 22be 5f4d ec3b a884 253e 438d 8dbc
00000320: cca7 d03c f4cb 0f3d a80d 5f3c 0811 b03c
00000330: e78c 44bc a189 8e3c 8b95 8c3c 6e14 f33c
00000340: 4b4e b8bb f33b d03c 951d 0f3c b22a dc3b
00000350: 8ef6 723c 13d5 2b3d 7d01 86bc 3e33 073c
00000360: 777d ad3c 19a0 b1bb f62d 8a3b 31c1 aa3c
00000370: 9d54 47bc 8122 433c 318a 683c b508 203d
00000380: 6be4 99bd 2e67 373b 53a3 2f3d cec8 733d
00000390: 890d fa3c 246d 18bc 4156 88bb 147a 1b3d
000003a0: f960 443c e99c f83d a010 983c 0b35 d33d
000003b0: 51d4 063d b863 d13d 9816 31bc 6977 943c
000003c0: d1a8 4cbc 5f39 023d 5654 573d 8e2d 173d
000003d0: f3e3 5a3c b101 5dbc c743 abbc 8c10 07bc
000003e0: 1a7d bfba 9214 2d3d 6009 263c 5b7e ecbb
000003f0: dcab 7e39 44bb a2bb cf3e cd3c edbe d43a
-0.009995889 -0.06924133 0.007989693 0.0024868373 -0.024197124 0.005785165 0.028078588 -0.008264742
0.037739977 -0.06288518 -0.053571302 0.026090955 0.020640913 0.06078297 0.02977164 0.028100053
-0.011734748 0.057441287 -0.0012051418 -0.024521863 -0.012090501 -0.078536466 0.053591892 0.055233635
-0.023381254 -0.0144659225 0.0020686954 0.04761378 0.0032012921 -0.049524844 0.04784209 0.014724791
-0.05449126 0.015287463 0.03686467 0.011228058 -0.044340968 -0.010691783 -0.03846155 -0.038464114
0.006994477 0.06603011 -0.045708038 0.012500547 0.026365966 0.02489971 0.044707317 -0.030934576
-0.046646323 0.028203666 -0.0031915698 0.042376947 -0.013172812 0.042289834 0.013988402 0.013924388
-0.01429698 0.0032565955 0.016140612 -0.027723396 -0.016605418 0.037702948 0.016461488 -0.008712324
0.02270415 -0.043928597 0.015572061 0.0280331 0.03595811 0.014910819 -0.066403836 0.022415161
0.008385883 -0.02821439 -0.0063677486 -0.028374119 0.007042978 -0.027228331 0.04063137 -0.027613312
0.022153394 0.008525094 -0.023322565 0.04195951 -0.021098 -0.021472946 0.057768393 -0.019532958
0.03503167 0.048181493 -0.025632776 -0.054615073 0.04019568 0.0506988 0.0020946397 -0.011092723
0.07201954 0.034394603 -0.0064332504 -0.051418576 0.010058013 0.025432233 -0.015290068 0.015818866
-0.0070061903 -0.08125333 0.015824486 -0.04244081 -0.03175616 -0.012469807 0.013013573 0.018865986
0.06249686 0.029824024 0.0015017793 -0.00900655 0.005514967 0.03839872 -0.041992053 0.033379324
0.002889393 -0.030676253 -0.015435478 0.03284725 0.049246613 0.038053 -0.016172614 -0.027335063
0.0016579898 0.019274738 0.020378701 0.028478563 0.04851072 -0.052932657 -0.011927539 0.0252007
-0.009041324 -0.020273738 -0.027068546 0.03202562 0.028149702 0.00631727 0.016678272 0.01724046
0.0061009056 0.030807696 0.065010205 0.012852901 -0.02314421 0.041798633 -0.020163484 0.0023818503
0.014897263 -0.0055944724 -0.0031496296 -0.0025976766 0.024278987 0.03286803 0.0075830724 -0.041751955
0.016508097 0.012196844 -0.002234864 0.012863849 0.087009266 0.023080543 0.03298308 0.029127557
0.014842813 -0.014556811 0.07829564 0.07331984 0.007429791 0.01714513 0.052282337 0.04857346
0.016705386 0.019865304 0.021061108 0.043817442 0.027668582 0.02679448 0.043647263 0.007525073
0.006397371 0.009503413 -0.003819611 0.020456601 0.0016142279 -0.008654517 -0.0006401014 0.005102844
0.0147712715 0.115424626 0.033157945 0.013555863 -0.15878563 0.007211372 0.16163886 -0.017279273
0.025470637 0.035106614 0.013614096 0.021492496 -0.011996484 0.017399611 0.017161151 0.029672828
-0.0056245676 0.025419211 0.00873508 0.006718957 0.014829291 0.04195125 -0.016358132 0.008251963
0.02117799 -0.0054206965 0.0042169048 0.020844074 -0.0121661695 0.011910082 0.014193104 0.039070804
-0.075142704 0.0027985084 0.042880367 0.059517674 0.030524032 -0.009303365 -0.004160673 0.03795822
0.011986011 0.12139303 0.018562615 0.103128515 0.032917324 0.10224098 -0.010808609 0.018123345
-0.012491421 0.031792995 0.052570663 0.03690868 0.013360011 -0.013489173 -0.020906342 -0.008243691
-0.0014609427 0.042255946 0.010134071 -0.007217211 0.0002428735 -0.0049661715 0.025054364 0.0016231217

fc3.bias f4 [4]
00000000: 177f bbbc bef3 1bbc 7215 c4bd e75e a9bd
-0.02288775 -0.009518562 -0.09574403 -0.08270054
