projects/p2_continuous-control/actor_0.pth (torch_old, 169484 bytes, 6 tensors)

fc1.weight f4 [256, 33]
-0.08792677 0.002011386 0.014841258 -0.026661122 -0.0073892344 0.013278856 -0.062039442 -0.0051871086
-0.032495942 0.08162494 -0.043696884 -0.09045338 -0.013835665 -0.123031855 0.069813676 0.015525072
0.049317446 0.041206677 0.001358079 0.00792957 -0.011641573 -0.026252693 0.078073815 -0.09583433
-0.061173834 0.06774316 -0.01857655 0.034563962 0.013643105 -0.02933368 -0.057550106 -0.04130137
0.044179194 0.06105212 -0.038591087 0.11246841 0.0069333226 0.06070301 -0.013160783 -0.010199778
-0.04986073 -0.037826654 0.09968641 -0.018135874 -0.0031450703 0.015806237 -0.007957121 -0.04730402
0.1302462 -0.06687309 -0.0036857203 0.00036105642 -0.029153414 -0.009778493 -0.016885642 0.04190057
0.051865637 0.022024821 0.04907632 -0.02502715 0.017019687 -0.034448788 -0.0064419806 0.08091747
-0.011475146 0.10361706 -0.05201949 0.046949882 0.04603215 0.04939372 -0.06158943 0.11579466
0.006864235 0.012907851 0.014301466 -0.0022413644 -0.06166663 -0.046169218 0.019228997 0.012230461
0.08744853 -0.018977871 -0.020886093 0.05413329 0.023988241 0.034504563 -0.00086212996 -0.037997816
-0.076023735 0.05566306 0.005251563 0.0068098484 0.0041808654 -0.00995689 -0.07785232 -0.007244684
0.07031593 0.05508201 0.022127878 -0.01701827 0.04034352 0.022388097 0.1318673 0.075973734
-0.010943902 0.034181237 -0.07346971 -0.00024313433 -0.04635726 -0.09730477 -0.00096886756 0.077229016
0.052184492 0.10821571 0.10567116 -0.044997413 0.021047877 0.050510686 -0.036167897 -0.07085358
0.010487781 0.015491028 0.07277732 0.0017776381 0.0147533 0.07615964 -0.114124656 -0.05997531
-0.009877987 0.11334658 -0.010716945 0.06268379 -0.06555474 0.060489323 -0.0100154495 0.010499384
0.04080565 -0.02587172 0.056142796 0.010063441 0.0120737115 0.041756976 -0.08771316 -0.05663537
-0.013515374 -0.08085665 -0.0003975542 0.041796774 0.034864638 -0.018686563 -0.11440596 -0.010262157
-0.02708784 -0.023481436 0.046920687 -0.17682901 -0.038374115 -0.006809304 -0.111638345 -0.0010620742
-0.07218875 0.059586495 -0.0146285 -0.015821464 -0.023347512 0.015396436 0.009874743 -0.06703516
-0.020224277 -0.08110909 -0.046975985 0.0048133126 0.038989622 -0.047540553 0.04984125 0.1079069
-0.0055996515 -0.05336773 -0.03210646 0.07107571 -0.10714566 -0.043820783 -0.028398246 0.043006312
-0.07890486 0.03178239 0.03294442 0.020951012 -0.019798886 0.028416494 0.055047676 -0.014349378
-0.058322847 -0.016944695 0.046634153 0.02297134 0.0074632093 -0.0061577843 -0.038148694 -0.010653521
-0.0109480545 -0.054172434 -0.13330767 0.051580895 -0.022116916 0.0044372496 -0.07771225 0.0071329507
0.036067806 0.04147842 0.042302903 0.04741871 0.04703127 -0.017953513 0.059653867 -0.036498837
0.024403103 -0.03338207 0.04167813 0.03348823 -0.028405499 0.043128416 -0.021665333 0.064918354
-0.00010700316 -0.079839006 -0.1369649 0.008762248 -0.0015568719 0.030392893 0.0543067 -0.014431831
0.041615956 -0.09521189 -0.10292466 -0.073656395 -0.020997958 0.08271787 0.10607534 -0.068493925
0.079693295 0.01803479 0.057971217 -0.031416442 0.071919836 -0.030422557 -0.12727022 0.0015294421
0.0025609897 -0.07261072 0.0033038743 0.0051117237 -0.0363082 0.04640146 -0.0080253305 0.084072195
00000000: f312 b4bd 75d1 033b bf28 733c 6d68 dabc
00000010: 6421 f2bb 8f8f 593c 121d 7ebd 9ff8 a9bb
00000020: 771a 05bd fa2a a73d 81fb 32bd 9f3f b9bd
00000030: fcae 62bc 20f8 fbbd 79fa 8e3d df5c 7e3c
00000040: 1701 4a3d 55c8 283d 9201 b23a 07eb 013c
00000050: 4cbc 3ebc e30f d7bc 2ae5 9f3d ca44 c4bd
00000060: 6a91 7abd edbc 8a3d d92d 98bc f192 0d3d
00000070: 5487 5f3c 304d f0bc a9b9 6bbd a02b 29bd
00000080: 3ef5 343d ca11 7a3d b011 1ebd d655 e63d
00000090: ed30 e33b b8a3 783d 53a0 57bc f81c 27bc
000000a0: c43a 4cbd 1ff0 1abd 6328 cc3d af91 94bc
000000b0: 861d 4ebb 157c 813c 965e 02bc dcc1 41bd
000000c0: 435f 053e c2f4 88bd 208c 71bb 2c4c bd39
000000d0: 24d3 eebc f935 20bc c253 8abc ef9f 2b3d
000000e0: 1071 543d 666d b43c 4004 493d bd05 cdbc
000000f0: df6c 8b3c 2c1a 0dbd 4017 d3bb 0fb8 a53d
00000100: 4002 3cbc 2e35 d43d 6412 55bd 854e 403d
00000110: 358c 3c3d 1251 4a3d 3345 7cbd c025 ed3d
00000120: 60ed e03b 737b 533c b250 6a3c dbe3 12bb
00000130: 2696 7cbd ef1b 3dbd 2186 9d3c 4662 483c
00000140: 3718 b33d 7b77 9bbc 5019 abbc deba 5d3d
00000150: fd82 c43c a854 0d3d 9000 62ba 99a3 1bbd
00000160: 55b2 9bbd f3fe 633d 4e15 ac3b 2625 df3b
00000170: a4ff 883b 3922 23bc 0a71 9fbd d064 edbb
00000180: cc01 903d ac9d 613d 8645 b53c e669 8bbc
00000190: 3f3f 253d 3e67 b73c 3908 073e 1e98 9b3d
000001a0: 0d4e 33bc a001 0c3d 4a77 96bd e0f1 7eb9
000001b0: 1ce1 3dbd b947 c7bd 9afb 7dba 3f2a 9e3d
000001c0: 68bf 553d 33a0 dd3d 1f6a d83d 354f 38bd
000001d0: 996c ac3c 4be4 4e3d ca24 14bd af1b 91bd
000001e0: f1d4 2b3c 15ce 7d3c 470c 953d a3ff e83a
000001f0: d3b7 713c 96f9 9b3d 30ba e9bd aca8 75bd
00000200: 48d7 21bc 4022 e83d 2096 2fbc 5c60 803d
00000210: 9041 86bd a7c3 773d d717 24bc 9c05 2c3c
00000220: d323 273d eef0 d3bc fdf5 653d 21e1 243c
00000230: d1d0 453c 5d09 2b3d f5a2 b3bd 7dfa 67bd
00000240: 966f 5dbc 2c98 a5bd d26e d0b9 1833 2b3d
00000250: 39ce 0e3d 9014 99bc ac4d eabd 9b22 28bc
00000260: 51e7 ddbc 245c c0bc e82f 403d aa12 35be
00000270: 2d2e 1dbd 9520 dfbb a5a2 e4bd 4c35 8bba
00000280: b2d7 93bd f810 743d 60ac 6fbc 049c 81bc
00000290: 4843 bfbc 5541 7c3c adc9 213c bb49 89bd
000002a0: 62ad a5bc 861c a6bd e469 40bd feb8 9d3b
000002b0: 95b3 1f3d e2b9 42bd 5726 4c3d 4bfe dc3d
000002c0: 487d b7bb 1f98 5abd 1082 03bd 2490 913d
000002d0: 2f6f dbbd 6c7d 33bd 70a3 e8bc 6327 303d
000002e0: df98 a1bd 402e 023d baf0 063d 75a1 ab3c
000002f0: 4631 a2bc b5c9 e83c ac79 613d a719 6bbc
00000300: f0e3 6ebd 9acf 8abc 7403 3f3d 642e bc3c
00000310: f08d f43b 3dc7 c9bb ce41 1cbd 1b8c 2ebc
00000320: 785f 33bc eae3 5dbd ce81 08be 7d46 533d
00000330: 892e b5bc 5966 913b 9a27 9fbd 87bb e93b
00000340: d6bb 133d 47e5 293d cf45 2d3d 1f3a 423d
00000350: dca3 403d 3f13 93bc 9d57 743d ce7f 15bd
00000360: 04e9 c73c a3bb 08bd b0b6 2a3d f42a 093d
00000370: a6b2 e8bc 6ca7 303d 7f7b b1bc eaf3 843d
00000380: e266 e0b8 a282 a3bd 8740 0cbe 888f 0f3c
00000390: f40f ccba 84fa f83c b470 5e3d 7d73 6cbc
000003a0: 7e75 2a3d 74fe c2bd 2aca d2bd 2ad9 96bd
000003b0: e903 acbc fd67 a93d 073e d93d 8b46 8cbd
000003c0: 3d36 a33d b2bd 933c 3a73 6d3d 87ae 00bd
000003d0: b54a 933d ba38 f9bc 2053 02be 9077 c83a
000003e0: 47d6 273b eeb4 94bd d085 583b 3f80 a73b
000003f0: e8b7 14bd 750f 3e3d ad7c 03bc 0b2e ac3d

fc1.bias f4 [256]
-0.116114475 0.19360402 0.11636374 -0.059205707 -0.09451068 -0.06797546 -0.07940349 0.13013627
0.0055435044 0.06626211 -0.057504073 0.10579865 0.19243716 0.1314574 -0.07946494 -0.038055606
0.022437213 -0.0747216 -0.058420233 0.15531012 0.2109846 0.20595643 0.04901952 0.11797425
0.13075297 -0.12899074 0.038430523 -0.017901927 0.2526067 -0.004479802 0.065807715 -0.039233066
0.10500409 0.015562108 0.077271886 -0.003660457 0.069229305 0.1505246 -0.13305813 0.01218135
-0.03153187 0.075358294 0.11616617 0.016169395 -0.036030877 0.08034216 -0.15519768 -0.031519283
-0.04233386 0.119504675 0.016996559 0.09728885 -0.0038018532 -0.112568304 0.07488646 -0.036461335
-0.17069867 0.053978432 0.10625267 0.12274994 0.17669211 0.08781185 0.07221579 -0.00600214
0.08238932 -0.06587455 0.10178292 -0.17519811 -0.07493569 0.1368496 -0.14396508 0.056939404
-0.0075736437 0.024994116 0.10240104 0.16387899 -0.025170399 -0.10963553 -0.042846322 0.03962238
0.22755897 0.052585866 -0.098796666 -0.016413476 0.15536231 -0.097880416 0.14024892 0.16037282
-0.10790696 0.136942 -0.16225639 0.05257877 0.08611426 -0.10566171 0.10654788 -0.14961272
-0.1576057 0.06921147 -0.069985054 -0.082004115 -0.094244525 -0.029041007 0.07726719 -0.08818198
-0.020891331 0.092061974 -0.012900022 -0.07455525 -0.058426764 -0.025970176 0.10076768 -0.006933592
-0.081252724 -0.14742972 0.0753442 -0.12587187 0.08111831 -0.06782189 -0.004953316 -0.09456987
-0.097228765 -0.026989926 0.17036436 -0.00207922 -0.09518968 0.11304673 -0.016181108 0.0866247
-0.15508118 0.120552905 0.13816226 0.11868409 0.095688045 0.1519931 0.083447985 -0.14853372
-0.044041254 0.22902268 -0.058139194 -0.07115162 -0.12346507 -0.104729705 -0.051217232 -0.09813965
0.13301852 -0.097835325 -0.05198196 0.13832211 -0.017198682 0.06873137 -0.1400718 -0.09931094
-0.17522013 -0.122558385 -0.1441428 -0.1353251 0.20657547 -0.094550274 0.17447579 0.1790993
-0.14077 -0.070776545 0.043915942 0.081764065 0.14574799 0.0420156 0.1412034 0.20468512
0.07416901 0.1194834 -0.09011024 0.016294915 0.13233507 0.15053503 -0.0974111 0.12897123
-0.035422117 -0.043699402 0.19611669 -0.10478977 -0.063414864 -0.046541832 0.04858476 -0.011552892
-0.035688348 0.08230065 0.013470727 0.0045904084 0.043460023 -0.04783769 0.12588426 -0.08389497
0.17119765 -0.04278747 -0.014646174 -0.06690087 0.123011716 -0.07020957 0.1601033 0.009655381
-0.124465406 0.0028663194 -0.085521355 0.11465606 0.22860307 0.1576952 0.12186974 0.21759495
-0.0871014 -0.06347396 -0.047325924 -0.087123476 -0.1013472 0.058696393 -0.055216532 0.012806971
-0.043878935 0.09271736 0.03527767 -0.059677545 -0.009821456 -0.0011377165 0.12856801 0.2316719
0.14958197 -0.061078154 -0.09126786 0.01308013 0.045220327 0.22500497 0.17229486 -0.13363503
-0.08403358 0.14179215 -0.030911826 0.09038445 -0.0056749373 0.0794414 -0.092388965 0.1575076
0.20274383 0.08065881 0.040308744 -0.07536287 -0.10531395 -0.108566076 -0.072426684 -0.078839146
0.1512943 0.0834193 0.0342759 -0.11358714 0.1548341 -0.1328042 0.05927698 0.030957967
00000000: 6dcd edbd 2240 463e 1d50 ee3d af81 72bd
00000010: d18e c1bd b836 8bbd 4c9e a2bd 7142 053e
00000020: 49a6 b53b 6eb4 873d 6489 6bbd f6ac d83d
00000030: 3f0e 453e c59c 063e 84be a2bd 32e0 1bbd
00000040: 3fce b73c a307 99bd 0e4a 6fbd 9e09 1f3e
00000050: 590c 583e 3ee6 523e b1c8 483d 7c9c f13d
00000060: 1be4 053e 2616 04be 5369 1d3d 10a7 92bc
00000070: aa55 813e 4ecb 92bb 32c6 863d dab2 20bd
00000080: 620c d73d 36f8 7e3c b940 9e3d 47e4 6fbb
00000090: 18c8 8d3d 1f23 1a3e 6440 08be 4994 473c
000000a0: 9027 01bd 7355 9a3d 87e8 ed3d ae75 843c
000000b0: 1d95 13bd 6e8a a43d 24ec 1ebe 5d1a 01bd
000000c0: 4566 2dbd debe f43d 5e3c 8b3c 603f c73d
000000d0: 8328 79bb 368a e6bd 135e 993d 7b58 15bd
000000e0: a2cb 2ebe 7d18 5d3d 009b d93d 5264 fb3d
000000f0: c7ee 343e b3d6 b33d dfe5 933d 9aad c4bb
00000100: bbbb a83d 3ce9 86bd 9073 d03d 2267 33be
00000110: e277 99bd 4d22 0c3e 956b 13be 4b39 693d
00000120: 542c f8bb 76c0 cc3c a3b7 d13d e5cf 273e
00000130: 2732 cebc 9888 e0bd a07f 2fbd 144b 223d
00000140: 3805 693e 4764 573d e855 cabd 8e75 86bc
00000150: 4c17 1f3e 8775 c8bd 6a9d 0f3e c638 243e
00000160: 53fe dcbd 863a 0c3e 8a26 26be d65c 573d
00000170: ac5c b03d 2b65 d8bd c635 da3d 1434 19be
00000180: 6363 21be bebe 8d3d 5354 8fbd c6f1 a7bd
00000190: 4603 c1bd 68e7 edbc 433e 9e3d c198 b4bd
000001a0: 4c24 abbc fd8a bc3d 9d5a 53bc 6cb0 98bd
000001b0: e750 6fbd 68bf d4bc 495f ce3d 2f33 e3bb
000001c0: d467 a6bd d1f7 16be 0f4e 9a3d 8ee4 00be
000001d0: 5b21 a63d 34e6 8abd 6d4f a2bb d9ad c1bd
000001e0: e01f c7bd fa19 ddbc ff73 2e3e 8643 08bb
000001f0: cff2 c2bd 0b85 e73d 3e8e 84bc 4a68 b13d
00000200: 9acd 1ebe 71e4 f63d 687a 0d3e a510 f33d
00000210: 18f8 c33d 14a4 1b3e c7e6 aa3d 3919 18be
00000220: 9a64 34bd ec84 6a3e 5d23 6ebd f1b7 91bd
00000230: 41db fcbd 877c d6bd 29c9 51bd 71fd c8bd
00000240: 0236 083e e35d c8bd 09eb 54bd 50a4 0d3e
00000250: 40e4 8cbc 08c3 8c3d fb6e 0fbe 8963 cbbd
00000260: e86c 33be e4ff fabd 2c9a 13be aa92 0abe
00000270: 8588 533e 93a3 c1bd c8a9 323e cf65 373e
00000280: 0326 10be 4bf3 90bd 34e1 333d eb73 a73d
00000290: f63e 153e 8d18 2c3d a097 103e fa98 513e
000002a0: ece5 973d b6b3 f43d b88b b8bd ea7c 853c
000002b0: d882 073e db25 1a3e 797f c7bd 0911 043e
000002c0: c816 11bd 25fe 32bd d0d2 483e 059c d6bd
000002d0: a7df 81bd a6a2 3ebd d000 473d 5748 3dbc
000002e0: f22d 12bd 3e8d a83d 53b4 5c3c 236b 963b
000002f0: 2303 323d 74f1 43bd cee7 003e 20d1 abbd
00000300: 704e 2f3e ea41 2fbd 82f6 6fbc 5303 89bd
00000310: 91ed fb3d 09ca 8fbd 1ff2 233e 9a31 1e3c
00000320: b8e7 febd dcd8 3b3b d225 afbd ccd0 ea3d
00000330: ec16 6a3e da7a 213e d896 f93d 36d1 5e3e
00000340: 3862 b2bd a3fe 81bd d4d8 41bd cb6d b2bd
00000350: 1f8f cfbd a16b 703d bb2a 62bd 54d4 513c
00000360: 66ba 33bd 99e2 bd3d 517f 103d 7170 74bd
00000370: 2cea 20bc 6e1f 95ba 55a7 033e 663b 6d3e
00000380: 042c 193e 162d 7abd a5ea babd 0b4e 563c
00000390: f338 393d b467 663e 106e 303e 9fd7 08be
000003a0: cc19 acbd f631 113e cc3a fdbc 7c1b b93d
000003b0: d3f4 b9bb 2cb2 a23d 6d36 bdbd ac49 213e
000003c0: 149c 4f3e 7230 a53d c81a 253d d957 9abd
000003d0: d7ae d7bd e457 debd 7154 94bd 6b76 a1bd
000003e0: e5ec 1a3e bdd7 aa3d e364 0c3d 60a0 e8bd
000003f0: d58c 1e3e d3fd 07be 6bcc 723d 909b fd3c

fc2.weight f4 [128, 256]
-0.07094154 0.024780301 0.019642236 0.04258067 -0.041352592 0.08264998 -0.018233063 0.032487754
-0.004685741 0.08835456 -0.05697177 0.030623117 -0.04610437 -0.044205435 0.081642024 0.022134654
0.008442108 -0.11891271 -0.051424384 -0.03826827 -0.030920625 0.08521356 0.062359136 -0.12726197
0.03750577 -0.08994731 0.10267536 -0.0074673626 0.13149145 -0.05849022 0.025956798 0.0022524975
0.050112396 0.036303356 -0.14125715 -0.002015409 -0.08597827 -0.045667965 -0.013126311 0.11255485
-0.039521772 0.08684233 0.03341768 0.059670467 0.117468454 0.10839928 -0.11998395 0.0025074724
-0.017629987 -0.03317332 -0.07898634 -0.03900632 -0.022112291 0.09482525 -0.1142382 0.15011127
0.07406131 0.103436306 0.003947571 -0.0764494 -0.0099940915 -0.017203296 0.01969258 0.03941693
-0.09454643 0.0049214703 0.07191782 0.022894569 -0.026203461 0.0635409 -0.046443798 0.097220495
-0.09181928 -0.053219162 0.101600274 0.08795268 -0.0094525 0.10149629 -0.1000093 0.0512731
0.008010782 0.021075945 -0.045228183 0.0699595 -0.022354834 0.04372446 -0.07933654 -0.015745765
0.07414037 0.017916959 -0.0064827804 -0.08388125 0.006243962 0.08640163 0.027743619 -0.02497316
0.0032628418 -0.028414464 -0.0555842 -0.005269988 -0.042744152 -0.0861838 -0.03707272 0.088104144
0.08981442 -0.06157816 -0.07079311 -0.013838148 0.0020568762 -0.027029172 -0.028867995 0.024560252
0.0071147466 -0.07549497 0.04411381 0.054268975 0.10357149 -0.03271281 0.030561293 -0.094831675
-0.06415878 -0.032305613 -0.117680945 -0.045872983 0.10767793 0.072103955 -0.07737206 -0.028620603
-0.026023544 0.04283472 0.006912097 0.03286702 -0.1213375 -0.007190381 -0.10931182 0.008220436
-0.08279402 0.043379284 0.04179565 -0.15232599 -0.044077877 -0.022822417 0.089371316 0.009158805
0.013819673 0.09912973 0.018856665 0.08320715 0.09222893 -0.015901644 0.024105126 -0.054568905
0.024671465 -0.021849329 0.050286796 -0.13360338 -0.06235926 -0.03779889 0.050690033 0.03198157
0.009496558 -0.10073968 0.023530353 -0.0758274 -0.06006249 0.0047209347 0.091724314 0.06716089
-0.00067301776 0.07088428 -0.080991775 0.02368558 -0.106599264 0.12108736 -0.12328897 0.083207265
0.027096126 -0.014576914 -0.020652568 -0.02976564 0.023547485 -0.039005052 -0.09924555 -0.014080817
-0.15310687 0.07297396 -0.007175326 -0.07085566 -0.005851361 -0.0360334 -0.09454959 -0.051709652
0.0015291916 -0.049385145 0.06463991 0.11022448 -0.07592529 0.031090166 0.08967304 -0.086765796
3.8011603e-05 0.0016804618 -0.0026682892 -0.0752901 0.084456846 -0.05498473 -0.09256311 0.077520505
0.014719927 0.024373727 -0.07245201 -0.11701791 0.0209028 0.06156331 0.06512135 -0.05703124
0.054882444 0.083096445 -0.038359653 -0.010232975 0.12349214 0.029583644 -0.00574341 0.09846038
0.05835901 0.03999119 0.07670851 -0.00484572 0.017493434 0.0006176198 0.05518928 0.004348242
0.05097216 -0.07631546 -0.06468066 -0.0045710513 0.12885916 0.06496168 0.051454164 0.065805875
0.09100606 -0.0931776 0.09036222 -0.038687233 -0.020668814 0.01655551 -0.020189675 -0.0071768877
-0.045886904 0.07444562 -0.05113529 0.021993289 0.076590545 0.0656978 0.078762904 -0.04703534
00000000: cc49 91bd 0f00 cb3c c1e8 a03c 1269 2e3d
00000010: 5661 29bd 6544 a93d 815d 95bc e111 053d
00000020: d88a 99bb 3cf3 b43d 3b5b 69bd 55dd fa3c
00000030: f0d7 3cbd c210 35bd ef33 a73d bc53 b53c
00000040: c450 0a3c 8288 f3bd 60a2 52bd 31bf 1cbd
00000050: 404d fdbc 7284 ae3d 4b6c 7f3d f650 02be
00000060: a69f 193d 4c36 b8bd 7647 d23d c7b0 f4bb
00000070: b2a5 063e 7193 6fbd 5aa3 d43c a39e 133b
00000080: a842 4d3d d4b2 143d b7a5 10be f414 04bb
00000090: 6015 b0bd 550e 3bbd bd0f 57bc 2883 e63d
000000a0: 95e1 21bd 64da b13d fae0 083d 0569 743d
000000b0: 4d93 f03d 7100 de3d 25ba f5bd 6854 243b
000000c0: c36c 90bc bfe0 07bd 97c3 a1bd 17c5 1fbd
000000d0: d624 b5bc be33 c23d b8f5 e9bd c5b6 193e
000000e0: 75ad 973d 6ad6 d33d a05a 813b 8191 9cbd
000000f0: 42be 23bc eded 8cbc 5552 a13c a673 213d
00000100: 8fa1 c1bd 4944 a13b a649 933d 648d bb3c
00000110: a4a8 d6bc bb21 823d da3b 3ebd 8a1b c73d
00000120: bf0b bcbd 56fc 59bd ce13 d03d 8920 b43d
00000130: a9de 1abc 49dd cf3d add1 ccbd be03 523d
00000140: a83f 033c 76a7 ac3c 3041 39bd ed46 8f3d
00000150: 7c21 b7bc 6b18 333d 327b a2bd 43fd 80bc
00000160: e8d6 973d 96c6 923c 816d d4bb efc9 abbd
00000170: 269a cc3b 56f3 b03d 9646 e33c 8394 ccbc
00000180: 67d5 553b 73c5 e8bc 42ac 63bd ddaf acbb
00000190: 7e14 2fbd 2281 b0bd 90d9 17bd f26f b43d
000001a0: 9ff0 b73d 6139 7cbd fafb 90bd 66b9 62bc
000001b0: a8cc 063b 486c ddbc 937c ecbc 9532 c93c
000001c0: d222 e93b 1b9d 9abd afb0 343d 2549 5e3d
000001d0: 4a1d d43d defd 05bd ad5b fa3c 1c37 c2bd
000001e0: ae65 83bd e452 04bd b502 f1bd 4fe5 3bbd
000001f0: 3f86 dc3d 3dab 933d 3e75 9ebd c175 eabc
00000200: 542f d5bc 7673 2f3d df7e e23b 929f 063d
00000210: cc7f f8bd 4a9d ebbb e0de dfbd 02af 063c
00000220: e98f a9bd 7aae 313d ea31 2b3d 58fb 1bbe
00000230: 018b 34bd 14f6 babc 4f08 b73d d00e 163c
00000240: e96b 623c 8704 cb3d 4b79 9a3c 8368 aa3d
00000250: 85e2 bc3d 2a44 82bc 1d78 c53c a583 5fbd
00000260: d01b ca3c 5dfd b2bc 87f9 4d3d 53cf 08be
00000270: 6c6c 7fbd 02d3 1abd 5aa0 4f3d 1bff 023d
00000280: 7497 1b3c 9b50 cebd bac2 c03c 654b 9bbd
00000290: 1604 76bd 12b2 9a3b f5d9 bb3d a68b 893d
000002a0: 756d 30ba c72b 913d 04df a5bd 4308 c23c
000002b0: b750 dabd a6fc f73d ed7e fcbd 9268 aa3d
000002c0: b2f8 dd3c 02d4 6ebc 932f a9bc 12d7 f3bc
000002d0: a8e6 c03c c3c3 1fbd 4041 cbbd 3ab3 66bc
000002e0: 0cc8 1cbe 5f73 953d ff1e ebbb c61c 91bd
000002f0: c6bc bfbb c297 13bd 37a3 c1bd 80cd 53bd
00000300: 286f c83a 1448 4abd ee61 843d 5fbd e13d
00000310: b87e 9bbd ceb0 fe3c 80a6 b73d 44b2 b1bd
00000320: a66e 1f38 f142 dc3a 77de 2ebb b231 9abd
00000330: b6f7 ac3d ab37 61bd ba91 bdbd 12c3 9e3d
00000340: d92b 713c 69ab c73c b861 94bd 16a7 efbd
00000350: 593c ab3c cf29 7c3d 585e 853d 9799 69bd
00000360: 6acc 603d 782e aa3d 031f 1dbd 35a8 27bc
00000370: 72e9 fc3d 6659 f23c 3733 bcbb 99a5 c93d
00000380: db09 6f3d cdcd 233d 5a19 9d3d d8c8 9ebb
00000390: 644e 8f3c c3e7 213a 280e 623d b37b 8e3b
000003a0: 2fc8 503d 484b 9cbd 4b77 84bd c2c8 95bb
000003b0: a8f3 033e a10a 853d 9ac1 523d 3bc5 863d
000003c0: 6361 ba3d e6d3 bebd d40f b93d 8176 1ebd
000003d0: a551 a9bc 6c9f 873c d164 a5bc 192c ebbb
000003e0: e8f3 3bbd f276 983d 3d73 51bd 452b b43c
000003f0: 81db 9c3d 918c 863d 724e a13d 21a8 40bd

fc2.bias f4 [128]
0.005819444 -0.038134664 0.07077458 0.027040455 0.043074545 0.072728135 -0.011961708 0.03548148
0.03014046 -0.022039734 -0.043978877 0.0524571 -0.0041396236 0.05145114 0.04959765 0.08783808
0.045182165 0.00139285 0.015826317 0.011049738 0.046187136 -0.008067903 0.10278729 0.06622213
0.004284278 0.077659644 -0.02387546 0.081985004 -0.04571029 -0.06318625 0.015162481 0.047738034
-0.052394968 0.025759274 0.11765665 -0.005916207 0.023601402 -0.040803768 0.042341657 -0.033792134
0.06604073 0.07563826 0.0085105095 0.06399477 0.04552586 0.0037603527 0.10302895 -0.0107972035
0.021645509 0.1011629 -0.0050091096 0.010738838 0.017973308 0.07806566 -0.0011480515 0.06648626
0.025955373 -0.04164569 -0.017746659 0.05409071 0.06506734 0.06755641 -0.00401301 0.051519852
0.040311348 0.08883522 0.10105878 0.10500461 -0.017966995 0.04407836 -0.011504452 0.018924264
0.04303652 0.009723224 -0.04448942 -0.03808586 0.020795885 0.019659627 0.10084521 0.053568024
0.027403284 0.06612801 -0.050639573 0.00932431 -0.007742582 0.02222937 0.04319141 -0.052902803
0.07632783 0.06326211 0.06800181 -0.038369488 0.026264606 0.060991514 -0.024059938 -0.006763487
0.06103822 0.029524663 0.05462217 0.0033280125 0.05418995 0.040774174 -0.05637434 0.07321597
-0.006541789 -0.018075451 -0.0029121384 0.00036902173 -0.049796496 0.07411166 0.06909198 0.0458959
0.03554209 0.022032566 -0.010211607 -0.03938589 0.05705988 0.026403641 0.017031386 0.009395472
0.027111916 0.04467306 0.032140285 0.055373188 0.024239482 0.05540579 -0.011282789 -0.049628694
00000000: 09b1 be3b 1833 1cbd 43f2 903d f283 dd3c
00000010: ef6e 303d 7df2 943d 0afb 43bc 0755 113d
00000020: 20e9 f63c ac8c b4bc 3223 34bd 42dd 563d
00000030: aea5 87bb 6ebe 523d e826 4b3d 74e4 b33d
00000040: ef10 393d 4a90 b63a 31a6 813c f609 353c
00000050: b92e 3d3d 3d2f 04bc 2582 d23d 789f 873d
00000060: 2163 8c3b 050c 9f3d 7896 c3bc c1e7 a73d
00000070: b73a 3bbd cb67 81bd 0e6c 783c f588 433d
00000080: 1b9c 56bd 1d05 d33c f8f5 f03d bedc c1bb
00000090: ba57 c13c da21 27bd 726e 2d3d 9f69 0abd
000000a0: 5d40 873d 3be8 9a3d aa6f 0b3c b10f 833d
000000b0: 5379 3a3d 4070 763b d800 d33d c1e6 30bc
000000c0: ec51 b13c 7f2e cf3d 7523 a4bb f4f1 2f3c
000000d0: c23c 933c e4e0 9f3d 377a 96ba f329 883d
000000e0: 5da0 d43c ac94 2abd 7161 91bc 388e 5d3d
000000f0: 0742 853d 045b 8a3d 917f 83bb 7b06 533d
00000100: 831d 253d 3def b53d e8f7 ce3d a80c d73d
00000110: 852f 93bc 838b 343d 2b7d 3cbc 0f07 9b3c
00000120: 1047 303d 284e 1f3c 8a3a 36bd ebff 1bbd
00000130: 225c aa3c 3a0d a13c ef87 ce3d 256a 5b3d
00000140: da7c e03c 1f6e 873d 716b 4fbd fec4 183c
00000150: 7cb5 fdbb 5e1a b63c 7ae9 303d 9cb0 58bd
00000160: c451 9c3d 918f 813d 8844 8b3d 5329 1dbd
00000170: df28 d73c 3dd2 793d 5919 c5bc 3ea0 ddbb
00000180: 3603 7a3d b5dd f13c 7fbb 5f3d c91a 5a3b
00000190: 48f6 5d3d d202 273d c8e8 66bd 41f2 953d
000001a0: 815c d6bb f812 94bc 93d9 3ebb 4279 c139
000001b0: 69f7 4bbd dbc7 973d 1980 8d3d 57fd 3b3d
000001c0: 9594 113d a47d b43c 964e 27bc 1953 21bd
000001d0: 9fb7 693d 734c d83c 6885 8b3c 77ef 193c
000001e0: cf19 de3c 19fb 363d 88a5 033d ffce 623d
000001f0: e191 c63c 2ff1 623d 72db 38bc 7547 4bbd

fc3.weight f4 [4, 128]
-0.012712883 -0.069232315 0.017156724 0.0022610512 -0.028071806 0.0108708255 0.042465463 -0.005707742
0.051677 -0.0635057 -0.054252256 0.030183489 0.032744333 0.06972416 0.04118312 0.036035996
-0.006234688 0.04974576 0.0040320777 -0.026005892 -0.008122236 -0.071064435 0.067375526 0.06837582
-0.027718402 -0.018486535 0.0055209044 0.0609407 0.008188107 -0.050617673 0.06412775 0.027675617
-0.058669172 0.026353156 0.0529697 0.019558452 -0.037795763 -0.012354923 -0.039609343 -0.037029814
0.0073280362 0.085645966 -0.047495212 0.024602124 0.035044108 0.03375918 0.05864526 -0.02799425
-0.048016403 0.03093706 -0.0050134095 0.053773694 -0.0098814545 0.052301813 0.014741058 0.017669942
-0.014233174 0.008826649 0.020950077 -0.028306194 -0.014517688 0.05248471 0.027597127 -0.006172812
0.031967297 -0.034995362 0.02833587 0.039851036 0.04133762 0.018569905 -0.058961596 0.026738567
0.017896742 -0.025833704 -0.004206537 -0.03149861 0.012996005 -0.027007472 0.056425426 -0.017258804
0.032212768 0.010702966 -0.029746847 0.05841328 -0.01659386 -0.03250294 0.063513994 -0.02060685
0.04846551 0.058541346 -0.02106904 -0.0625337 0.05453998 0.07736752 0.0026913078 -0.018130094
0.08100063 0.04523907 -0.0020940127 -0.04949309 0.020066556 0.034475572 -0.016950453 0.039883465
-0.0044686287 -0.07117435 0.023838686 -0.032821305 -0.029447306 -0.0056021838 0.021221342 0.02596236
0.07500588 0.044316083 0.005541709 -0.0054792673 0.00859899 0.04520184 -0.039312005 0.051833622
0.004589638 -0.024766032 -0.014041695 0.037972778 0.06571203 0.050031133 -0.013051124 -0.029228203
0.0027769303 0.029183695 0.01996276 0.031679306 0.06797415 -0.048262 -0.01953779 0.04217908
-0.0054499866 -0.021728277 -0.019063259 0.06465804 0.035081215 0.009980206 0.021191958 0.0171593
0.021090686 0.046239782 0.10798854 0.02448523 -0.012116598 0.046128884 -0.020279333 0.0036640777
0.039564475 -0.007314754 0.010549708 0.0076530743 0.046111915 0.044437684 0.009812311 -0.040268347
0.023163559 0.013144154 -0.0004743851 0.011169774 0.10826018 0.03353451 0.048146088 0.0453906
0.028678121 -0.013828285 0.08376505 0.095380925 0.007093918 0.018685116 0.06880393 0.058855385
0.030641586 0.023123793 0.021521276 0.07303794 0.031230284 0.037239924 0.075209275 0.0011167085
0.020033132 0.023807917 0.00089707406 0.034326166 0.010274387 -0.008324139 0.0054312954 0.014301797
0.009658032 0.124666415 0.043818127 0.020650133 -0.17738193 0.021002647 0.17647189 -0.00736618
0.042323552 0.03868018 0.036006395 0.037970267 0.003020809 0.012815882 0.027542967 0.053906433
0.003191009 0.043926973 -0.010280246 0.010142151 0.02017327 0.062083896 -0.0202865 0.021336462
0.023163226 -0.0060768407 0.018005408 0.03126157 -0.0077885613 0.043748908 0.02736112 0.0484132
-0.07289164 -0.0036339741 0.050553195 0.08102865 0.03449964 0.0015876009 0.0023556245 0.07459545
0.032078072 0.13223341 0.013773318 0.117643155 0.04697015 0.09863335 -0.0028365701 0.013125658
-0.010423121 0.04054109 0.060321894 0.06739484 0.020126307 -0.009625027 -0.0055963807 -0.012302736
-0.001271115 0.06488965 0.031154046 -0.0017764342 -0.001936314 -0.004506271 0.034051947 0.009920519
00000000: b249 50bc acc9 8dbd 428c 8c3c 252e 143b
00000010: d8f6 e5bc 8c1b 323c 44f0 2d3d 0308 bbbb
00000020: 43ab 533d 470f 82bd 9d37 5ebd 5d43 f73c
00000030: ec1e 063d 8acb 8e3d a2af 283d 7b9a 133d
00000040: 5b4c ccbb 36c2 4b3d 851f 843b 4f0a d5bc
00000050: 2013 05bc 3b8a 91bd 2efc 893d 9f08 8c3d
00000060: b411 e3bc 1371 97bc b4e8 b43b f59c 793d
00000070: 6927 063c 7a54 4fbd 6955 833d fab7 e23c
00000080: 164f 70bd 93e2 d73c c2f6 583d 0c39 a03c
00000090: bbcf 1abd 4e6c 4abc 683d 22bd 93ac 17bd
000000a0: 0620 f03b 2767 af3d 578a 42bd 658a c93c
000000b0: 698a 0f3d 1147 0a3d 0336 703d 3354 e5bc
000000c0: d9ac 44bd b86f fd3c 8747 a4bb ce41 5c3d
000000d0: d3e5 21bc 6d3a 563d 7b84 713c 8ec0 903c
000000e0: 4232 69bc a69d 103c 7f9f ab3c 64e2 e7bc
000000f0: 99db 6dbc 35fa 563d 5f13 e23c 4d45 cabb
00000100: 24f0 023d 4c57 0fbd a020 e83c d73a 233d
00000110: a351 293d ea1f 983c b781 71bd d70a db3c
00000120: 309c 923c 34a1 d3bc fdd6 89bb b004 01bd
00000130: 32ed 543c c63e ddbc 591e 673d 5662 8dbc
00000140: 89f1 033d 7e5b 2f3c a9af f3bc c342 6f3d
00000150: d9ef 87bc ce21 05bd a013 823d b2cf a8bc
00000160: c583 463d 0dc9 6f3d fb98 acbc ab11 80bd
00000170: 5065 5f3d dd72 9e3d a760 303b 9085 94bc
00000180: a9e3 a53d 9a4c 393d b43b 09bb 44b9 4abd
00000190: 9e62 a43c 4236 0d3d addb 8abc d85c 233d
000001a0: 936d 92bb dcc3 91bd 5949 c33c a26f 06bd
000001b0: 7a3b f1bc 8692 b7bb 61d8 ad3c 04af d43c
000001c0: af9c 993d c884 353d 3997 b53b 6d8b b3bb
000001d0: c7e2 0c3c 9125 393d a005 21bd 7e4f 543d
000001e0: ad64 963b 22e2 cabc 230f 66bc 5889 1b3d
000001f0: 0794 863d 72ed 4c3d 62d4 55bc fc6f efbc
00000200: 29fd 353b a512 ef3c f188 a33c 29c2 013d
00000210: 0836 8b3d 60ae 45bd b70d a0bc f9c3 2c3d
00000220: cd95 b2bb 80ff b1bc 8d2a 9cbc 6f6b 843d
00000230: 52b1 0f3d 0584 233c c29a ad3c a991 8c3c
00000240: 60c6 ac3c ed65 3d3d 1829 dd3d 4095 c83c
00000250: b284 46bc a4f1 3c3d d820 a6bc 0621 703b
00000260: 5c0e 223d 9bb0 efbb afd8 2c3c a4c6 fa3b
00000270: d9df 3c3d 4a04 363d d1c3 203c 6cf0 24bd
00000280: 81c1 bd3c 945a 573c e4b6 f8b9 6e01 373c
00000290: 83b7 dd3d 7b5b 093d d534 453d 7eeb 393d
000002a0: 61ee ea3c 0890 62bc 038d ab3d 1357 c33d
000002b0: 1974 e83b 8711 993c 13e9 8c3d 5812 713d
000002c0: 1004 fb3c 1c6e bd3c 634d b03c ea94 953d
000002d0: a7d6 ff3c e488 183d 5207 9a3d 855e 923a
000002e0: 861c a43c d208 c33c 9f29 6b3a 9899 0c3d
000002f0: e755 283c f861 08bc 02f9 b13b 1652 6a3c
00000300: b93c 1e3c 1b51 ff3d a37a 333d 782a a93c
00000310: 9ca3 35be be0d ac3c 0cb5 343e ff5f f1bb
00000320: 765b 2d3d 1c6f 1e3d 717b 133d b686 1b3d
00000330: c4f8 453b b5f9 513c caa1 e13c fecc 5c3d
00000340: 3f20 513b c5ec 333d 7a6e 28bc 442b 263c
00000350: 6a42 a53c af4b 7e3d e02f a6bc cec9 ae3c
00000360: cec0 bd3c 3c20 c7bb 1480 933c 220c 003d
00000370: 3037 ffbb 0e32 333d 6d24 e03c eb4c 463d
00000380: 3648 95bd f827 6ebb de10 4f3d 59f2 a53d
00000390: 7f4f 0d3d 0c17 d03a d260 1a3b 80c5 983d
000003a0: 4c64 033d 3268 073e 7ca9 613c e5ee f03d
000003b0: c663 403d 4800 ca3d c0e5 39bb 000d 573c
000003c0: bdc5 2abc 6a0e 263d 1714 773d 4e06 8a3d
000003d0: eddf a43c 4ab2 1dbc d861 b7bb 6a91 49bc
000003e0: 8b9b a6ba dde4 843d c536 ff3c 3ed7 e8ba
000003f0: ebcb fdba 57a9 93bb 0e7a 0b3d ac89 223c

fc3.bias f4 [4]
-0.0076152575 -0.0053046136 -0.09236462 -0.08804105
00000000: 6989 f9bb 53d2 adbb a929 bdbd de4e b4bd
