projects/p2_continuous-control/critic_0.pth (torch_old, 169986 bytes, 5 tensors)

fcs1.weight f4 [256, 33]
-0.0014830059 -0.08532107 0.12211307 -0.008749114 0.027927412 0.103961185 0.104330644 -0.06851104
0.0028558206 -0.01637223 0.06463761 0.059810754 0.050585646 0.0459234 0.033376206 0.13595074
0.0040999833 0.09929506 -0.11588481 -0.25810218 -0.06633367 0.013620805 -0.009492017 0.022243144
-0.03325793 -0.067772515 -0.051293693 0.031693447 -0.026706547 -0.017402582 -0.10817079 -0.00033269823
0.010232871 -0.02467237 0.0066483547 0.006071306 -0.13555986 0.032286946 -0.28165036 -0.07453769
-0.107359506 0.025630943 -0.13868187 0.057013042 -0.004412759 -0.028177943 -0.03957723 0.009568802
0.035934545 -0.02368993 0.017458955 -0.1329189 0.06567947 -0.10684515 0.078936666 -0.055788007
-0.009270852 0.027610116 0.034425963 -0.028658783 0.103480585 0.023264293 -0.036233135 -0.145359
-0.012375958 0.028576946 0.010588919 -0.06244106 0.036522202 -0.07571978 0.12291446 -0.011788063
0.13676032 -0.11685965 -0.0046557584 -0.07916805 0.025187578 -0.09392284 -0.0037412832 -0.107782006
-0.048241656 -0.0497382 -0.08533888 0.08350442 -0.08195132 -0.0076006297 0.1077596 -0.036669295
0.0843499 0.027944818 -0.01629104 -0.029558396 0.032202702 0.12010485 0.023232425 -0.04752349
-0.04741606 -0.044754617 0.0729315 0.092077725 -0.012066755 -0.17604558 -0.023718229 -0.09406003
0.2349906 0.09296632 -0.015769515 0.06554364 0.03256402 0.014763967 -0.028265448 -0.027499152
0.045130637 0.02124024 -0.011772721 0.074949056 -0.06991367 0.23593341 -0.113528915 -0.00080439844
-0.003538041 0.058702063 -0.100329325 -0.015878541 -0.056631118 -0.017883658 -0.01719874 0.105822444
-0.0054629296 -0.05379419 0.06015995 -0.07095539 -0.06795742 -0.057978068 -0.007216203 0.021470368
0.04979682 0.18431714 0.053050615 0.0067553897 0.090288535 -0.12009812 -0.028103275 0.040786207
-0.0035314478 -0.07929099 0.012422723 -0.000662774 0.110687375 0.12096774 -0.04712097 0.07763807
0.028360022 -0.041879028 -0.019090911 -0.02076481 0.035430115 0.066279076 0.022100136 0.092964716
0.044678234 -0.044462606 -0.085066445 -0.010107763 0.09291927 0.05793851 0.038835693 -0.048231803
0.1249565 0.013747809 0.03157065 -0.08691501 -0.009422629 0.097736865 -0.02196559 -0.081047304
0.09169795 -0.009053078 -0.032822277 0.056201626 -0.027055047 0.05833995 -0.08121775 -0.12004988
0.010565213 -0.0324509 0.10251496 0.017293729 -0.04625007 0.022948937 -0.05834836 -0.08516622
0.0073540234 0.01091108 -0.013434589 -0.011320274 0.062218815 -0.0079155285 3.6825164e-05 -0.0102836555
-0.012674757 -0.03988888 0.09861474 -0.060286574 -0.029603567 0.0060580955 0.08829672 0.0216877
0.020185208 0.05701459 0.043098297 -0.048427004 0.017829482 -0.029551556 0.09876589 -0.046478376
0.022550728 0.18410583 0.0076171197 -0.05960571 0.05824174 -0.0045309793 0.010449055 -0.017890684
0.04868216 0.08256424 -0.052320063 0.026251227 -0.02670281 0.050494097 0.00046361095 0.032466378
-0.045814414 -0.053910874 0.042603716 -0.04473918 -0.08501798 -0.057476673 0.03207044 -0.07453123
-0.06173998 0.04474411 0.038096532 0.018310517 -0.05332289 -0.038029924 0.048212267 0.023341382
-0.07408636 -0.06383611 -0.052609224 -0.080814786 -0.033005565 0.044740956 -0.073305905 0.020861143
00000000: 6c61 c2ba d0bc aebd 6b16 fa3d 7258 0fbc
00000010: 07c8 e43c 9ae9 d43d 4eab d53d 844f 8cbd
00000020: b828 3b3b 0e1f 86bc b960 843d 1ffc 743d
00000030: e532 4f3d 2d1a 3c3d 7db5 083d ac36 0b3e
00000040: 2759 863b 355b cb3d 0455 edbd f825 84be
00000050: f2d9 87bd cc29 5f3c 6884 1bbc 4137 b63c
00000060: 7839 08bd 51cc 8abd 5619 52bd fdd0 013d
00000070: b0c7 dabc dc8f 8ebc a688 ddbd 006e aeb9
00000080: c6a7 273c b61d cabc 71da d93b cef1 c63b
00000090: 34d0 0abe 513f 043d 7a34 90be 37a7 98bd
000000a0: 4ddf dbbd fcf7 d13c 9f02 0ebe 8286 693d
000000b0: e898 90bb 6ed5 e6bc bc1b 22bd 77c6 1c3c
000000c0: 1a30 133d 6211 c2bc 1506 8f3c e41b 08be
000000d0: f582 863d a1d1 dabd 8ca9 a13d f781 64bd
000000e0: c6e4 17bc 9c2e e23c 3d02 0d3d d3c5 eabc
000000f0: a1ed d33d c294 be3c 3269 14bd fdd8 14be
00000100: 88c4 4abc 331a ea3c 257d 2d3c 32c2 7fbd
00000110: 4e98 153d f912 9bbd 94ba fb3d b822 41bc
00000120: e60a 0c3e 1d54 efbd 558f 98bb dc22 a2bd
00000130: 2e56 ce3c 9e5a c0bd 5130 75bb d0bc dcbd
00000140: 0b99 45bd 48ba 4bbd 27c6 aebd 5e04 ab3d
00000150: 18d6 a7bd b40e f9bb 11b1 dc3d 8b32 16bd
00000160: a4bf ac3d 88ec e43c ca74 85bc 7324 f2bc
00000170: fbe6 033d 88f9 f53d ed51 be3c fea7 42bd
00000180: 5837 42bd 9e50 37bd 1c5d 953d 3f93 bc3d
00000190: a4b3 45bc 4b45 34be bb4c c2bc 8ca2 c0bd
000001a0: 60a1 703e 2065 be3d 122f 81bc be3b 863d
000001b0: da61 053d 91e4 713c f18c e7bc e745 e1bc
000001c0: e7da 383d 0300 ae3c 5fe2 40bc e47e 993d
000001d0: e62e 8fbd 8798 713e d981 e8bd 44de 52ba
000001e0: 7ade 67bb 9371 703d 7679 cdbd b713 82bc
000001f0: 08f6 67bd c080 92bc 5fe4 8cbc 70b9 d83d
00000200: 6002 b3bb 4c57 5cbd 486a 763d 0f51 91bd
00000210: 432d 8bbd 697a 6dbd e675 ecbb a0e2 af3c
00000220: c0f7 4b3d a2bd 3c3e 9a4b 593d 515c dd3b
00000230: 32e9 b83d 01f6 f5bd d738 e6bc 700f 273d
00000240: dd6f 67bb 5163 a2bd ad88 4b3c 03be 2dba
00000250: 10b0 e23d efbd f73d eb01 41bd b500 9f3d
00000260: 4753 e83c 5889 2bbd 8b64 9cbc f61a aabc
00000270: 2b1f 113d 53bd 873d 580b b53c 4964 be3d
00000280: 8600 373d 6c1e 36bd 5137 aebd 089b 25bc
00000290: 754c be3d ee50 6d3d 2d12 1f3d b68e 45bd
000002a0: 32e9 ff3d 7e3e 613c 3a50 013d 7f00 b2bd
000002b0: 5f61 1abc 442a c83d 2ef1 b3bc 21fc a5bd
000002c0: 23cc bb3d 5c53 14bc a770 06bd ad33 663d
000002d0: 8ca2 ddbc dff5 6e3d 7e55 a6bd b6dc f5bd
000002e0: b719 2d3c 3ceb 04bd 5df3 d13d 94ab 8d3c
000002f0: b770 3dbd 69ff bb3c b1fe 6ebd a16b aebd
00000300: 05fa f03b 63c4 323c c01c 5cbc ac78 39bc
00000310: 28d9 7e3d 22b0 01bc b874 1a38 c77c 28bc
00000320: c9a9 4fbc 8662 23bd 86f6 c93d 0eef 76bd
00000330: 2e83 f2bc fd82 c63b e9d4 b43d 67aa b13c
00000340: 735b a53c 2188 693d d787 303d 655b 46bd
00000350: 220f 923c 1b16 f2bc c545 ca3d 1c60 3ebd
00000360: 4ebc b83c 3d86 3c3e 0899 f93b 1e25 74bd
00000370: e48e 6e3d 9c78 94bb 8332 2b3c 7c8f 92bc
00000380: f266 473d 7117 a93d 904d 56bd d00c d73c
00000390: dabf dabc e6d2 4e3d cf10 f339 77fb 043d
000003a0: e5a7 3bbd a6d1 5cbd 3c81 2e3d 6e40 37bd
000003b0: e81d aebd a96c 6bbd 4b5c 033d d4a3 98bd
000003c0: 10e3 7cbd 9a45 373d 1c0b 1c3d f0ff 953c
000003d0: 1a69 5abd 44c5 1bbd 3a7a 453d 6d36 bf3c
000003e0: 97ba 97bd 82bc 82bd c57c 57bd 3982 a5bd
000003f0: d830 07bd 4b42 373d 6821 96bd fde4 aa3c

fcs1.bias f4 [256]
-0.14725298 0.028332945 0.00436787 -0.1573851 -0.16875707 -0.12100745 -0.13385332 0.0061231386
-0.02744571 -0.007592067 -0.10897349 -0.050224673 0.13407125 0.056657027 -0.11116178 -0.1288302
-0.0664711 -0.18706907 -0.16588147 0.039314948 0.09741047 0.024586298 -0.017984705 0.0588118
-0.059259605 -0.1900298 0.008790632 -0.031130094 0.02018382 -0.11633102 -0.04378859 -0.18966116
0.10795888 -0.009798081 0.0500209 -0.13161376 -0.022956183 0.119759806 -0.1794736 -0.0685804
-0.1427857 0.071627334 0.046537235 -0.047508035 -0.109202944 -0.011847872 -0.19148901 -0.09658418
-0.121040784 0.02021258 -0.06145371 -0.034909952 -0.0701018 -0.2626665 -0.018217346 -0.041617073
-0.19734566 -0.014332902 0.021117186 0.12812762 0.09851783 0.03542606 -0.055669338 -0.10318675
-0.022768004 -0.20280142 0.019564945 -0.24028432 -0.16051587 0.05466868 -0.14539772 0.02025509
-0.07575181 -0.07123723 0.057706833 0.113123 -0.10771327 -0.22521964 -0.13365693 -0.03558692
0.09070156 -0.087394096 -0.22780226 -0.072994605 0.08328137 -0.15744223 0.09526703 0.05914836
-0.16304615 0.054510057 -0.23845212 0.008484141 -0.021897683 -0.2027895 0.029314699 -0.20975077
-0.20948006 -0.020696986 -0.1819729 -0.20718847 -0.18081822 -0.10130141 0.01926034 -0.21247832
-0.03254572 -0.06498869 -0.07017512 -0.15690964 -0.080329016 -0.14437622 0.06552229 -0.08239352
-0.20198172 -0.2125806 0.042218305 -0.30338722 0.040114764 -0.15098256 -0.066894524 -0.15916583
-0.18189229 -0.104320675 0.05192905 -0.061105754 -0.20611446 0.021731121 -0.13192853 -0.015631152
-0.21513505 0.0072381385 0.050004277 -0.023163486 0.003711011 0.085568815 -0.04246334 -0.13377978
-0.057004273 0.050952286 -0.09449129 -0.15150395 -0.21312316 -0.21798158 -0.10451698 -0.17302483
0.042212747 -0.17795523 -0.12879246 0.14249797 -0.10951717 -0.044955265 -0.24628235 -0.190261
-0.19382732 -0.17759939 -0.23144408 -0.1647204 0.09750265 -0.16179052 0.17275533 0.10700047
-0.23412926 -0.110849716 -0.06929263 -0.024204405 0.0824899 0.018548034 0.054789882 0.121388994
0.027662914 0.021710865 -0.12055869 -0.026179789 -0.020977974 0.120583326 -0.108877644 0.05338741
-0.03508368 -0.08526985 0.12573516 -0.16108331 -0.15247259 -0.1464773 -0.058201984 -0.11385785
-0.11690457 0.041786473 -0.09504296 -0.06296739 -0.11915572 -0.09186915 0.07290945 -0.14820875
0.12919849 -0.11828931 -0.047703583 -0.081115454 0.07344276 -0.16456743 0.04858419 -0.092349105
-0.20047262 -0.13811913 -0.162392 -0.058446184 0.07036302 0.07519798 -0.044497564 0.07984123
-0.09457246 -0.12730183 -0.1555263 -0.16491207 -0.17658459 -0.023474261 -0.12990071 -0.0440224
-0.071069285 0.044644315 0.035277274 -0.10987449 0.03683294 -0.13806616 0.022659088 0.15156181
0.067557015 -0.08439278 -0.110424265 -0.13017172 -0.09568589 0.037398517 0.12822695 -0.16603841
-0.14617051 0.068379015 -0.13302231 0.019047208 -0.03992932 0.012857901 -0.15077373 0.096365035
0.1292198 -0.00940857 -0.09077601 -0.16598164 -0.20787224 -0.16436656 -0.12862411 -0.13467592
0.102105305 -0.057093736 -0.09054784 -0.1776018 0.06846215 -0.14608954 -0.058847707 -0.042386606
00000000: 7cc9 16be 7e1a e83c 5920 8f3b 8f29 21be
00000010: a7ce 2cbe c1d2 f7bd d810 09be 9ca4 c83b
00000020: d3d5 e0bc e0c6 f8bb 7e2d dfbd 63b8 4dbd
00000030: f949 093e 3311 683d caa8 e3bd 10ec 03be
00000040: 0022 88bd 098f 3fbe d5dc 29be b608 213d
00000050: 247f c73d 3469 c93c a954 93bc a4e4 703d
00000060: 33ba 72bd 2c97 42be 9506 103c 8a04 ffbc
00000070: 8a58 a53c f53e eebd aa5b 33bd 8936 42be
00000080: 8c19 dd3d 2188 20bc b7e2 4c3d c2c5 06be
00000090: 9b0e bcbc a144 f53d edc7 37be e173 8cbd
000000a0: 6a36 12be 5ab1 923d d49d 3e3d c997 42bd
000000b0: cba5 dfbd 941d 42bc b215 44be edcd c5bd
000000c0: 3be4 f7bd da94 a53c e3b6 7bbd bdfd 0ebd
000000d0: 8891 8fbd 397c 86be 8b3c 95bc aa76 2abd
000000e0: fb14 4abe 8cd4 6abc f3fd ac3c e333 033e
000000f0: b7c3 c93d eb1a 113d 8805 64bd 9353 d3bd
00000100: f783 babc 2dab 4fbe aa46 a03c 180d 76be
00000110: 465e 24be 44ec 5f3d 24e3 14be 01ee a53c
00000120: c423 9bbd d3e4 91bd 005e 6c3d 08ad e73d
00000130: c698 dcbd fa9f 66be 5ddd 08be 97c3 11bd
00000140: bdc1 b93d adfb b2bd ff44 69be 327e 95bd
00000150: 6c8f aa3d 8938 21be 5c1b c33d 8d45 723d
00000160: 92f5 26be f045 5f3d cb2c 74be 1101 0b3c
00000170: c562 b3bc 0da8 4fbe 6125 f03c e8c8 56be
00000180: f181 56be ba8c a9bc 1b57 3abe 3729 54be
00000190: 6928 39be 1d77 cfbd dcc7 9d3c eb93 59be
000001a0: a94e 05bd ca18 85bd f9b7 8fbd ecac 20be
000001b0: 8a83 a4bd 5cd7 13be 8d30 863d efbd a8bd
000001c0: 4cd4 4ebe bbae 59be 1aed 2c3d 9255 9bbe
000001d0: 614f 243d 2c9b 1abe ffff 88bd 5efc 22be
000001e0: f941 3abe 14a6 d5bd 8eb3 543d 074a 7abd
000001f0: ab0f 53be 7705 b23c 4618 07be e70c 80bc
00000200: 5d4c 5cbe e82d ed3b 49d1 4c3d 5ac1 bdbc
00000210: 6f34 733b b43e af3d 0aee 2dbd 91fd 08be
00000220: 507d 69bd 58b3 503d a684 c1bd da23 1bbe
00000230: f53c 5abe 9036 5fbe 000d d6bd 6c2d 31be
00000240: 46e7 2c3d e539 36be 2ce2 03be fdea 113e
00000250: 8a4a e0bd 0323 38bd 7131 7cbe c8d3 42be
00000260: ab7a 46be 9ddc 35be adff 6cbe 77ac 28be
00000270: 78af c73d 6aac 25be c6e6 303e 1023 db3d
00000280: 95bf 6fbe 2d05 e3bd 4be9 8dbd 5148 c6bc
00000290: 77f0 a83d 0cf2 973c 5b6b 603d cb9a f83d
000002a0: 569d e23c fcda b13c 79e7 f6bd ff76 d6bc
000002b0: 00da abbc 64f4 f63d 3efb debd c2ac 5a3d
000002c0: e8b3 0fbd f6a1 aebd b8c0 003e 06f3 24be
000002d0: c621 1cbe 25fe 15be 3465 6ebd 4e2e e9bd
000002e0: aa6b efbd 4b28 2b3d e2a5 c2bd 0cf5 80bd
000002f0: ea07 f4bd e525 bcbd 8d51 953d 09c4 17be
00000300: 9c4c 043e aa41 f2bd d564 43bd dc1f a6bd
00000310: 2869 963d 5d84 28be 3700 473d 8721 bdbd
00000320: b248 4dbe 1a6f 0dbe 174a 26be 4465 6fbd
00000330: 7d1a 903d 6601 9a3d 1443 36bd cc83 a33d
00000340: 35af c1bd 695b 02be 4942 1fbe b6de 28be
00000350: 97d2 34be 184d c0bc b104 05be d550 34bd
00000360: c68c 91bd f5dc 363d e77e 103d e005 e1bd
00000370: 23de 163d 3761 0dbe 8d9f b93c 0533 1b3e
00000380: 555b 8a3d 1fd6 acbd 1e26 e2bd bc4b 05be
00000390: f7f6 c3bd 302f 193d ed4d 033e f905 2abe
000003a0: b9ad 15be 4c0a 8c3d 0037 08be e408 9c3c
000003b0: ed8c 23bd f2a9 523c 6e64 1abe 085b c53d
000003c0: 3252 043e 6726 1abc c6e8 b9bd 17f7 29be
000003d0: 76dc 54be b54f 28be 0ab6 03be 7ce8 09be
000003e0: 961c d13d 1fdb 69bd 2571 b9bd 3fdd 35be
000003f0: e235 8c3d 7f98 15be 4b0a 71bd 949d 2dbd

fc2.weight f4 [128, 260]
0.049792357 -0.036259234 -0.058152672 0.011485459 -0.03474434 -0.005252724 0.014402715 -0.08631285
-0.054867834 -0.049168516 -0.03981392 -0.0765634 0.0183147 0.07303422 -0.13551125 -0.08448129
-0.084895134 0.029931331 0.001008553 -0.060287602 0.07286704 0.0070304023 0.056635905 0.022549858
-0.011573743 -0.001396397 -0.093114965 0.036083065 -0.09436595 -0.0115777 -0.065408625 -0.010029176
-0.049200643 0.0628728 -0.042911038 -0.0036205878 -0.11454659 0.065760255 -0.103933506 -0.036110517
-0.042712014 -0.012747654 -0.015617556 -0.045628384 -0.008124473 -0.04542398 -0.06664811 -0.11830412
0.07755414 -0.076802626 0.018598855 -0.055671398 0.010801764 -0.05377005 -0.11335042 0.05248243
-0.096463606 -0.14518118 0.0014911778 -0.085743956 0.031227998 -0.09565327 -0.072543696 0.01263277
-0.013955354 -0.07730592 -0.014985258 -0.026507458 -0.10443272 0.09715567 0.0038398977 -0.054268632
0.008683203 0.060752068 -0.055939957 0.00074451824 -0.034879513 -0.008420573 -0.0760034 0.0134959975
-0.13834877 -0.03216983 0.04626727 0.007040571 -0.05635243 -0.061396305 -0.06981733 0.030712636
-0.025722554 -0.040225975 -0.14016534 0.04318438 0.042675156 -0.030578634 0.0273148 0.049900267
0.07248536 -0.055743806 0.028954599 0.053249925 -0.030543026 0.05269001 -0.029808357 -0.07217154
0.034686666 -0.012447743 -0.03339469 0.017494252 -0.053149916 -0.030663563 -0.024013732 0.06980147
0.040618476 0.119217366 0.057253037 0.04515709 -0.12355008 0.05182412 0.026366118 -0.08543204
0.075202994 0.03427151 -0.117023975 0.006634833 0.046098486 -0.1280785 -0.02483742 -0.008376816
0.013572647 -0.006672496 -0.04031571 0.042136658 -0.034744196 0.06841579 0.002113129 0.025464306
0.06072247 -0.018819032 0.06718852 -0.03502658 -0.059492227 0.035442434 -0.019056512 -0.024115408
-0.014272655 0.02361433 -0.09116239 0.03371274 0.0052187284 -0.06154711 -0.014626822 0.042545643
-0.030165117 0.035092823 -0.066685475 0.028623719 0.013529187 -0.034496207 -0.1435973 0.032525957
0.0146438405 0.07537062 -0.07313129 -0.0677149 0.0365642 0.047614276 -0.026424503 -0.22584695
-0.028174575 -0.15042882 0.046137765 -0.04556472 -0.080261625 0.03871404 -0.06805532 -0.060428005
0.044063896 0.06739889 0.062583014 0.0509057 0.04512403 0.01295768 0.00081727887 -0.084551595
0.0025899073 -0.06922075 -0.09231192 -0.0068926415 -0.08671801 -0.085159466 0.03330252 -0.064371
0.04455874 0.04891493 -0.04317799 -0.0719274 0.028532222 -0.14828454 -0.058466494 -0.033643197
-0.02031478 -0.05668892 -0.046540983 -0.029839277 -0.0858964 -0.024725055 -0.022303464 -0.07645649
0.03208148 -0.0143406 -0.02791714 -0.010389088 -0.06447727 -0.05012406 -0.06251908 0.05193215
0.020425685 0.077527516 0.037817944 -0.05933911 -0.07062597 0.09133049 -0.045276877 0.09803178
0.012874105 0.032479767 0.009288781 -0.09962012 -0.057120744 -0.085022934 -0.08032288 -0.092060655
0.04824222 -0.048651293 -0.056200046 -0.04293003 0.018026557 -0.0028114982 -0.107498825 0.03469997
-0.024728129 -0.009996151 0.03419544 0.03256823 -0.064554535 -0.08631248 -0.10420853 -0.08503907
0.030632438 0.038338203 -0.06180124 -0.013768931 -0.08389944 -0.06995444 0.0040748515 0.035343148
00000000: 12f3 4b3d 9084 14bd 7f31 6ebd 822d 3c3c
00000010: 1550 0ebd 0b1f acbb 5df9 6b3c cbc4 b0bd
00000020: 18bd 60bd ed64 49bd ec13 23bd 46cd 9cbd
00000030: b608 963c f792 953d 76c3 0abe 8704 adbd
00000040: 80dd adbd 8d32 f53c 6c31 843a 22f0 76bd
00000050: 513b 953d 4a5f e63b 0dfb 673d 7bba b83c
00000060: cc9f 3dbc 4f07 b7ba 0fb3 bebd d6cb 133d
00000070: ef42 c1bd 65b0 3dbc f5f4 85bd 6a51 24bc
00000080: 9d86 49bd 74c3 803d 7cc3 2fbd 6247 6dbb
00000090: 6797 eabd 50ad 863d 17db d4bd 9fe8 13bd
000000a0: cbf2 2ebd 89db 50bc c7e0 7fbc d4e4 3abd
000000b0: 821c 05bc 7f0e 3abd ce7e 88bd 6e49 f2bd
000000c0: b4d4 9e3d b24a 9dbd a05c 983c b107 64bd
000000d0: e2f9 303c fc3d 5cbd 4424 e8bd d1f7 563d
000000e0: b68e c5bd 60aa 14be a073 c33a 879a afbd
000000f0: dcd1 ff3c dde5 c3bd ca91 94bd aef9 4e3c
00000100: ffa4 64bc 9152 9ebd ba84 75bc 2b26 d9bc
00000110: d2e0 d5bd 8df9 c63d cba6 7b3b c948 5ebd
00000120: fe43 0e3c 29d7 783d 4c21 65bd c62b 433a
00000130: d2dd 0ebd 71f6 09bc aca7 9bbd 511e 5d3c
00000140: 4dab 0dbe 83c4 03bd c082 3d3d 97b4 e63b
00000150: ced1 66bd b17a 7bbd 63fc 8ebd 1199 fb3c
00000160: 1bb8 d2bc fec3 24bd 8187 0fbe 1be2 303d
00000170: 25cc 2e3d 0b80 fabc 4ac3 df3c 3964 4c3d
00000180: 3473 943d 9e53 64bd 3232 ed3c 981c 5a3d
00000190: 5e35 fabc 7bd1 573d a830 f4bc acce 93bd
000001a0: 9b13 0e3d 9ef1 4bbc dfc8 08bd 1b50 8f3c
000001b0: bab3 59bd 2732 fbbc 72b8 c4bc 13f4 8e3d
000001c0: 8f5f 263d 3c28 f43d 2982 6a3d a4f6 383d
000001d0: d307 fdbd 8745 543d c2fd d73c fef6 aebd
000001e0: 0704 9a3d 4860 0c3d 44aa efbd 0369 d93b
000001f0: c4d1 3c3d 0327 03be d877 cbbc ea3e 09bc
00000200: cf5f 5e3c f4a4 dabb 1622 25bd 7d97 2c3d
00000210: ee4f 0ebd 941d 8c3d 6c7c 0a3b 859a d03c
00000220: 20b8 783d 5f2a 9abc 239a 893d 0878 0fbd
00000230: 1fae 73bd 162c 113d 671c 9cbc ad8d c5bc
00000240: dbd7 69bc d772 c13c 59b3 babd 5f16 0a3d
00000250: de01 ab3b d318 7cbd 57a5 6fbc 5744 2e3d
00000260: d61c f7bc 7ebd 0f3d 6592 88bd 4a7c ea3c
00000270: 86a9 5d3c e54b 0dbd 2c0b 13be f039 053d
00000280: b8ec 6f3c e95b 9a3d dcc5 95bd 1cae 8abd
00000290: 58c4 153d 3007 433d 3378 d8bc 6c44 67be
000002a0: 5ece e6bc 030a 1abe f4fa 3c3d 12a2 3abd
000002b0: 3560 a4bd 9d92 1e3d 9660 8bbd 5b83 77bd
000002c0: 587c 343d 6e08 8a3d 862b 803d 7f82 503d
000002d0: fad3 383d 734c 543c a83e 563a 6329 adbd
000002e0: 6fbb 293b 9cc3 8dbd 080e bdbd abdb e1bb
000002f0: 3699 b1bd 1668 aebd 3968 083d f1d4 83bd
00000300: 3a83 363d 065b 483d 67db 30bd ac4e 93bd
00000310: 68bc e93c e7d7 17be 907a 6fbd 73cd 09bd
00000320: 2e6b a6bc a432 68bd c2a1 3ebd 8071 f4bc
00000330: 74ea afbd 338c cabc c1b5 b6bc 3895 9cbd
00000340: df67 033d d6f4 6abc 7cb2 e4bc fe36 2abc
00000350: a90c 84bd e34e 4dbd 010a 80bd ceb6 543d
00000360: c453 a73c bfc6 9e3d fde6 1a3d 910d 73bd
00000370: 59a4 90bd 7b0b bb3d 3f74 39bd e3c4 c83d
00000380: e9ed 523c 8109 053d f92f 183c a205 ccbd
00000390: 71f7 69bd 8120 aebd 5280 a4bd 4c8a bcbd
000003a0: a299 453d 9446 47bd 0532 66bd 66d7 2fbd
000003b0: 6eac 933c 1d41 38bb 5828 dcbd 8e21 0e3d
000003c0: a592 cabc e5c6 23bc 8510 0c3d 4466 053d
000003d0: 2b35 84bd 99c4 b0bd 486b d5bd f728 aebd
000003e0: e1f0 fa3c 8508 1d3d 4c23 7dbd 1597 61bc
000003f0: 78d3 abbd 4644 8fbd 5586 853b fac3 103d

fc2.bias f4 [128]
0.035165153 0.019832632 -0.012409583 -0.04137861 0.041022114 0.022987582 -0.04060169 -0.06388763
-0.05594085 -0.019379111 -0.0584599 -0.04181184 0.014788075 0.030208945 -0.0010211956 -0.059452444
-0.023224643 0.06440956 -0.03892171 0.02694715 -0.034529917 0.05534005 -0.075926855 -0.036499076
-0.10328998 0.038321923 -0.009329207 -0.009972027 -0.039750304 0.049372114 -0.019582696 -0.011188369
-0.024117285 -0.02869026 -0.04656907 -0.021273658 0.066592716 0.0033091218 -0.036114648 -0.036934003
-0.018435165 -0.0036626917 -0.03795499 -0.021891104 0.0067893188 -0.018679684 0.004003565 -0.06790468
-0.07209633 -0.02364859 -0.04768031 -0.03532896 0.030457353 0.1233536 0.027926752 -0.012197903
-0.06676002 -0.05180473 0.03307466 -0.0027999263 -0.07423241 -0.07068985 -0.024291059 -0.054520424
-0.021500962 0.01682947 0.030774215 -0.06827729 0.018089313 -0.0683766 0.002503341 0.005492189
-0.018290024 -0.018620422 -0.03476521 0.027004331 -0.05358741 0.021758284 0.0014643938 0.0077283555
-0.08012709 -0.003428042 -0.04622492 -0.035310928 -0.06866126 -0.06717725 -0.07792979 -0.088588014
0.028163694 -0.009162864 0.013990549 0.0507118 0.021911316 0.037789516 0.03778734 -0.0056080404
-0.04172798 0.034264956 -0.07455674 -0.018552203 -0.04931941 -0.033990663 -0.05286216 -0.034685757
-0.0659412 -0.067405105 0.004066951 -0.0032056174 -0.038423505 -0.001097011 -0.03774808 -0.0035347734
0.035821375 -0.047776088 0.008090321 0.007252893 0.003942877 -0.007940095 0.026630634 -0.065717734
-0.014296219 0.015600002 -0.079261586 -0.004534517 -0.009712492 -0.035338275 0.050027553 0.02865258
00000000: 5609 103d 0b78 a23c 9051 4bbc 9e7c 29bd
00000010: ce06 283d 7450 bc3c f54d 26bd 85d7 82bd
00000020: 3c22 65bd f1c0 9ebc a673 6fbd e442 2bbd
00000030: af49 723c c078 f73c a3d9 85ba 6884 73bd
00000040: 9b41 bebc 29e9 833d 5f6c 1fbd 45c0 dc3c
00000050: 3e6f 0dbd 40ac 623d 8a7f 9bbd 0e80 15bd
00000060: b289 d3bd 73f7 1c3d 88d9 18bc b661 23bc
00000070: 37d1 22bd 6a3a 4a3d e46b a0bc 6c4f 37bc
00000080: 9d91 c5bc d607 ebbc 36bf 3ebd 1846 aebc
00000090: c361 883d dadd 583b f4ec 13bd 1c48 17bd
000000a0: 5805 97bc c509 70bb b176 1bbd f954 b3bc
000000b0: ef78 de3b 2306 99bc 5630 833b 9c11 8bbd
000000c0: 3ea7 93bd b0ba c1bc 6e4c 43bd 19b5 10bd
000000d0: b381 f93c d0a0 fc3d a5c6 e43c b7d9 47bc
000000e0: 7ab9 88bd 3231 54bd 4b79 073d f87e 37bb
000000f0: 2907 98bd d7c5 90bd 0bfe c6bc cf50 5fbd
00000100: c922 b0bc f5dd 893c 351a fc3c f7d4 8bbd
00000110: 0a30 943c 0809 8cbd 180f 243b d2f7 b33b
00000120: f6d4 95bc db89 98bc f765 0ebd 3038 dd3c
00000130: 797e 5bbd 6e3e b23c e7f0 bf3a 253e fd3b
00000140: ac19 a4bd 00a9 60bb 5756 3dbd 31a2 10bd
00000150: 469e 8cbd 3a94 89bd a799 9fbd a26d b5bd
00000160: 8cb7 e63c d61f 16bc 9e38 653c 2db7 4f3d
00000170: 5c7f b33c 2ec9 1a3d e6c6 1a3d a7c3 b7bb
00000180: f5ea 2abd 6959 0c3d 34b1 98bd cafa 97bc
00000190: 2603 4abd cb39 0bbd fe85 58bd a712 0ebd
000001a0: 2e0c 87bd b00b 8abd 0f44 853b 5615 52bb
000001b0: f761 1dbd 95c9 8fba bb9d 1abd a8a7 67bb
000001c0: 6fb9 123d dcb0 43bd 448d 043c ada9 ed3b
000001d0: 4033 813b 2c17 02bc 7d28 da3c 0597 86bd
000001e0: b03a 6abc 2797 7f3c e653 a2bd 4996 94bb
000001f0: 2521 1fbc debe 10bd b1e9 4c3d d1b8 ea3c

fc3.weight f4 [1, 128]
-0.001885959 0.01991993 0.01400111 0.017483689 0.039230343 -0.0013970771 0.012003293 -0.0023398623
0.0018045255 -0.0013699878 0.041144837 0.00017470775 0.009686132 -0.0009831926 0.0014698363 -0.0015033716
-0.0016219848 0.031475235 -0.011851623 -0.0030192244 0.0019913274 -0.0018921498 -0.0015716301 0.0022224996
0.027473293 -0.0045080106 0.0035132992 -0.0040458897 -0.0004104569 -0.0006165618 0.027367322 0.0010804076
0.000110557696 -0.016237425 -0.0023306068 -0.0022462602 0.010836615 -0.0032062184 -0.0024814566 0.00023197787
-0.0053364374 -0.011345367 -0.0003548109 9.17095e-05 -0.005740498 0.0023961707 -0.007139546 0.026053604
-0.0029064128 -0.002976579 -0.0015829126 -0.003597575 -0.0013222861 0.026669597 -0.0024985038 -0.00033345565
0.00040335636 0.0032390608 -0.00161392 -0.0021042023 0.0009711182 0.011190498 0.018486485 0.00076282443
-0.0013350125 -0.0047969134 -0.0010441539 -0.0087056225 0.009882456 0.008506669 0.01187834 -0.019899454
0.0032797947 0.0059239552 0.0012808868 0.0035366316 -0.001760194 0.013287853 0.013773011 -0.0015505939
0.011541385 -0.0023459161 0.0028103127 -0.008921101 -0.002963667 0.0029632628 -0.0013543539 0.007368123
0.0038057824 -0.00024234441 0.0077253142 -0.0023536754 -0.0005766662 0.0013156497 0.000994768 -0.0018873974
-0.0013693948 0.001370456 -0.0057402416 0.00014126743 0.0020512228 -0.0019136702 0.032055113 0.0014308874
-0.011776686 0.0005342618 -0.002012171 0.0068355566 -0.00043712533 0.00015520507 0.0030773764 0.0047000973
0.008480994 -0.0020105366 -0.00064976554 0.00070722605 -0.0014025769 0.015904615 -0.0047640936 0.0051857946
0.0017209202 0.028715273 0.0008781747 -0.006590987 0.000638127 0.0015369289 0.021518666 -0.0033265734
00000000: 4832 f7ba 1f2f a33c e964 653c f439 8f3c
00000010: ffaf 203d 211e b7ba 76a9 443c 6058 19bb
00000020: d485 ec3a 2a91 b3ba 7d87 283d c131 3739
00000030: 95b2 1e3c 78de 80ba 86a7 c03a c80c c5ba
00000040: c798 d4ba 2dec 003d 4f2d 42bc 2ede 45bb
00000050: ee80 023b 0302 f8ba 28ff cdba 5ba7 113b
00000060: ac0f e13c efb7 93bb 613f 663b 6293 84bb
00000070: 9832 d7b9 c3a0 21ba 6f31 e03c 779c 8d3a
00000080: 36db e738 5904 85bc 18bd 18bb fe35 13bb
00000090: 0f8c 313c 6b1f 52bb ef9f 22bb 163f 7339
000000a0: 48dd aebb ebe1 39bc ea05 bab9 2a54 c038
000000b0: ca1a bcbb 1309 1d3b daf2 e9bb 5e6e d53c
000000c0: 8479 3ebb b512 43bb bc79 cfba 4bc5 6bbb
000000d0: 8f50 adba 337a da3c f0bd 23bb a9d3 aeb9
000000e0: 9379 d339 6c46 543b 2b8a d3ba a8e6 09bb
000000f0: a492 7e3a 5a58 373c f870 973c 48f8 473a
00000100: 96fb aeba 6d2f 9dbb fedb 88ba 07a2 0ebc
00000110: 06ea 213c 8e5f 0b3c 5e9d 423c 2e04 a3bc
00000120: d3f1 563b bd1d c23b 6ee3 a73a d5c6 673b
00000130: 4fb6 e6ba 4cb5 593c 32a8 613c 4c3d cbba
00000140: 1418 3d3c f1bd 19bb 392d 383b cf29 12bc
00000150: 153a 42bb 4d33 423b 9384 b1ba 4c70 f13b
00000160: 6f6a 793b d51d 7eb9 a224 fd3b 1f40 1abb
00000170: 6a2b 17ba e171 ac3a e062 823a 8c62 f7ba
00000180: 447d b3ba dfa0 b33a a318 bcbb 3021 1439
00000190: cf6d 063b 1ed4 faba 394c 033d 9d8c bb3a
000001a0: 00f3 40bc b40d 0c3a a1de 03bb cefc df3b
000001b0: f82d e5b9 8bbe 2239 cfad 493b 4603 9a3b
000001c0: def3 0a3c 35c3 03bb 0755 2aba 2365 393a
000001d0: acd6 b7ba 654a 823c 1d1c 9cbb 99ed a93b
000001e0: 8090 e13a 4b3c eb3c 4e35 663a 35f9 d7bb
000001f0: fa47 273a c772 c93a ea47 b03c a402 5abb
