projects/p2_continuous-control/critic_0.pth (torch_old, 169986 bytes, 5 tensors)

fcs1.weight f4 [256, 33]
-0.044343922 -0.072180696 0.056963466 -0.0003789692 0.07157942 0.14958127 0.14218909 -0.076677494
0.014545946 0.030925894 0.1318289 0.02756027 0.07112837 0.02833712 0.05895954 0.084896065
0.008040495 0.050168548 -0.07885347 -0.2307683 -0.038229164 0.0011071465 0.0039431155 0.035317946
-0.038056493 -0.067027986 -0.06272282 0.10199497 -0.045621242 -0.017402582 -0.17847222 -0.00033269823
0.09132366 -0.03992918 0.013542239 0.039470006 -0.12844038 -0.02399071 -0.29415387 -0.08087318
-0.11709843 0.01333672 -0.1459026 0.0856976 0.038707882 -0.05344022 -0.07575941 0.05512821
0.056658205 -0.07783775 0.024688955 -0.14651297 -0.02722095 -0.1482663 0.04508693 -0.13793707
-0.01312562 0.03329093 0.037356272 -0.038934212 0.09161199 0.043023877 -0.036233135 -0.13349064
-0.012375958 0.005475275 -0.005480415 -0.018926548 0.043816574 -0.04257944 0.18101715 0.010650925
0.18350011 -0.09356857 -0.013170555 -0.11196704 7.924138e-05 -0.112638645 0.0050665196 -0.10975125
-0.03179263 -0.050239485 -0.2256443 0.082074605 -0.065566786 -0.005142458 0.116220206 -0.06738582
0.08815988 0.042163502 -0.021336788 -0.03122114 0.06494067 0.11465612 0.055974465 -0.04752349
-0.0419675 -0.044754617 0.14961086 0.1026544 0.03611438 -0.18345317 -0.10911564 -0.13408002
0.22217356 0.105560735 -0.017711047 0.09196987 0.045956425 0.013892719 -0.012891772 0.0028913724
0.056280877 0.09026437 -0.016182499 0.07216374 -0.053739708 0.26051423 -0.11846189 -0.0086723445
-0.033367574 0.09927893 -0.10434413 0.02023305 -0.08128111 -0.0013796784 -0.014947554 0.119733304
-0.0054629296 -0.056045435 0.06015995 -0.06443368 -0.09960235 -0.06783075 -0.031733923 -0.06273747
-0.016155904 0.14524847 0.02766412 0.037930656 0.07378099 -0.14835612 -0.022632625 0.03253273
0.016517036 -0.09494158 0.036230005 -0.013173027 0.15642528 0.1753073 -0.004906546 0.1217376
0.06791255 -0.009692572 -0.01538935 0.06332231 0.041863322 0.069474794 0.026052393 0.12674533
0.01913212 -0.044462606 -0.11884702 -0.010107763 0.1000212 0.07252748 0.019927805 -0.063703515
0.1422644 0.006891373 0.013977086 -0.15519102 0.05583124 0.10933967 -0.04124406 -0.060574472
0.12438021 -0.04041995 -0.061550256 0.023642661 -0.07374898 -0.05824138 -0.061558258 -0.049386863
0.18936825 -0.009418485 0.11962499 0.049581226 -0.082749784 0.032201197 -0.093474366 -0.13643831
-0.028124794 -0.041184265 -0.013434589 0.024158532 0.062218815 0.080816954 -0.025347702 0.008795428
-0.0016832806 -0.018396348 0.17394844 -0.05347779 -0.06267988 0.026718605 0.07924603 -0.010667467
-0.033055115 0.036124222 0.058447007 -0.07955285 0.02894166 -0.015281847 0.04030525 -0.10212604
0.05345958 0.25658762 -0.03886538 -0.08755978 0.027437545 -0.01846298 0.010280779 0.0072270194
0.03236181 0.104817905 -0.05333282 0.026251227 -0.04895645 0.050494097 -0.03392347 0.017985549
-0.043717515 -0.076787986 0.006068754 -0.040914107 -0.13234386 -0.059874218 0.030079793 -0.07123232
-0.07811574 0.036333114 0.022895552 0.011862753 -0.098240495 -0.04722822 0.030389624 -0.045791235
-0.026076682 -0.09983069 -0.027584877 -0.07167257 -0.0077337907 0.038911644 -0.07750892 0.034760173
00000000: f9a1 35bd 79d3 93bd 8652 693d 63b0 c6b9
00000010: 3b98 923d d52b 193e 049a 113e 1709 9dbd
00000020: 1f52 6e3c 4d58 fd3c 28fe 063e 13c6 e13c
00000030: c0ab 913d 3f23 e83c 8f7f 713d fddd ad3d
00000040: 48bc 033c 897d 4d3d ee7d a1bd 864e 6cbe
00000050: 2f96 1cbd ac1d 913a 4035 813b 8da9 103d
00000060: 20e1 1bbd f845 89bd d274 80bd bde2 d03d
00000070: 57dd 3abd dc8f 8ebc 6cc1 36be 006e aeb9
00000080: e607 bb3d c88c 23bd 44e0 5d3c 4dab 213d
00000090: e085 03be 2a88 c4bc 569b 96be d6a0 a5bd
000000a0: 4dd1 efbd 4282 5a3c 7e67 15be 3982 af3d
000000b0: 288c 1e3d 22e4 5abd c027 9bbd 1ece 613d
000000c0: 6f12 683d 6669 9fbd 7e40 ca3c 7f07 16be
000000d0: 78fe debc 1fd3 17be 13ad 383d 603f 0dbe
000000e0: d70c 57bc 125c 083d e402 193d 7b79 1fbd
000000f0: 119f bb3d ce39 303d 3269 14bd c5b1 08be
00000100: 88c4 4abc f069 b33b 0e95 b3bb d90b 9bbc
00000110: 0279 333d c767 2ebd 8f5c 393e 3881 2e3c
00000120: 74e7 3b3e e1a0 bfbd 50c9 57bc fa4e e5bd
00000130: 642e a638 17af e6bd 0c05 a63b 43c5 e0bd
00000140: fd38 02bd ebc7 4dbd 4d0f 67be bb16 a83d
00000150: e147 86bd 1082 a8bb dc04 ee3d 9401 8abd
00000160: 2b8d b43d a3b3 2c3d 7dca aebc 7ac3 ffbc
00000170: 9dff 843d d4d0 ea3d 7b45 653d fea7 42bd
00000180: 1de6 2bbd 9e50 37bd 9733 193e 783c d23d
00000190: acec 133d 26db 3bbe 0578 dfbd 464c 09be
000001a0: 7781 633e 3a30 d83d c216 91bc b35a bc3d
000001b0: ce3c 3c3d 499e 633c 0338 53bc 2e7d 3d3b
000001c0: c786 663d 87dc b83d 2991 84bc 95ca 933d
000001d0: 2b1e 5cbd 1f62 853e 269c f2bd 7316 0ebc
000001e0: 70ac 08bd c052 cb3d 60b2 d5bd c8bf a53c
000001f0: b676 a6bd 53d6 b4ba 96e6 74bc bc36 f53d
00000200: 6002 b3bb e68f 65bd 486a 763d cef5 83bd
00000210: 51fc cbbd d9ea 8abd 6efb 01bd 817c 80bd
00000220: 6359 84bc 04bc 143e dd9f e23c 2d5d 1b3d
00000230: 7d1a 973d abea 17be 0e68 b9bc 0a41 053d
00000240: bc4e 873c bb70 c2bd ea65 143d aed3 57bc
00000250: f32d 203e c283 333e 17c7 a0bb 9051 f93d
00000260: bc15 8b3d 98cd 1ebc 9d23 7cbc 21af 813d
00000270: e078 2b3d cd48 8e3d d46b d53c 87c9 013e
00000280: f7ba 9c3c 6c1e 36bd 1166 f3bd 089b 25bc
00000290: ead7 cc3d 4a89 943d a33f a33c fd76 82bd
000002a0: c2ad 113e 07d1 e13b 2600 653c 65ea 1ebe
000002b0: 4caf 643d 7aed df3d 88ef 28bd f01c 78bd
000002c0: 0dbb fe3d 648f 25bd 1f1c 7cbd 41ae c13c
000002d0: b509 97bd 838e 6ebd 8324 7cbd e149 4abd
000002e0: c0e9 413e fd4f 1abc f2fd f43d af15 4b3d
000002f0: b878 a9bd 67e5 033d 7d6f bfbd 7cb6 0bbe
00000300: f865 e6bc d5b0 28bd c01c 5cbc 1de8 c53c
00000310: 28d9 7e3d 5c83 a53d fca5 cfbc b31a 103c
00000320: 86a1 dcba f0b3 96bc 8a1f 323e 870b 5bbd
00000330: 4f5e 80bd fae0 da3c be4b a23d 99c6 2ebc
00000340: cd64 07bd fef6 133d 2166 6f3d 9bec a2bd
00000350: 0f17 ed3c b660 7abc 1e17 253d 7527 d1bd
00000360: 6ff8 5a3d 745f 833e 4e31 1fbd 8b52 b3bd
00000370: b4c4 e03c ad3f 97bc b670 283c a2d0 ec3b
00000380: d18d 043d c5aa d63d 8473 5abd d00c d73c
00000390: 8f86 48bd e6d2 4e3d 56f3 0abd 6e56 933c
000003a0: 2311 33bd 0543 9dbd 66dc c63b 8d95 27bd
000003b0: 2685 07be ab3e 75bd e669 f63c 40e2 91bd
000003c0: 25fb 9fbd 08d2 143d 748f bb3c fe5b 423c
000003d0: 5032 c9bd 6172 41bd a9f3 f83c 978f 3bbd
000003e0: c49e d5bc 0874 ccbd aef9 e1bc 12c9 92bd
000003f0: bd6b fdbb d161 1f3d ffbc 9ebd af60 0e3d

fcs1.bias f4 [256]
-0.21755426 0.040201608 0.009816426 -0.15963626 -0.20253795 -0.08552858 -0.15610704 0.023615729
-0.09141512 0.0018537797 -0.11915875 -0.07269178 0.11445822 0.026379313 -0.12106456 -0.17749639
-0.108527794 -0.18935326 -0.22392397 0.008799883 0.09804753 0.02338797 -0.047915414 -0.0040879413
-0.07871121 -0.21404752 0.031017205 -0.05320528 -0.03325421 -0.110920765 -0.043222733 -0.21073253
0.035225254 -0.043023054 0.06101536 -0.19251595 -0.019150048 0.07890598 -0.2836335 -0.07154311
-0.17724349 0.03855624 -0.001933585 -0.0611595 -0.19745962 -0.016558532 -0.18101512 -0.1007232
-0.1401409 -0.021989658 -0.10771527 -0.05023349 -0.03992871 -0.28315994 -0.02704245 -0.08778887
-0.25853074 -0.036571234 0.019681083 0.11976034 0.09998531 0.02691061 -0.09169789 -0.14047611
-0.061518222 -0.22064807 -0.0601544 -0.2788172 -0.17804739 0.035770383 -0.21250531 -0.019869214
-0.070309 -0.08866345 0.056531325 0.08782742 -0.15316671 -0.23146725 -0.18351474 -0.05911586
0.06661895 -0.13171484 -0.26520872 -0.114210896 0.0730632 -0.16934638 0.07769026 0.037236437
-0.20091975 0.02970779 -0.2966537 0.008143285 -0.013652912 -0.25756937 0.00016045447 -0.2634285
-0.19005136 -0.037937637 -0.22211942 -0.2299987 -0.20721655 -0.12612443 0.019813852 -0.23137484
-0.065629624 -0.10362852 -0.100608476 -0.21317393 -0.102541745 -0.17963004 0.06747024 -0.09659055
-0.21537615 -0.24037616 0.007739815 -0.33837098 0.03181921 -0.18344459 -0.08068197 -0.18280289
-0.19881624 -0.13283631 0.036209714 -0.07261952 -0.24047317 -0.02503756 -0.1532644 -0.04145796
-0.26226255 -0.01945938 0.020219795 -0.032384135 -0.032529555 0.05543622 -0.08658985 -0.11573963
-0.06819638 0.011532613 -0.09452034 -0.13963138 -0.26373073 -0.23196596 -0.12483957 -0.205985
0.012841229 -0.21225603 -0.12077583 0.086988606 -0.15617329 -0.066906914 -0.28588656 -0.18090165
-0.21971914 -0.21118936 -0.24661504 -0.15641709 0.08474306 -0.1840136 0.12938285 0.11422504
-0.22573802 -0.11278965 -0.078293934 -0.0900492 0.10068925 -0.008681933 0.048793413 0.09855069
0.028466513 0.0058716657 -0.09781594 -0.057873566 -0.08285788 0.084513344 -0.1360574 0.043271203
-0.011549319 -0.10855394 0.098429 -0.23619498 -0.17893776 -0.14252803 -0.08315224 -0.1413029
-0.14484315 0.028251141 -0.12820219 -0.08551968 -0.1858607 -0.10335476 0.045864794 -0.1921933
0.097166725 -0.13637166 -0.070902936 -0.094776876 0.05473527 -0.17909613 0.025158325 -0.09295767
-0.22569092 -0.19453673 -0.18987405 -0.09677646 0.017397199 0.064461164 -0.082720675 0.051526222
-0.1205959 -0.19943099 -0.22806402 -0.18543307 -0.24571839 -0.07717423 -0.18992655 -0.033943616
-0.06959642 -0.020559859 0.00919584 -0.118405245 0.0031137175 -0.15261975 -0.005170674 0.14863212
0.045982584 -0.08126392 -0.17690136 -0.17153814 -0.12822339 -0.022438763 0.11573102 -0.16016246
-0.17299438 0.06807852 -0.12607296 0.0019303891 -0.06652191 -0.010346705 -0.17575513 0.08300974
0.0759728 -0.042670876 -0.15449212 -0.20244245 -0.2191878 -0.18180007 -0.14503363 -0.14922972
0.103190325 -0.06431108 -0.113729805 -0.21307527 0.04502953 -0.18205696 -0.08023335 -0.07053255
00000000: 8bc6 5ebe 71aa 243d 13d5 203c b077 23be
00000010: 1c66 4fbe 9c29 afbd 86da 1fbe c675 c13c
00000020: da37 bbbd 86fa f23a 8109 f4bd 6edf 94bd
00000030: 1269 ea3d 6e19 d83c b2f0 f7bd 9dc1 35be
00000040: d243 debd d2e5 41be 534c 65be 622d 103c
00000050: 25cd c83d 2198 bf3c f442 44bd 23f4 85bb
00000060: 5833 a1bd 462f 5bbe cb17 fe3c c8ed 59bd
00000070: 9135 08bd 6d2a e3bd 520a 31bd 45ca 57be
00000080: 5b48 103d f138 30bd 3eeb 793d e722 45be
00000090: 90e0 9cbc 7599 a13d 6938 91be 3285 92bd
000000a0: 517f 35be 26ed 1d3d 5970 fdba 6282 7abd
000000b0: db32 4abe c2a5 87bc 075c 39be f747 cebd
000000c0: 1981 0fbe a823 b4bc d399 dcbd a2c1 4dbd
000000d0: 498c 23bd 57fa 90be 2188 ddbc a7ca b3bd
000000e0: 245e 84be b8cb 15bd 393a a13c e944 f53d
000000f0: 19c5 cc3d a473 dc3c 1acc bbbd f8d8 0fbe
00000100: 88fa 7bbd 91f1 61be 7664 76bd 21c1 8ebe
00000110: 0e52 36be f783 123d fe9a 59be c3c4 a2bc
00000120: 2afe 8fbd 2f95 b5bd 648d 673d ddde b33d
00000130: bcd7 1cbe c005 6dbe 4aeb 3bbe 7923 72bd
00000140: 846f 883d 41e0 06be 70c9 87be 67e7 e9bd
00000150: 29a2 953d 2369 2dbe 121c 9f3d 3c85 183d
00000160: e8bd 4dbe c05d f33c fee2 97be 6a6b 053c
00000170: 77b0 5fbc 22e0 83be ab3f 2839 1ae0 86be
00000180: d39c 42be 7f64 1bbd 4673 63be c784 6bbe
00000190: 9330 54be c326 01be a950 a23c 87ed 6cbe
000001a0: d368 86bd 313b d4bd d10b cebd 444a 5abe
000001b0: 6801 d2bd f0f0 37be d62d 8a3d 44d1 c5bd
000001c0: 918b 5cbe 2b25 76be 469e fd3b f63e adbe
000001d0: dc54 023d e6d8 3bbe 973c a5bd ae30 3bbe
000001e0: 7c96 4bbe 3e06 08be a350 143d 8bb9 94bd
000001f0: 993e 76be 921b cdbc 58f1 1cbe d2cf 29bd
00000200: 4747 86be 4769 9fbc fca3 a53c 3aa5 04bd
00000210: b63d 05bd 1711 633d 0556 b1bd e608 edbd
00000220: 8baa 8bbd 49f3 3c3c e193 c1bd 87fb 0ebe
00000230: b707 87be 7c88 6dbe e3ab ffbd bbed 52be
00000240: 0564 523c a559 59be 5159 f7bd 1527 b23d
00000250: e4eb 1fbe 7e06 89bd b95f 92be 483e 39be
00000260: 0efe 60be 0642 58be a788 7cbe cd2b 20be
00000270: c58d ad3d 106e 3cbe f07c 043e d1ee e93d
00000280: de27 67be 43fe e6bd 9258 a0bd b76b b8bd
00000290: 2a36 ce3d ab3e 0ebc 9adb 473d f2d4 c93d
000002a0: 9b32 e93c 1a67 c03b b953 c8bd d50c 6dbd
000002b0: 64b1 a9bd 5515 ad3d a252 0bbe 253d 313d
000002c0: 5b39 3dbc 8751 debd 2595 c93d 19dd 71be
000002d0: 763b 37be def2 11be b94b aabd b5b1 10be
000002e0: c351 14be f06e e73c 6f47 03be f124 afbd
000002f0: 4452 3ebe a9ab d3bd b9dc 3b3d 52ce 44be
00000300: 59ff c63d 03a5 0bbe 8f35 91bd 611a c2bd
00000310: 1732 603d fa64 37be d518 ce3c 9760 bebd
00000320: 851b 67be a334 47be 586e 42be bd32 c6bd
00000330: 9284 8e3c 3704 843d 7569 a9bd 290d 533d
00000340: fcfa f6bd a337 4cbe 9d89 69be 2be2 3dbe
00000350: 9a9d 7bbe 860d 9ebd 1b7c 42be 7608 0bbd
00000360: 9188 8ebd 266d a8bc 26aa 163c 737e f2bd
00000370: 830f 4c3b 5a48 1cbe c26e a9bb 0533 183e
00000380: 3c58 3c3d b36d a6bd a125 35be b2a7 2fbe
00000390: fe4c 03be 7fd1 b7bc 6304 ed3d a101 24be
000003a0: 7025 31be c06c 8b3d 4519 01be 1c05 fd3a
000003b0: a43c 88bd 3a85 29bc 27f9 33be 0301 aa3d
000003c0: a197 9b3d a8c7 2ebd 2f33 1ebe 134d 4fbe
000003d0: c472 60be cc29 3abe b283 14be adcf 18be
000003e0: 7355 d33d 87b5 83bd 2ceb e8bd 6730 5abe
000003f0: e270 383d 246d 3abe 6251 a4bd 5f73 90bd

fc2.weight f4 [128, 260]
0.03229831 -0.06997562 -0.08177996 0.023435848 -0.0333849 -0.040694743 0.00011463754 -0.15321545
-0.06612473 -0.029576292 -0.092986606 -0.092992246 0.037417423 0.017960688 -0.17443441 -0.12693726
-0.11846318 0.042722657 -0.058611065 -0.07725541 0.073364444 0.00049128925 0.07820813 0.005506169
-0.017977817 -0.011485595 -0.088288605 0.029038034 -0.096132055 0.040908534 -0.070795305 -0.052661423
-0.073683575 0.04499579 -0.09272564 -0.04433561 -0.16183239 0.05801988 -0.106650226 -0.058083568
-0.08679097 -0.0763507 0.0019504075 0.0023065347 -0.01564523 -0.08012282 -0.06678859 -0.16925141
0.08263952 -0.087751664 0.025657548 -0.0692321 0.023913678 -0.06654977 -0.14484529 0.04920743
-0.17083667 -0.16998553 0.0474404 -0.084268734 0.026015181 -0.12838443 -0.09130431 0.0036886234
-0.0046012686 -0.10701809 -0.027028963 -0.0585047 -0.15591118 0.11015995 0.0156684 -0.08497946
-0.00018867679 0.08893083 -0.041180495 0.0053076996 -0.013796762 -0.02334119 -0.06605773 0.01155323
-0.17965168 -0.015509038 0.041468035 0.0026947958 -0.0502114 -0.07510763 -0.09664004 0.038505327
-0.08395991 -0.051612675 -0.13698292 0.06869091 0.031586103 -0.059700046 -0.008676729 0.04936379
0.051015835 -0.029959032 0.033140123 0.07034646 -0.03360515 0.09323049 -0.053453248 -0.09835058
0.03498296 -0.01041475 -0.06187991 0.0501032 -0.119475976 -0.022802446 -0.048668496 0.041625682
0.029787665 0.112407364 0.0152219 0.013809873 -0.122220404 0.035006694 -0.013488536 -0.0869857
0.09770479 0.028071104 -0.17048669 0.048279054 0.0065182154 -0.14509614 -0.026768338 -0.010502728
0.013551064 -0.017202357 -0.08357215 0.01223004 -0.02425856 0.08899939 -0.0142075475 -0.0013700584
0.06372249 -0.026086885 0.06391503 -0.023565408 -0.065423734 0.017096996 -0.037158076 -0.019612646
-0.01863789 0.011439626 -0.12287891 0.03818983 0.03942665 -0.04740942 -0.029561436 0.031061374
-0.030085972 0.039833102 -0.10181102 -0.036395054 0.03077675 -0.049251623 -0.13477315 0.032399252
-0.057061184 0.006667393 -0.08888987 -0.06973053 0.008824029 0.052848905 0.05487046 -0.27751777
-0.006733765 -0.1540587 0.017123593 -0.048409607 -0.08271265 0.015468708 -0.09397899 -0.1478984
0.042328123 0.058443632 0.061678477 0.047851525 0.03988195 -0.040159203 0.0025979138 -0.09196111
0.0031715904 -0.08159998 -0.10324904 -0.020552896 -0.086685024 -0.11188216 0.012429321 -0.075376846
0.033335764 0.066043526 -0.04332957 -0.09254791 -0.004253305 -0.17167892 -0.040023126 -0.032501414
-0.017705673 -0.019329123 -0.046550207 -0.03803054 -0.113461465 -0.033581063 -0.0038187897 -0.066492386
-0.0045181345 -0.029574016 -0.11255424 -0.05902919 -0.09757471 -0.06830968 -0.03415345 0.040717464
-0.0054162852 0.09213705 0.0073346472 -0.103414364 -0.060854893 0.07545918 -0.053584088 0.10217018
0.02545205 0.049747705 -0.03298481 -0.10291314 -0.08334095 -0.069747016 -0.10689513 -0.047953397
0.04252503 -0.03355985 -0.061517354 -0.040973812 -0.0012722791 -0.06478387 -0.10011774 0.018058257
-0.016225424 -0.012269194 0.026131455 -0.011831317 -0.047544647 -0.06517337 -0.11113266 -0.1305641
0.029962707 0.030447558 -0.10503531 -0.060194097 -0.090605065 -0.064667456 -0.051351994 0.0039075445
00000000: 3c4b 043d 614f 8fbd 407c a7bd 89fc bf3c
00000010: 9bbe 08bd 88af 26bd 9069 f038 83e4 1cbe
00000020: 676c 87bd fb49 f2bc c36f bebd b872 bebd
00000030: 0343 193d 4b22 933c ef9e 32be d7fb 01be
00000040: d39c f2bd f4fd 2e3d 2812 70bd 1638 9ebd
00000050: 1940 963d ddc9 003a 962b a03d 186d b43b
00000060: 3746 93bc 142e 3cbc a8d0 b4bd 2ce1 ed3c
00000070: e2e0 c4bd b58f 273d 21fd 90bd 81b3 57bd
00000080: 6ae7 96bd 814d 383d f1e6 bdbd 4299 35bd
00000090: 64b7 25be 41a6 6d3d 6f6b dabd 09e9 6dbd
000000a0: 77bf b1bd c15d 9cbd d1a4 ff3a 3b29 173b
000000b0: 6d2a 80bc 6f17 a4bd 75c8 88bd 3e50 2dbe
000000c0: e93e a93d 25b7 b3bd c72f d23c 8fc9 8dbd
000000d0: 9ee6 c33c 3f4b 88bd 5352 14be bb8d 493d
000000e0: cfef 2ebe b010 2ebe dd50 423d 1695 acbd
000000f0: ca1d d53c 3577 03be c1fd babd d5bc 713b
00000100: 3dc6 96bb 4d2c dbbd d86b ddbc a0a2 6fbd
00000110: 2ea7 1fbe 8a9b e13d 045b 803c b609 aebd
00000120: 8ad7 45b9 5e21 b63d e1ac 28bd 36ec ad3b
00000130: d00b 62bc 0636 bfbc 4649 87bd c249 3d3c
00000140: 9cf6 37be 9f19 7ebc 63da 293d 2c9b 303b
00000150: 78aa 4dbd 07d2 99bd 37eb c5bd c3b7 1d3d
00000160: 2cf3 abbd d067 53bd 4045 0cbe d2ad 8c3d
00000170: 6e60 013d 0988 74bd d728 0ebc af31 4a3d
00000180: fbf5 503d a56c f5bc f0bd 073d ce11 903d
00000190: 8ea5 09bd a1ef be3d cbf1 5abd 076c c9bd
000001a0: 4b4a 0f3d a1a2 2abc ca75 7dbd 0339 4d3d
000001b0: d2af f4bd 32cc babc 9e58 47bd b17f 2a3d
000001c0: 4305 f43c d535 e63d 4765 793c ce42 623c
000001d0: b14e fabd 2e63 0f3d 05ff 5cbc 8f25 b2bd
000001e0: 7319 c83d 5ff5 e53c 1094 2ebe 42c0 453d
000001f0: c196 d53b 1594 14be 4649 dbbc a213 2cbc
00000200: 4805 5e3c f5eb 8cbc e027 abbd 8160 483c
00000210: e3b9 c6bc 5045 b63d c6c6 68bc 8893 b3ba
00000220: f080 823d 2ab4 d5bc e2e5 823d 3e0c c1bc
00000230: e1fc 85bd 000f 8c3c 1133 18bd b3aa a0bc
00000240: 7dae 98bc 456d 3b3c f0a7 fbbd f06c 1c3d
00000250: d77d 213d 6130 42bd d32a f2bc 6c74 fe3c
00000260: db76 f6bc 0928 233d 4c82 d0bd fb12 15bd
00000270: 861f fc3c 12bc 49bd f901 0abe 14b5 043d
00000280: fdb8 69bd 257a da3b e40b b6bd e1ce 8ebd
00000290: a992 103c 1878 583d d9bf 603d cf16 8ebe
000002a0: eaa6 dcbb 90c1 1dbe c746 8c3c 2749 46bd
000002b0: 4065 a9bd 7770 7d3c 0f78 c0bd ae72 17be
000002c0: 4160 2d3d 9762 6f3d 92a2 7c3d f6ff 433d
000002d0: 415b 233d fa7d 24bd c341 2a3b 1b56 bcbd
000002e0: 75da 4f3b e41d a7bd 3c74 d3bd 8c5e a8bc
000002f0: eb87 b1bd 7922 e5bd 5aa4 4b3c 2d5f 9abd
00000300: 158b 083d d441 873d 597a 31bd c289 bdbd
00000310: 4f5f 8bbb 99cc 2fbe 4aef 23bd 3420 05bd
00000320: 7d0b 91bc 1c58 9ebc 6eab 3ebd e9c5 1bbd
00000330: 7c5e e8bd 4c8c 09bd a944 7abb 292d 88bd
00000340: dc0c 94bb 3545 f2bc d682 e6bd 98c8 71bd
00000350: 40d5 c7bd f2e5 8bbd 7de4 0bbd 5bc7 263d
00000360: 187b b1bb 5ab2 bc3d 7b57 f03b e9ca d3bd
00000370: fb42 79bd 588a 9a3d fd7a 5bbd 993e d13d
00000380: d180 d03c 40c4 4b3d 151b 07bd 20c4 d2bd
00000390: a9ae aabd 86d7 8ebd d5eb dabd c86a 44bd
000003a0: ba2e 2e3d 0e76 09bd 9ff9 7bbd 28d4 27bd
000003b0: 9ac2 a6ba 68ad 84bd 880a cdbd e9ee 933c
000003c0: 2eeb 84bc bb04 49bc a211 d63c 24d8 41bc
000003d0: 2dbe 42bd 9e79 85bd 8599 e3bd 98b2 05be
000003e0: 5a74 f53c 286d f93c c11c d7bd 168e 76bd
000003f0: 268f b9bd 5f70 84bd 7856 52bd dc0a 803b

fc2.bias f4 [128]
0.014909514 0.019832632 0.04232408 -0.048714448 0.065886706 -0.0011664338 -0.04958663 -0.06388546
-0.058147173 -0.034906786 -0.0584599 -0.05301661 0.018688658 0.030208945 -0.020220045 -0.06986004
-0.023247028 0.09020312 -0.03892171 -0.0039909123 -0.034529917 0.035265498 -0.08338584 -0.038555656
-0.11045591 0.033944078 -0.03169898 -0.01689935 -0.051360685 0.051324096 0.0009816542 -0.019185046
-0.045442875 -0.04413576 -0.04671088 -0.036048215 0.060182035 -0.006823849 -0.040317994 -0.036934003
-0.018435165 -0.0036626917 -0.044291005 -0.03909943 0.027367258 -0.028295323 -0.0066908603 -0.07916797
-0.07380834 -0.024174912 -0.06715982 -0.03388159 0.009530742 0.1866903 0.013314153 -0.012433598
-0.07503125 -0.070755295 0.027266946 -0.0030484595 -0.07308587 -0.078145064 -0.032378443 -0.05782772
-0.04142849 -0.014006408 0.017899789 -0.06827729 0.018089313 -0.0683766 -0.007048368 0.006516095
-0.018290024 -0.0401925 -0.053058144 0.024750099 -0.052949466 0.07588449 0.0014643938 -0.0028527076
-0.08012709 0.0035709466 -0.046911743 -0.035310928 -0.12367625 -0.07521676 -0.08387241 -0.1097237
0.013530502 -0.04959024 0.002296438 0.030614655 0.015517225 0.03216988 0.03778734 -0.02963721
-0.049453843 0.022409502 -0.078669526 -0.031716682 -0.03537185 -0.033990663 -0.06204517 -0.044994887
-0.0659412 -0.0775623 -0.026271075 -0.013006105 -0.038423505 -0.0014383225 -0.0742504 -0.005510703
0.0293122 -0.04807139 -0.0014471574 0.007252893 0.01562815 -0.025096394 0.0074689635 -0.09073769
-0.01992152 0.05822001 -0.089253716 -0.004605839 -0.030975303 -0.024891505 0.042505775 0.0047890376
00000000: 0947 743c 0b78 a23c 045c 2d3d cd88 47bd
00000010: 9cef 863d 06e3 98ba 5a1b 4bbd 61d6 82bd
00000020: bb2b 6ebd 6bfa 0ebd a673 6fbd f227 59bd
00000030: f518 993c c078 f73c 82a4 a5bc c812 8fbd
00000040: 8d70 bebc 6abc b83d 5f6c 1fbd 33c6 82bb
00000050: 3e6f 0dbd 8e72 103d 32c6 aabd 89ec 1dbd
00000060: b536 e2bd f208 0b3d cad6 01bd 8170 8abc
00000070: 955f 52bd 3739 523d d9aa 803a f529 9dbc
00000080: 4f22 3abd b3c7 34bd e853 3fbd 4ba7 13bd
00000090: 7081 763d 989a dfbb 7b24 25bd 1c48 17bd
000000a0: 5805 97bc c509 70bb 7c6a 35bd b926 20bd
000000b0: 4d31 e03c 98cb e7bc 013f dbbb d122 a2bd
000000c0: d428 97bd 770a c6bc 168b 89bd 6cc7 0abd
000000d0: d426 1c3c be2b 3f3e 9b23 5a3c 4ab6 4bbc
000000e0: fca9 99bd 27e8 90bd ee5e df3c aac8 47bb
000000f0: 0bae 95bd 850a a0bd 429f 04bd c2dc 6cbd
00000100: ecb0 29bd 227b 65bc 94a2 923c f7d4 8bbd
00000110: 0a30 943c 0809 8cbd fff5 e6bb f784 d53b
00000120: f6d4 95bc e4a0 24bd 7f53 59bd b8c0 ca3c
00000130: 8ae1 58bd 5469 9b3d e7f0 bf3a 7ef4 3abb
00000140: ac19 a4bd 8b06 6a3b 8726 40bd 31a2 10bd
00000150: f949 fdbd 3f0b 9abd 4cc5 abbd d2b6 e0bd
00000160: 0aaf 5d3c 231f 4bbd d67f 163b 96cb fa3c
00000170: f53b 7e3c 90c4 033d e6c6 1a3d bcc9 f2bc
00000180: 1d90 4abd 2294 b73c 7d1d a1bd 5ae9 01bd
00000190: 13e2 10bd cb39 0bbd 1423 7ebd 8f4c 38bd
000001a0: 2e0c 87bd fcd8 9ebd 7036 d7bc 8f17 55bc
000001b0: f761 1dbd 1886 bcba 9810 98bd 2193 b4bb
000001c0: 2420 f03c 81e6 44bd 8bae bdba ada9 ed3b
000001d0: 9b06 803c f496 cdbc 35be f43b afd4 b9bd
000001e0: 7532 a3bc 1b78 6e3d a7ca b6bd 94ec 96bb
000001f0: ebbf fdbc 45e9 cbbc 891a 2e3d 5ced 9c3b

fc3.weight f4 [1, 128]
-0.0023299523 0.01991993 0.021337794 0.016314758 0.03682365 -0.0020005598 0.0064617037 -0.0010147898
7.561795e-05 0.004509774 0.041144837 0.0018105138 0.019225862 -0.0009831926 0.0015973918 -0.0030921032
-0.0016166266 0.028914081 -0.011851623 0.0017939328 0.0019913274 -0.00348228 -0.0004446716 0.002153093
0.02788343 -0.0029476786 0.00062147266 0.0016698727 0.0002831371 -0.003866609 0.0252087 -0.003893107
0.0002826964 -0.016112806 -0.0024475222 0.0068720635 0.022194363 6.7089386e-06 -0.0043745204 0.00023197787
-0.0053364374 -0.011345367 0.0003281455 -0.0012511121 -0.0069554453 0.0010760307 -0.0071649197 0.019196585
-0.0027570443 -0.0028214033 -0.0017114369 -0.0020722596 -0.0039405157 0.040964648 -0.0005640302 0.0004062035
-0.0006470093 0.0002940029 0.0030473806 -0.00191982 -0.0006402216 0.009428332 0.014660094 0.00034828522
0.0014889704 0.0045776884 0.0036212082 -0.0087056225 0.009882456 0.008506669 0.0021791372 -0.014921597
0.0032797947 -0.0060715247 0.00017889524 0.002213443 -0.0011651914 0.025179455 0.013773011 0.00039613942
0.011541385 -0.0024339058 0.0027157187 -0.008921101 -0.004340016 0.0030090273 -0.0043293224 0.0069923964
0.008380369 0.0035689871 0.0066860793 -0.00041792952 0.0033235077 -0.00070048525 0.000994768 -0.0027743948
0.0012312393 -0.003751698 -0.0056763515 0.003007299 0.0023986404 -0.0019136702 0.012376462 -0.0012651916
-0.011776686 -0.0010442552 -0.016343681 -0.01856715 -0.00043712533 0.0002554512 0.0019411972 0.004645958
0.014353861 -0.004373151 -2.5462976e-05 0.00070722605 -0.007501978 -0.002339405 -0.008294363 -0.0031010488
-1.6543108e-05 0.027562443 0.00081649225 -0.006540451 0.0007032175 0.015239551 0.014782984 -0.004179181
00000000: 1db2 18bb 1f2f a33c 99cc ae3c 87a6 853c
00000010: 65d4 163d d31b 03bb b3bc d33b b202 85ba
00000020: 1495 9e38 bac6 933b 7d87 283d c34e ed3a
00000030: 8e7f 9d3c 78de 80ba 935f d13a e2a4 4abb
00000040: fde4 d3ba 39dd ec3c 4f2d 42bc 6522 eb3a
00000050: ee80 023b f736 64bb d022 e9b9 e81a 0d3b
00000060: ca6b e43c d72d 41bb 53ea 223a a1df da3a
00000070: 0572 9439 ef66 7dbb 7a82 ce3c 7f23 7fbb
00000080: de36 9439 01ff 83bc 9c66 20bb 0c2f e13b
00000090: f4d0 b53c 581d e136 2358 8fbb 163f 7339
000000a0: 48dd aebb ebe1 39bc f20a ac39 5bfc a3ba
000000b0: 81ea e3bb 9909 8d3a b4c7 eabb 2842 9d3c
000000c0: 87af 34bb 4be7 38bb 4b52 e0ba bfce 07bb
000000d0: 711f 81bb 8cca 273d 6ddb 13ba b6f7 d439
000000e0: 0f9c 29ba 6724 9a39 90b6 473b 78a2 fbba
000000f0: 8bd4 27ba 4a79 1a3c e430 703c 0d9a b639
00000100: 8e29 c33a 6f00 963b cb51 6d3b 07a2 0ebc
00000110: 06ea 213c 8e5f 0b3c dbcf 0e3b b779 74bc
00000120: d3f1 563b a4f3 c6bb d395 3b39 690f 113b
00000130: 56b9 98ba 2545 ce3c 32a8 613c efb0 cf39
00000140: 1418 3d3c 2a82 1fbb 33fa 313b cf29 12bc
00000150: b136 8ebb 1a33 453b fddc 8dbb 7920 e53b
00000160: d14d 093c abe5 693b e616 db3b 8d1d dbb9
00000170: 35cf 593b c5a0 37ba e062 823a 9fd2 35bb
00000180: 8961 a13a 0cdf 75bb b000 babb 1b16 453b
00000190: 8232 1d3b 1ed4 faba a5c6 4a3c c9d4 a5ba
000001a0: 00f3 40bc 64df 88ba 2fe3 85bc 231a 98bc
000001b0: f82d e5b9 14ee 8539 c56f fe3a 1f3d 983b
000001c0: 752c 6b3c a64c 8fbb 5399 d5b7 2365 393a
000001d0: 27d3 f5bb b450 19bb 14e5 07bc f73a 4bbb
000001e0: 0ec6 8ab7 a2ca e13c de09 563a 4851 d6bb
000001f0: 2158 383a 4faf 793c 5434 723c 83f1 88bb
