projects/p1_navigation/checkpoint.pth (torch_old, 28423 bytes, 6 tensors)

fc1.weight f4 [64, 37]
-0.013126813 -0.10856577 -0.035794053 -0.10643573 -0.054949943 -0.23083492 0.057220176 0.13426931
0.114980325 -0.47346658 0.096117996 0.0137992725 -0.17453393 -0.034269046 -0.028353093 -0.116109125
-0.026292115 0.04711645 0.18181697 -0.19293892 0.17250979 -0.329215 -0.051547155 -0.2652724
0.15211438 -0.21560936 0.23953205 -0.15249173 -0.3094648 -0.229935 -0.3644728 -0.004720003
0.10532124 -0.45645523 -0.087978005 -0.088056944 0.051854476 -0.06335153 0.051188678 0.04339962
0.014655715 -0.33255237 -0.11244288 -0.1382902 -0.1795719 -0.17468454 0.047234148 -0.24087532
-0.028121775 -0.11356928 0.2669003 0.066104546 -0.7867333 0.09673714 0.34312963 -0.14268118
-0.4306476 -0.22323255 0.2795054 -0.43713287 0.04819962 0.33446002 0.09000015 -0.2992626
-0.19535011 -0.13971154 0.31498176 -0.017964039 -0.09728667 -0.1951211 0.07399734 0.12858544
-0.047954414 -0.02572232 0.045529723 -0.0204678 0.10336667 -0.2672633 -0.3025863 -0.7548597
0.36514544 0.24087436 0.035471063 -0.22003198 0.22620879 -0.063711904 0.018419527 -0.18791108
0.18293244 0.26027817 -0.68409485 -0.062139947 -0.6554132 -0.90689945 -0.11800875 -0.08640087
0.052248266 -0.08767593 0.20877317 -0.080368005 -0.086036325 -0.024356626 -0.29947236 -1.435592
-0.01838051 -0.032155596 -0.08517332 0.10255083 -0.23090532 0.023199169 0.016020805 0.054066822
0.0053714514 -0.11855355 -0.31774423 0.020142617 -0.14711137 -0.69487864 0.100106366 -0.48201093
-0.113685586 -0.20724408 -0.10431969 0.06429818 0.017248735 -0.3111485 -0.25084695 -0.10215002
-0.50844264 0.02972106 -0.24759048 -0.17081045 -0.07740065 -0.23892923 -0.41466 -0.011568517
-0.24178599 -0.15772164 -0.024824226 -0.61897635 -0.023068782 -0.02176963 -0.11840222 0.07123892
-0.59398365 -0.5553936 -0.20867883 -0.08603514 -0.30899686 -0.018336156 0.07304615 0.028758325
0.28526005 -0.25806233 0.165433 0.115911186 -0.1402421 -0.1351764 0.04018262 0.047851823
-0.09269258 0.14162946 0.35032058 -0.39432 -0.06722167 0.022196922 -0.013244751 0.0682432
-0.034624044 0.03882613 0.11096211 0.24200124 0.076562345 -0.17272964 0.19559765 0.09829092
0.28946766 0.09451068 -0.22452573 -0.007411752 0.1985218 -0.041889355 -0.11866372 -0.019126276
-0.022893662 -0.6006005 0.1515057 0.14470021 0.26839602 -0.5426385 0.03449208 -0.021596037
0.0686009 -0.058333043 0.06603724 0.019544253 -0.10512602 -0.08496294 0.083703876 0.0533451
-0.6457767 0.102755815 0.118958734 -0.04563008 -0.43673062 0.057268523 -0.025665652 0.09561876
0.001896101 -0.13980816 -0.19970283 0.26683974 0.08505047 0.030098207 0.06746795 -0.045276515
-0.056405805 0.052011296 -0.15975535 0.09175374 0.04658279 -0.021809835 0.103283 0.12008885
0.10757298 -0.055505954 -0.14859445 0.108748004 0.14936934 -0.06038375 -0.013793222 -0.22523394
0.07657221 0.093627065 -0.034368794 -0.121948995 -0.08789598 -0.0478304 0.06361024 0.10135619
-0.071579345 -0.2527958 0.014516523 -0.06832428 0.05588963 0.12390511 0.11292162 -0.24823283
-0.10278879 0.025361188 0.23823036 0.24366264 0.21842219 -0.12840526 -0.07824847 -0.044228178
00000000: d811 57bc bb57 debd c99c 12bd fafa d9bd
00000010: 3113 61bd fd5f 6cbe b45f 6a3d e57d 093e
00000020: ce7a eb3d 366a f2be 83d9 c43d 5816 623c
00000030: 06b9 32be b35d 0cbd bf44 e8bc 9fca edbd
00000040: 9062 d7bc 2efd 403d 3a2e 3a3e c891 45be
00000050: 68a6 303e de8e a8be 1c23 53bd c9d1 87be
00000060: dfc3 1b3e b3c8 5cbe e447 753e cb26 1cbe
00000070: 2c72 9ebe 1574 6bbe 2e9c babe 41aa 9abb
00000080: aab2 d73d 80b4 e9be d02d b4bd 3357 b4bd
00000090: 5c65 543d 72be 81bd 38ab 513d cdc3 313d
000000a0: 861e 703c 4e44 aabe 7448 e6bd f29b 0dbe
000000b0: b2e1 37be 81e0 32be 9878 413d 05a8 76be
000000c0: a35f e6bc 0397 e8bd 28a7 883e d261 873d
000000d0: 5b67 49bf 1f1e c63d b0ae af3e 041b 12be
000000e0: d87d dcbe 1397 64be 551b 8f3e e1cf dfbe
000000f0: f76c 453d 583e ab3e 0052 b83d f338 99be
00000100: dc09 48be 8b10 0fbe 4a45 a13e 5229 93bc
00000110: 3c3e c7bd d3cd 47be eb8b 973d e7ab 033e
00000120: d96b 44bd 9db7 d2bc 607d 3a3d 16ac a7bc
00000130: e8b1 d33d bcd6 88be 97ec 9abe 7c3e 41bf
00000140: 58f4 ba3e c5a7 763e 1b4a 113d 1050 61be
00000150: 47a3 673e 637b 82bd 8ce4 963c c36b 40be
00000160: a452 3b3e 2e43 853e d720 2fbf 7586 7ebd
00000170: 29c9 27bf 902a 68bf 92ae f1bd f0f2 b0bd
00000180: 4702 563d 708f b3bd a2c8 553e fb97 a4bd
00000190: d033 b0bd 8c87 c7bc 7154 99be 7bc1 b7bf
000001a0: b992 96bc 96b5 03bd 596f aebd 2b06 d23d
000001b0: 7272 6cbe 2f0c be3c 103e 833c 2c75 5d3d
000001c0: 0003 b03b 34cc f2bd 5faf a2be 2102 a53c
000001d0: 5da4 16be 91e3 31bf 9104 cd3d 23ca f6be
000001e0: fdd3 e8bd cb37 54be 90a5 d5bd c4ae 833d
000001f0: 384d 8d3c db4e 9fbe 036f 80be 0834 d1bd
00000200: 4c29 02bf 9579 f33c 5c88 7dbe efe8 2ebe
00000210: 3b84 9ebd dda9 74be 514e d4be e189 3dbc
00000220: bf96 77be c881 21be 2d5c cbbc 3c75 1ebf
00000230: befa bcbc 3956 b2bc dd7c f2bd b6e5 913d
00000240: 500f 18bf 462e 0ebf e7af 55be 3133 b0bd
00000250: d634 9ebe b535 96bc 3899 953d 9496 eb3c
00000260: 9b0d 923e bf20 84be 4567 293e d862 ed3d
00000270: a09b 0fbe af6b 0abe 8896 243d 4600 443d
00000280: 9bd5 bdbd 5007 113e 385d b33e 50e4 c9be
00000290: 84ab 89bd 52d6 b53c 8300 59bc 17c3 8b3d
000002a0: f1d1 0dbd 2608 1f3d 1a40 e33d 2ccf 773e
000002b0: b8cc 9c3d 0ae0 30be c04a 483e c04c c93d
000002c0: 1b35 943e d18e c13d 13ea 65be 48de f2bb
000002d0: 4c49 4b3e 2c94 2bbd f705 f3bd b5ae 9cbc
000002e0: 7d8b bbbc f4c0 19bf 4f24 1b3e 4b2c 143e
000002f0: 346b 893e 5bea 0abf 9147 0d3d 2cea b0bc
00000300: a17e 8c3d a1ee 6ebd 883e 873d 451b a03c
00000310: 504c d7bd 0d01 aebd f06c ab3d 6480 5a3d
00000320: 9f51 25bf a471 d23d a3a0 f33d 9be6 3abd
00000330: 289b dfbe 6692 6a3d c640 d2bc c5d3 c33d
00000340: 9886 f83a df29 0fbe e67e 4cbe 389f 883e
00000350: f12e ae3d 8490 f63c a32c 8a3d de73 39bd
00000360: c609 67bd cc09 553d e896 23be 63e9 bb3d
00000370: 98cd 3e3d 8aaa b2bc 0a86 d33d 25f1 f53d
00000380: 394f dc3d 365a 63bd 2529 18be 46b7 de3d
00000390: 47f4 183e f354 77bd f7fc 61bc baa3 66be
000003a0: e4d1 9c3d 8cbf bf3d 4bc6 0cbd 65c0 f9bd
000003b0: cf02 b4bd cfe9 43bd 1646 823d d693 cf3d
000003c0: 3198 92bd 736e 81be b6d6 6d3c 9aed 8bbd
000003d0: 86ec 643d f6c1 fd3d 7343 e73d bf30 7ebe
000003e0: ee82 d2bd 44c2 cf3c a9f2 733e b382 793e
000003f0: 11aa 5f3e ab7c 03be bc40 a0bd 9b28 35bd

fc1.bias f4 [64]
-0.017735405 -0.104798615 -0.09365641 0.04919978 -0.013743292 0.021817377 0.14383973 0.03248918
0.05615933 -0.003900195 -0.12903354 0.020597124 0.042914547 0.11453395 -0.060074646 -0.00015630147
-0.09781446 0.15177907 0.0087776575 -0.17578909 -0.15014058 0.0041920617 -0.06227871 0.01633366
-0.053690214 -0.12634699 0.12648863 0.19934611 -0.06765913 0.017511409 0.04156318 0.082965575
-0.0022377302 0.08528325 0.031849116 -0.1452808 0.16086839 -0.09982436 -0.0054844464 0.13287845
0.117901385 -0.00045676233 -0.08193637 0.14152467 0.24640119 0.07212035 0.0069903983 -0.114212416
0.18767919 -0.104872346 -0.0929752 0.07996244 -0.006259487 -0.03779794 -0.058982562 -0.036623348
-0.020416196 0.13040099 -0.09482564 0.06014434 0.06677668 -0.06453329 0.13916387 0.030686093
00000000: d749 91bc a8a0 d6bd efce bfbd b585 493d
00000010: 8b2b 61bc 5bba b23c b94a 133e 6013 053d
00000020: 5307 663d 6a9a 7fbb 5e21 04be 4dbb a83c
00000030: 2ac7 2f3d c790 ea3d d510 76bd dbe4 23b9
00000040: f352 c8bd f96b 1b3e 2ad0 0f3c 0e02 34be
00000050: 74be 19be 905d 893b f617 7fbd 2bce 853c
00000060: 45ea 5bbd 1b61 01be 3c86 013e 6321 4c3e
00000070: df90 8abd 1674 8f3c 273e 2a3d dbe9 a93d
00000080: e2a6 12bb fca8 ae3d 3874 023d 7dc4 14be
00000090: afba 243e b770 ccbd dfb6 b3bb 4a11 083e
000000a0: 4876 f13d 9a79 efb9 41ce a7bd d8eb 103e
000000b0: 9850 7c3e d6b3 933d b60f e53b 33e8 e9bd
000000c0: f92e 403e 50c7 d6bd c869 bebd 59c3 a33d
000000d0: 621c cdbb 03d2 1abd b397 71bd 5d02 16bd
000000e0: de3f a7bc d687 053e f233 c2bd e959 763d
000000f0: 36c2 883d 082a 84bd f980 0e3e 6761 fb3c

fc2.weight f4 [64, 64]
-0.1339431 -0.50591147 -0.3238038 0.120620094 -0.010262066 -0.1851178 0.19233325 0.03506178
-0.10013868 -0.09599456 -0.09445506 0.058169227 0.040494956 -0.18049091 -0.08250547 -0.12152282
0.007542855 0.029580994 0.10981714 0.0065635107 0.011010878 0.19384971 0.102106586 0.013435476
-0.08482879 0.33573997 -0.43655765 -0.5566887 -0.36611506 0.14267154 0.13624181 0.04269915
0.14577352 -0.35944033 0.01602159 -0.007989257 0.50765 0.064163394 0.22824924 -0.04003829
-0.053000778 -0.025710156 -0.43379024 -0.12751912 -0.25488967 0.03157597 0.06809432 -0.18558559
0.106682755 0.08119983 -0.2558343 -0.040001404 -0.23827946 0.2573069 0.12167702 0.005930331
0.036049977 -0.019573849 -0.0647436 0.16769181 0.08406525 -0.0805327 -0.41353154 -0.27653804
0.027024738 0.08030443 -0.047631968 0.11210194 0.23703685 -0.03303196 -0.070277035 0.036117822
0.1320095 0.041702043 -0.13454476 0.07737829 0.030806022 0.12742671 0.0075386544 0.051859938
0.0007820102 -0.11683874 -0.09388917 0.056195322 -0.09301776 0.08950901 0.06867788 0.0010889824
0.08912836 0.31775054 0.07467075 -0.021478627 0.069211036 0.012553522 0.07294941 0.1023881
-0.030504558 0.21864243 -0.002983743 0.062488187 0.10666417 0.051356833 0.09757427 -0.03545372
0.15210253 -0.015754977 0.12644848 0.12980661 0.26429784 0.17590018 0.17597988 0.0837078
0.09419551 0.0829774 0.12189304 0.114831045 -0.046497136 -0.020126328 -0.013787177 -0.094095595
0.05521243 0.1588405 0.09847255 -0.004268144 -0.034196254 0.029967872 0.13679244 0.0062779966
-0.14129357 0.12648122 -0.05616386 -0.06482376 0.014291929 0.09885916 -0.013983592 -0.074024945
0.1498321 -0.012995119 -0.026061114 0.12468495 -0.042224545 0.2279419 -0.050391614 0.12482074
0.07278089 0.015732557 -0.009458249 0.041503467 0.06461409 0.12401888 -0.383963 -0.031270243
-0.0038400919 0.2863653 0.03744667 0.21829766 -0.1412218 0.2474582 0.11648393 0.10299289
0.11208315 0.40372697 0.1686104 0.07917156 0.24698533 0.2024179 -0.068324275 0.007516269
-0.033401076 -0.07453275 0.045784447 0.20725375 0.11046193 0.07581978 0.16623186 -0.10515994
0.15098906 -0.15997823 -0.0321546 0.094711006 0.082734495 0.14894967 0.09634031 -0.074450694
0.08816955 0.09598677 -0.040332004 0.027802438 0.04698148 0.033439744 0.30725318 -0.092611864
0.049387325 0.09200282 0.3652867 -0.21552168 0.1082594 0.073060475 0.14483397 -0.059218854
-0.17183849 0.18997324 0.01441861 -0.40838513 -0.04052429 0.07681186 0.14053614 -0.09850518
-0.031481948 0.036601104 -0.30746284 -0.09557293 0.09693264 0.15953968 0.26487076 0.0013564925
-0.2091441 -0.21763976 -0.25928935 -0.4339944 -0.21261689 0.015782818 -0.36366352 0.07033223
-0.00214535 -0.6513963 -0.017849892 0.015743652 -0.36477384 0.06738355 -0.19283482 0.0026789077
0.0029966875 -0.1915254 -0.33446947 -0.45079523 -0.23917177 -0.12813838 -0.48696297 0.00021326212
-0.1644791 0.057448 -0.23214398 0.7446461 -0.19902964 0.051031213 0.0713469 -0.1641434
-0.016254088 0.03394328 -0.0048568468 -0.09192143 0.15660423 0.042461462 -0.1472979 -0.039055146
00000000: 6128 09be 6a83 01bf 9dc9 a5be ab07 f73d
00000010: 3922 28bc 858f 3dbe 02f3 443e f19c 0f3d
00000020: 8215 cdbd cc98 c4bd a871 c1bd db42 6e3d
00000030: 0ade 253d 9cd2 38be a1f8 a8bd f5e0 f8bd
00000040: 0e2a f73b d753 f23c cfe7 e03d b812 d73b
00000050: f866 343c 8a80 463e 421d d13d 7920 5c3c
00000060: b7ba adbd 1ce6 ab3e 7c84 dfbe 2783 0ebf
00000070: 6f73 bbbe 7d18 123e f982 0b3e 4ee5 2e3d
00000080: a745 153e 9008 b8be b63f 833c 5fe5 02bc
00000090: 5af5 013f 1968 833d 2bba 693e 31ff 23bd
000000a0: 5817 59bd 1b9e d2bc c119 debe 5f94 02be
000000b0: e680 82be ce55 013d 0975 8b3d 260a 3ebe
000000c0: 7d7c da3d 194c a63d b7fc 82be 83d8 23bd
000000d0: 88ff 73be bbbd 833e cd31 f93d 3953 c23b
000000e0: 24a9 133d 5659 a0bc 4b98 84bd 67b7 2b3e
000000f0: 672a ac3d 54ee a4bd 68ba d3be 6596 8dbe
00000100: fc62 dd3c a676 a43d bd19 43bd b495 e53d
00000110: cab9 723e 854c 07bd 68ed 8fbd 48f0 133d
00000120: 802d 073e c3cf 2a3d 1ac6 09be 8278 9e3d
00000130: e95c fc3c 267c 023e d106 f73b 166b 543d
00000140: d1ff 4c3a 2649 efbd f748 c0bd 112d 663d
00000150: 1880 bebd 8050 b73d fda6 8c3d 30bc 8e3a
00000160: ee88 b63d 33b0 a23e faec 983d f2f3 afbc
00000170: 84be 8d3d 4aad 4d3c 8066 953d dab0 d13d
00000180: b2e4 f9bc cde3 5f3e e78a 43bb 9df3 7f3d
00000190: bf72 da3d 8b5b 523d 05d5 c73d eb37 11bd
000001a0: c4c0 1b3e 9510 81bc b67b 013e 06ec 043e
000001b0: 0c52 873e 2d1f 343e 1234 343e ff6e ab3d
000001c0: 93e9 c03d 0ef0 a93d 0fa3 f93d 8a2c eb3d
000001d0: c873 3ebd f8df a4bc 9de3 61bc 31b5 c0bd
000001e0: 6e26 623d 16a7 223e faab c93d c9db 8bbb
000001f0: 5f11 0cbd 2f7f f53c 5113 0c3e a7b7 cd3b
00000200: 43af 10be 4b84 013e 130c 66bd 52c2 84bd
00000210: b228 6a3c ac76 ca3d 701b 65bc 649a 97bd
00000220: 966d 193e 7be9 54bc 1e7e d5bc d35a ff3d
00000230: a5f3 2cbd 9a69 693e 7067 4ebd 04a2 ff3d
00000240: 260e 953d 90e1 803c c6f6 1abc 8aff 293d
00000250: 6454 843d 9cfd fd3d cc96 c4be 3a15 00bd
00000260: 0daa 7bbb 799e 923e ae61 193d 6c89 5f3e
00000270: 739c 10be af65 7d3e 208f ee3d f0ed d23d
00000280: da8b e53d 4db5 ce3e 34a8 2c3e b324 a23d
00000290: b9e9 7c3e a346 4f3e 99ed 8bbd 094b f63b
000002a0: 91cf 08bd a0a4 98bd 7988 3b3d 543a 543e
000002b0: dd39 e23d 6747 9b3d af38 2a3e 185e d7bd
000002c0: e09c 1a3e 55d1 23be 8bb4 03bd d8f7 c13d
000002d0: b470 a93d 4386 183e 124e c53d 9b79 98bd
000002e0: 3d92 b43d b694 c43d 2c33 25bd f0c1 e33c
000002f0: a76f 403d 1df8 083d 4a50 9d3e 4aab bdbd
00000300: 5d4a 4a3d f96b bc3d dc06 bb3e b7b1 5cbe
00000310: 1bb7 dd3d bba0 953d 5b4f 143e 788f 72bd
00000320: 6ef6 2fbe 5888 423e 093c 6c3c db17 d1be
00000330: ccfc 25bd 894f 9d3d b5e8 0f3e 15bd c9bd
00000340: 37f3 00bd 0aeb 153d c56b 9dbe bebb c3bd
00000350: 9f84 c63d 5f5e 233e 249d 873e 56cc b13a
00000360: df29 56be f5dc 5ebe 93c1 84be 8434 debe
00000370: 3eb8 59be f84a 813c 1b32 babe 580a 903d
00000380: 0099 0cbb e8c1 26bf f039 92bc d5f8 803c
00000390: a3c3 babe 6300 8a3d 7e76 45be 9d90 2f3b
000003a0: 1364 443b 3c1f 44be 953f abbe a2ce e6be
000003b0: 72e9 74be b536 03be 3653 f9be 1d9f 5f39
000003c0: 366d 28be 984e 6b3d 27b7 6dbe 20a1 3e3f
000003d0: 6dce 4bbe 1b06 513d 531e 923d 3515 28be
000003e0: 4b27 85bc 1c08 0b3d 2f26 9fbb 4d41 bcbd
000003f0: dc5c 203e 12ec 2d3d 43d5 16be 4af8 1fbd

fc2.bias f4 [64]
-0.008527037 0.42448032 0.39282033 0.023833195 -0.027584812 -0.17408086 -0.0040344843 0.25872523
0.13718392 -0.0013425439 -0.14464174 0.06770838 -0.041635066 -0.19731848 -0.083898544 -0.06520674
0.029932566 0.58637065 0.10285972 -0.024552912 -0.19828306 -0.07785913 0.04019852 0.0029230537
0.32070202 0.20939142 -0.1566691 -0.20429789 -0.096294716 -0.0628605 0.086356096 0.35412928
0.19698615 0.03293218 -0.029560814 0.16258955 -0.12593518 0.007907027 0.19069117 -0.117194146
0.037217908 0.15872762 0.43365663 -0.011183963 0.040189482 -0.15388767 -0.06721575 0.4284078
-0.15816958 0.093603805 -0.02771434 -0.06404836 0.06580287 -0.1372837 -0.010805195 0.13931668
0.31980178 -0.10554661 -0.0091059925 -0.14919305 -0.12031708 -0.1496248 0.047340345 0.45232886
00000000: fcb4 0bbc 7c55 d93e bf1f c93e d53d c33c
00000010: 8bf9 e1bc 4142 32be b533 84bb a277 843e
00000020: f179 0c3e 4cf8 afba f71c 14be b1aa 8a3d
00000030: 8889 2abd db0d 4abe 00d3 abbd 1c8b 85bd
00000040: 2435 f53c 631c 163f 1ea8 d23d 3023 c9bc
00000050: b70a 4bbe 9c74 9fbd 34a7 243d b490 3f3b
00000060: 0e33 a43e b46a 563e dd6d 20be 7733 51be
00000070: 2a36 c5bd 01bd 80bd 77db b03d 6f50 b53e
00000080: bdb6 493e e5e3 063d 8529 f2bc e07d 263e
00000090: 27f5 00be 7a8c 013c 8c44 433e 7c03 f0bd
000000a0: ce71 183d 7e89 223e 3e08 de3e f13c 37bc
000000b0: ba9d 243d bb94 1dbe 69a8 89bd 4458 db3e
000000c0: 35f7 21be 5ab3 bf3d 2f09 e3bc c92b 83bd
000000d0: a8c3 863d 1994 0cbe 4608 31bc 08a9 0e3e
000000e0: 0fbd a33e d228 d8bd 4d31 15bc 10c6 18be
000000f0: cd68 f6bd 3e37 19be f3e7 413d a697 e73e

fc3.weight f4 [4, 64]
0.12616038 0.08553173 0.18893136 0.6109204 -0.10100504 -0.20067835 0.07581384 0.049663533
0.2482076 -0.02733706 -0.062265303 0.033800706 0.00033350528 -0.12866348 -0.15024427 0.05374495
0.46034425 0.1979413 0.33367828 -0.18329406 -0.28215402 0.12336998 -0.47988802 -0.216439
0.1404577 0.14785732 0.19192283 -0.032794215 -0.19788979 0.04431605 0.31314537 0.18862
0.18877931 -0.052050743 -0.091164134 0.08219737 -0.18783455 0.1834138 0.3252829 0.2299471
-0.024506936 0.18857239 0.18155192 0.31714 0.16930203 -0.28458935 0.05945638 0.19427788
-0.12257216 0.36808267 0.13149416 0.23544687 -0.06620739 0.03337502 -0.10518433 0.036402617
0.1449678 -0.7229036 0.25116023 0.34154853 -0.081113935 -0.22652887 0.39689657 0.16935842
0.0609892 0.20074834 0.0768757 0.5713991 -0.009814926 -0.17652795 0.09037238 0.10297097
0.23842555 0.33778098 0.018942965 0.09480785 0.08331226 -0.17518055 -0.08175316 0.21828097
0.39823547 0.193288 0.31852934 0.1279021 -0.23442857 -0.049851283 -0.06466627 -0.036875114
0.15701555 0.13045116 -0.081718124 -0.20310225 -0.20036028 0.07779333 0.3798457 0.16619214
0.19570813 -0.02063896 -0.06312018 0.1431414 -0.08145751 0.18953983 0.16265956 0.1618187
-0.02813716 0.26974508 0.23071563 0.56831443 0.13248967 -0.05053115 0.13582137 0.16484262
-0.11622464 0.44535077 0.47889325 0.20856242 -0.09797854 -0.06379027 -0.1035119 0.103232116
0.10841725 -0.11879159 0.25821227 0.16961443 0.010232065 -0.25112832 0.37476504 0.18472213
0.2810169 0.18974087 0.15669604 0.5224412 0.13861333 -0.17814203 -0.045518555 0.103717
0.035992682 0.038546868 -0.39436862 0.033288922 -0.3241143 -0.11603918 -0.20507929 0.6049222
0.64357966 0.18789776 0.05239197 -0.20257191 -0.26207328 -0.21691155 -0.35379222 0.10522617
0.20876138 0.13981551 -0.77457994 -0.28174165 -0.22281149 -0.25848967 0.49199808 0.14873685
0.18023144 0.09499164 0.053044993 -0.04164252 -0.24606964 0.25514212 0.24745877 0.21113686
-0.11902965 0.32582903 0.28718197 0.008962239 -0.2623513 -0.17996365 0.4224819 0.1900185
-0.07591345 0.12086975 0.22796614 0.4681969 -0.30632114 -0.10424258 0.061945092 0.29654932
0.17442766 -0.15530863 0.2769475 -0.085459344 0.09041674 0.0731715 0.25197995 0.19632754
0.28884682 0.16957745 0.14503421 0.23072569 0.066523574 -0.26356974 -0.13038138 0.1919203
0.15787357 -0.18328422 0.068667814 -0.4413359 -0.16285211 -0.22981729 0.24071278 -0.24207735
0.17580035 0.22518203 0.03829248 -0.04336069 -0.19577919 -0.37095228 -0.13621561 -0.11213061
0.20518047 0.13011014 -0.091365404 -0.08472224 -0.19761464 0.14888126 0.099548236 0.08105296
0.21251033 -0.20824301 0.2463495 0.15310976 -0.13048947 0.12409843 0.27717808 0.32974312
0.1407492 0.4206376 0.19629183 0.78271765 0.09082581 -0.13301846 -0.1170909 0.11905128
-0.33263543 0.31808963 0.3865339 0.21323511 -0.6176037 -0.15101095 -0.30270067 0.19926608
0.18122153 -0.3566044 0.4991065 0.62401664 -0.0076458547 0.036519207 -0.13293926 0.12148157
00000000: 3030 013e 422b af3d 3977 413e 4865 1c3f
00000010: bbdb cebd a07e 4dbe 4944 9b3d fd6b 4b3d
00000020: 222a 7e3e f8f1 dfbc e709 7fbd 9c72 0a3d
00000030: 52da ae39 5cc0 03be a2d9 19be aa23 5c3d
00000040: 3eb2 eb3e 20b1 4a3e e1d7 aa3e 70b1 3bbe
00000050: 7e76 90be 66a9 fc3d e2b3 f5be 2fa2 5dbe
00000060: 25d4 0f3e e967 173e 6b87 443e 3a53 06bd
00000070: 9fa3 4abe bf84 353d 9754 a03e 9a25 413e
00000080: 5d4f 413e 2933 55bd 43b4 babd 1857 a83d
00000090: b357 40be d4d0 3b3e 7b8b a63e 4177 6b3e
000000a0: c5c2 c8bc 1f19 413e bfe8 393e 2d60 a23e
000000b0: 835d 2d3e b2b5 91be 8888 733d c8f0 463e
000000c0: 1d07 fbbd 5575 bc3e 68a6 063e fc18 713e
000000d0: bd97 87bd 3fb4 083d e26a d7bd e91a 153d
000000e0: 7072 143e 3610 39bf 1398 803e 73df ae3e
000000f0: 101f a6bd 2ff7 67be 0736 cb3e 4b6c 2d3e
00000100: d0cf 793d f990 4d3e 0271 9d3d 3647 123f
00000110: c9ce 20bc bec3 34be 2815 b93d 72e2 d23d
00000120: d425 743e a1f1 ac3e 472e 9b3c 9e2a c23d
00000130: 9e9f aa3d 8862 33be 336e a7bd 0c85 5f3e
00000140: 85e5 cb3e 4aed 453e 4716 a33e c5f8 023e
00000150: 0b0e 70be dc30 4cbd c06f 84bd 5c0a 17bd
00000160: afc8 203e fd94 053e d55b a7bd 09fa 4fbe
00000170: 3f2b 4dbe 1c52 9f3d 237b c23e 462e 2a3e
00000180: b667 483e 0913 a9bc 2745 81bd a993 123e
00000190: 32d3 a6bd bb16 423e 3a90 263e cdb3 253e
000001a0: e77f e6bc 071c 8a3e b840 6c3e 0e7d 113f
000001b0: 5fab 073e c0f9 4ebd c214 0b3e 81cc 283e
000001c0: 2f07 eebd 0405 e43e 7f31 f53e 6391 553e
000001d0: f9a8 c8bd 79a4 82bd 0cfe d3bd 5c6b d33d
000001e0: dd09 de3d 0149 f3bd 6634 843e 68af 2d3e
000001f0: 64a4 273c e493 80be 34e1 bf3e cc27 3d3e
00000200: 72e1 8f3e 6e4b 423e ed74 203e b5be 053f
00000210: a7f0 0d3e dd6a 36be aa71 3abd 9469 d43d
00000220: 106d 133d 52e3 1d3d afea c9be f759 083d
00000230: 4ff2 a5be f3a5 edbd 4e00 52be 2edc 1a3f
00000240: a3c1 243f 4568 403e f698 563d 036f 4fbe
00000250: 782e 86be 101e 5ebe 4124 b5be d180 d73d
00000260: 8bc5 553e cc2b 0f3e df4a 46bf 7140 90be
00000270: b228 64be c258 84be 2ce7 fb3e 794e 183e
00000280: 978e 383e fa8a c23d b545 593d 5991 2abd
00000290: aef9 7bbe fda1 823e d565 7d3e 4334 583e
000002a0: d1c5 f3bd 10d3 a63e 8409 933e 5bd6 123c
000002b0: e952 86be 6448 38be 8c4f d83e 3694 423e
000002c0: 8378 9bbd 8f8a f73d f56f 693e 81b7 ef3e
000002d0: 20d6 9cbe 227d d5bd 23ba 7d3d 50d5 973e
000002e0: 2a9d 323e 3a09 1fbe 10cc 8d3e 4f05 afbd
000002f0: 692c b93d f0da 953d 8403 813e 160a 493e
00000300: bbe3 933e b6a5 2d3e d983 143e 5b43 6c3e
00000310: 833d 883d 9df2 86be b282 05be c186 443e
00000320: 9ca9 213e dcae 3bbe b6a1 8c3d c7f6 e1be
00000330: b4c2 26be 3955 6bbe 697d 763e 20e3 77be
00000340: 0205 343e 1e96 663e 93d8 1c3d fb9a 31bd
00000350: 577a 48be 75ed bdbe 1b7c 0bbe bca4 e5bd
00000360: d41a 523e 983b 053e c91d bbbd db82 adbd
00000370: 7e5b 4abe 5474 183e f2df cb3d 18ff a53d
00000380: 4f9c 593e a83d 55be 0b43 7c3e cec8 1c3e
00000390: 089f 05be 5127 fe3d 49ea 8d3e 17d4 a83e
000003a0: 8f20 103e d05d d73e ba00 493e 2f60 483f
000003b0: e202 ba3d fe35 08be 5bcd efbd 28d1 f33d
000003c0: 314f aabe a5dc a23e c5e7 c53e 4e5a 5a3e
000003d0: 471b 1ebf 9da2 1abe 95fb 9abe 680c 4c3e
000003e0: 2392 393e da94 b6be e38a ff3e 8ebf 1f3f
000003f0: 148a fabb 2a95 153d 3b21 08be 54cb f83d

fc3.bias f4 [4]
0.39441153 0.28033245 0.23106359 0.3385236
00000000: 4ff0 c93e bc87 8f3e ef9b 6c3e f752 ad3e
